log/20231223_014541/best_acc.pth (torch, 53260 bytes, 38 tensors)

encoder.layers.0.self_attn.in_proj_weight f4 [48, 16]
00000000: 72d8 413e e5b8 a23e be7c c23d d833 d63e
00000010: 02ef f4bd e266 58be 7e46 723e f6f1 403e
00000020: 77c1 cb3c 3aca 86be 600b 6b3e 86fc 45be
00000030: 0111 a03e 3e8d 87bd 05b0 febd 2ee0 db3d
00000040: 4f35 713d a044 d3be 4804 22be 4705 13be
00000050: 5820 ac3d 4236 b13d a6fc 27be d9bd ee3d
00000060: 7928 203e 39a6 173d 662c d6be 84e2 bd3c
00000070: 5c93 d9be 536c a6be 968f 973d 303b 97be
00000080: bff1 e9bd b9b1 1b3e 5d4f 3ebe 4899 1cbe
00000090: ee44 86be 6642 53be 817d 213e 33fc a13e
000000a0: 51b6 12be 3cba 4f3a 77c2 2b3f 177b ccbe
000000b0: 1bd0 57be f885 83bd a853 03be 56b2 423e
000000c0: ebf4 01bf e94b 7fbe bc20 78be 8a27 afbd
000000d0: de75 813e 87dc b7be 4019 353e 76da 1a3e
000000e0: 5916 dc3c 0067 0cbe a49f 2dbe 49f1 f9be
000000f0: ad9f c13d 6297 a7be f7df e5bd 4edb f6be
00000100: b600 393d 1354 59bd f792 d83e 802f cd3e
00000110: df4c 63be c55c 3e3d 7166 d3bd 1677 693e
00000120: 9b6f cfbd f702 793e 2bf3 223e 931d 46bd
00000130: e863 d1bd c4bd ef3e 27d2 ac3e 8c96 1ebd
00000140: a839 e4be 4a9c e4be 88c7 cf3d 2442 42be
00000150: 3543 a43d af77 de3d ac0d 05be 68f8 52bd
00000160: a1b1 f93d 6e9a e0be 15b1 4fbd dfd2 cdbe
00000170: 4181 1d3e 0c51 13bf 8db6 59be 7b75 8d3d
00000180: 1d44 fc3d 6d4b 3bbc 4232 9bbe 8a5d c0be
00000190: ff35 c93e 604c 923e 1eec 7fbe aa1e 04bd
000001a0: 9b92 003e da76 033f 91c2 2ebf 7516 883c
000001b0: eced bbbe 70c9 993e 6145 3f3e 8763 13be
000001c0: cc11 87bd aebc 083e 3b61 023e eb41 023e
000001d0: c83f abbe 58c0 7d3e 6148 3ebe 8a09 623d
000001e0: 8025 abbc 92a5 663e 2ef1 ab3e 0cb1 87bd
000001f0: 23ec 9c3d 153c 033e e94f 0e3e 0618 803d
00000200: 2ccf 7cbe 7e70 7bbe 4731 be3d 6aaf 63be
00000210: c6d0 3cbd 7d12 033e b30d c7bd ef2a 023e
00000220: b62c bc3e 218a 97be d956 3dbf 6b73 2f3e
00000230: c8b5 d9bd 7434 57be 349e b1be 07cd 52be
00000240: 1f7c 103e b051 3c3d 9934 2bbd e167 5bbd
00000250: 611f 7cbd e6f5 8d3e d6ed 003e eff5 8b3e
00000260: 512a 33be 763c 28bd 4a07 0e3f f189 a73d
00000270: c402 1fbe ddf3 8bbd a7cb 923e d3d1 1dbb
00000280: 583c 583e 3920 c03d 24b3 42be 22de 093e
00000290: faba 903e bfd0 cb3d 5d86 5dbd 5b2a b13e
000002a0: daf4 af3e 54e3 9dbe 363b 083e e18d 343c
000002b0: 82fe 57be cf90 9cbd 7e7a 1fbc dd5a 3dbc
000002c0: 1e8c 60bc 2155 d13e cdbb 96bd 7077 473d
000002d0: ef0b 703d cc57 993d 661b a33e bd84 55bc
000002e0: 2bf0 bdbe 6c6f 063f 76bb 833e a56f 25bb
000002f0: 2faf cfbc 5dc1 b03e a0fa cc3d 2a8d 503e
00000300: 82d3 843e 5ea4 17be 87dc 573c 7ba6 823e
00000310: e6b5 62be da3f 25be cd88 48be 30c4 1c3d
00000320: 2a37 a93c ee11 adbe 27d7 0b3f f5e1 9d3d
00000330: 1d64 fdbd f120 1bbe b526 883e 68bd 183e
00000340: 08a2 7f3c b2bf 51be 33b5 13be fe3e 29be
00000350: 933e 253d 9b11 12be e56e 89bd fe2c 7fbe
00000360: ff5f 493e 24f5 43be 1611 333e d700 1cbe
00000370: a5cb c43d 0fdb b0be d04e 9cbd f912 693d
00000380: 8fa3 42be b1c6 813d ddd8 373d 89c9 0c3c
00000390: 5156 b93e d4c6 013e c166 17be 3a74 173e
000003a0: 92ae c9bd e38b 733e 4d77 73be 4812 85be
000003b0: c841 493e 521a a63d f640 8c3d 8184 c1ba
000003c0: 124d 0ebe d90b 423e 3f16 283e 495a 973c
000003d0: 84f1 4a3d 3db9 683d 5adc 933e ef41 7ebe
000003e0: 2dce f43e 0a5b a4be 5c9f 0f3d 36c7 0f3e
000003f0: 9045 223e cb98 94be 9e39 50be c6f8 173e
0.18930224 0.31781688 0.09496449 0.4183643 -0.119596496 -0.21132997 0.23659703 0.18842301
0.024872525 -0.26326162 0.22953558 -0.19334611 0.31262973 -0.06618737 -0.12435917 0.10736118
0.05888873 -0.41263294 -0.15821946 -0.14357482 0.084046066 0.08652927 -0.16404971 0.11657304
0.15640439 0.037023757 -0.41830748 0.0231793 -0.4249524 -0.3250452 0.07400434 -0.29537344
-0.114230625 0.15204515 -0.18584962 -0.15292847 -0.26224464 -0.20630798 0.15770532 0.31637725
-0.1432736 0.00079241744 0.67093605 -0.3993766 -0.2107548 -0.06422037 -0.12824881 0.19013342
-0.5076434 -0.24931301 -0.24231237 -0.08552463 0.25285238 -0.35910437 0.17685413 0.15122399
0.026866125 -0.13711166 -0.1695543 -0.48816898 0.09454284 -0.32732683 -0.112243585 -0.4821419
0.045166694 -0.053058695 0.42299625 0.40075302 -0.22197293 0.04647519 -0.103222735 0.22799334
-0.10128709 0.24317537 0.15913074 -0.048368048 -0.10224134 0.46824467 0.33754084 -0.03871779
-0.44575238 -0.4465049 0.101454794 -0.18970543 0.08020631 0.108626716 -0.12993497 -0.05150643
0.12192083 -0.4386782 -0.050705988 -0.40199944 0.15381338 -0.5754554 -0.21261044 0.06907173
0.12317679 -0.011431557 -0.3031178 -0.37571365 0.39299008 0.28573895 -0.24992415 -0.032255806
0.12555926 0.5135323 -0.68265635 0.01661227 -0.36704957 0.30036497 0.1867881 -0.14393435
-0.06595191 0.13353226 0.12732403 0.12720458 -0.334471 0.24780405 -0.18582298 0.05518488
-0.020891905 0.22524098 0.33582443 -0.06625566 0.07662227 0.12815888 0.13897671 0.06254582
-0.24688405 -0.24554631 0.09286743 -0.22234884 -0.04609754 0.12800021 -0.0971941 0.1271169
0.36752862 -0.29597571 -0.73960644 0.17133872 -0.10630375 -0.21016103 -0.34691012 -0.20586024
0.14109848 0.04597634 -0.041798208 -0.053565864 -0.061553363 0.27726668 0.12590727 0.2733607
-0.17496611 -0.041073285 0.5547987 0.08180607 -0.15528399 -0.068336226 0.28671 -0.0024081364
0.2111677 0.09381146 -0.19013649 0.13463643 0.28267652 0.099519245 -0.054083217 0.34602627
0.34366494 -0.308375 0.13303837 0.011020155 -0.21093181 -0.076448075 -0.009733794 -0.011557308
-0.013705282 0.4088526 -0.07360039 0.04869789 0.05860513 0.07487449 0.3185684 -0.013032136
-0.37097296 0.52513766 0.2572896 -0.0025243547 -0.025352089 0.34522524 0.100087404 0.2036635
0.25942618 -0.14808795 0.013175136 0.2551764 -0.22139701 -0.16137639 -0.19583435 0.038273036
0.020656187 -0.33802742 0.5462517 0.077091135 -0.12372611 -0.15149285 0.2659203 0.14916003
0.015602596 -0.20483282 -0.14424591 -0.16527936 0.04034288 -0.14264528 -0.067106046 -0.24919507
0.19665526 -0.19136482 0.17486987 -0.15234695 0.096091546 -0.34542128 -0.0763222 0.05690286
-0.19007705 0.063367255 0.04488455 0.008592972 0.36198667 0.12673503 -0.14785291 0.1479043
-0.0984775 0.23783831 -0.23775978 -0.2599051 0.19654 0.08110489 0.06848328 -0.0014764221
-0.13896587 0.18949832 0.16414736 0.018475669 0.049546733 0.056817282 0.28879052 -0.24829839
0.4781355 -0.32100707 0.035064086 0.14040837 0.15846848 -0.29022822 -0.20334479 0.14840993

encoder.layers.0.self_attn.in_proj_bias f4 [48]
00000000: 529c adbe c1cf c73e 46a9 fdbd 8894 07be
00000010: 7773 dcbd 6b8c f33c d362 763e 0898 10be
00000020: c9fa 9abe 2575 473e 04f2 59bd 0af4 073e
00000030: 2fc5 153e 420a f43d ff03 e5bd 5449 023c
00000040: a61d 33bb 5069 7ab8 0778 983b b794 5d39
00000050: 2ecd bf3b 6572 ae3a 08ef dcbb aa32 833b
00000060: e3f1 8fbb 3e8e 2b38 1577 88b9 585a f4bb
00000070: 4f14 203a 2393 773a cf9f 40ba 53a4 22bb
00000080: 07d9 5f3d de48 c63d 7dd1 6b3d 6ce9 353e
00000090: b625 0fbd 66c6 6d3e 488c 643d 55b1 dbbd
000000a0: bdc6 a4bd dc5d f53c fcce ecbb 4d25 a23d
000000b0: 872e e23c 31b7 d5bd 5599 d5bd 443d 9bba
-0.33908325 0.3902569 -0.12385802 -0.13240254 -0.10764211 0.029730042 0.24061136 -0.14120495
-0.3026946 0.19478281 -0.05320932 0.13276687 0.14626001 0.11916019 -0.11182403 0.007952053
-0.0027330904 -5.9702725e-05 0.0046529802 0.00021131603 0.0058533167 0.0013309239 -0.006742362 0.0040038424
-0.004392849 4.090205e-05 -0.00026028664 -0.007457059 0.0006106542 0.00094442273 -0.0007348032 -0.0024817183
0.054650333 0.09681867 0.05757283 0.17764825 -0.034948073 0.23220214 0.055797845 -0.10727183
-0.08045719 0.029951982 -0.007226823 0.07917271 0.027610077 -0.104353316 -0.104296364 -0.001184382

encoder.layers.0.self_attn.out_proj.weight f4 [16, 16]
00000000: 8de6 67be bcec 6c3e fac8 baba 6976 2b3c
00000010: 6df5 43be 302d c83c 82e8 40be 22e1 773d
00000020: 5c31 803d c6ec cebd 2906 a03d 6a4c 813d
00000030: b10c 1e3d e9b7 41be 3f38 e13c 2e81 1ebe
00000040: 5a28 3bbc bc2a 27be 13db 353e 2267 6c3d
00000050: 1edd 89bd 9e81 b83d d191 b2bc 2705 cabd
00000060: 818b 3b3d 1f5e 693b 831f 57be 3240 b7bd
00000070: 002f 8cbd b396 d5bd 3f88 edbd 43a4 c2bd
00000080: 268c 16bd 81b9 ebbc 1c31 313e ed69 063d
00000090: 678d ba3c 447d 503e 5f22 3bbd 54b7 853d
000000a0: 7abd fb3d 7dcb 8cbd cc1f 1abd 5468 413d
000000b0: 3422 4fbc 266e 51be 97d3 32bc fbd7 21bc
000000c0: 0f67 1abd 07ea 593d 8373 213e 74de ac3d
000000d0: 0c3c 803e af23 543d cecf 7b3d e643 c63a
000000e0: ebc1 233d 630c 91bd 2e2d 353d 3c71 afbd
000000f0: 34c3 813e e4b7 b03d 3baf b93d 5516 e6bd
00000100: 4434 503d 8db0 353e 410f a9bc 41dd 1bbe
00000110: 6cdf 32bd 22d1 693e 3064 de3d 27f4 c13d
00000120: 8e61 6ebd 8b1d f73d 864c 8ebd bf93 1f3d
00000130: 537c 253e f0d7 08be 1b4d 33be 847d debd
00000140: b54a 42be 92ff 1b3e af42 e43c a59e c6bc
00000150: 6333 e7bd 6aa8 5f3e 022b 67bd f96c 35bd
00000160: 663d 803c 58fd 293d 5650 91bd 154e cc3d
00000170: 663a 603d e525 0cbe be5a 4dbe fd21 383d
00000180: 2e03 99bd 26de f93c cd1e 65bd ca43 223e
00000190: bd9e 97bd 855c 373e 39b4 c9bc 6edd a73b
000001a0: 1330 963c 5b8a 97bd 96ea 62be d077 debd
000001b0: 5772 cc3d 6b50 a63d 6a9a b43d 4419 29be
000001c0: 0e89 ce3d 1943 bd3d 3f12 57be 9c51 373d
000001d0: 5be8 96bd 9b71 363e 9ccd a63e 8d2f f73b
000001e0: 04e5 07bc 6d18 7dbd b489 b0bc a1e9 b03d
000001f0: b4bb 35bd 76cf 7b3c 9012 fdbd 5e52 5fbd
00000200: d032 01be 9ac1 e6bc 8ce7 bc3b 0c10 1e3d
00000210: 70d8 593e fc71 f7bc 74c3 7c3e afe7 50be
00000220: d5f4 55bd 8de6 e1bd f03b e1bd 5bd1 a6bd
00000230: d479 d13c c1ba 95be 082c 843c 1248 41be
00000240: a52d 91bb 16a6 1f3d 5642 d1bd 43e0 c43d
00000250: d69c bd3c c291 a63b 6478 1d3d 716f ad3d
00000260: 3bfe 2b3d b5a0 243d e018 11bd 20d1 bf3d
00000270: b860 e7bc 7ce0 0b3d 930f ab3d 29dd 01bd
00000280: f1ab 143d d413 04bd b63d ee3c 7acd 99bc
00000290: d8e5 003d d2cc 3ebd 1a02 0c3d af0e 6a3c
000002a0: 31e6 2f3e 9970 07bd cc9b 653e b1fd 8abd
000002b0: 8f88 78bc 6e4f 973d 2a55 153d c0d7 9bbc
000002c0: a452 813d 854e 183e 8bf7 443e fa3e a63d
000002d0: a91e e8bd 94e7 243e b75c 2a3e 3973 83bd
000002e0: 2512 f53c 6f81 27bd 8e83 05be 5a9e 85bd
000002f0: ceb1 b03d ee03 5cbe 524b 7cbc abbb 23bd
00000300: 2292 103d a6e5 913d b179 163e 071e e33d
00000310: a746 833d 6bdd 1c3e 957d 09be 8da1 55be
00000320: 509b 71bd 5891 22be 04bd 83bc 0789 43bc
00000330: 8b66 88bd f697 68be bc59 b6bd ea3f a8bd
00000340: 8bde a03d a8fb 5bbd 0609 49be 29f0 463d
00000350: cf44 8b3d a780 db3d 670f 003e e557 f9bd
00000360: 468e 66be ce3e 6f3d 5257 1cbd 2c0c 103d
00000370: 6049 dfbd db2f 55be 4099 8d3d 0673 443e
00000380: aa54 993c d6cc 163c a542 273b b71f 6fbe
00000390: 3c3f 003d 291b b03d a817 00bd 9217 2ebc
000003a0: ea0c 8abe 5af4 48bc 1ef4 b83d 415c 0abc
000003b0: 2967 2b3e 3cd5 e3bd 7f9d 083d a19e ccbd
000003c0: 0bd7 53be 41db 6d3d 0bca 803d 0dee f23d
000003d0: 0e61 73be bea6 e9bc 04a1 9e3d 22d8 53be
000003e0: 5346 5fbe 8023 c43d 2480 e63d 35d7 283d
000003f0: 898b 2fbd f4fa 10be cb0c 003e 35d2 ea3d
-0.22646542 0.23137182 -0.001425057 0.010465243 -0.19136591 0.02443561 -0.18838695 0.060517438
0.062594146 -0.10103755 0.07813675 0.06313403 0.038586322 -0.18917812 0.02749264 -0.15478966
-0.011423195 -0.16324896 0.17759351 0.057715543 -0.06731628 0.090090975 -0.021798046 -0.09864264
0.04578734 0.003560908 -0.21008115 -0.08947791 -0.06844902 -0.10429134 -0.115982525 -0.09503987
-0.03675475 -0.028774979 0.1730389 0.032815862 0.022772504 0.20360285 -0.045687076 0.06529108
0.12291999 -0.0687475 -0.03762798 0.047218636 -0.012642432 -0.20452175 -0.010914705 -0.009878154
-0.03769594 0.0532017 0.1576672 0.08440867 0.25045812 0.051791843 0.061477475 0.0015126436
0.039979856 -0.07082441 0.04423254 -0.085665196 0.2534424 0.08628824 0.09066626 -0.11234728
0.050831094 0.1774313 -0.020637156 -0.1522112 -0.043670103 0.22833684 0.10858953 0.094703965
-0.058198504 0.12066182 -0.069481894 0.03895926 0.16160707 -0.13363624 -0.17509882 -0.10863784
-0.18973811 0.15234211 0.027863828 -0.02424557 -0.11289098 0.21841589 -0.0564375 -0.044293378
0.015654277 0.041501373 -0.07095401 0.099758305 0.054743193 -0.1368633 -0.20054147 0.04495429
-0.074713096 0.030501436 -0.055937577 0.15846172 -0.07403324 0.17906387 -0.02462207 0.005122832
0.01833347 -0.07399436 -0.221598 -0.10862696 0.09982746 0.08120807 0.08818515 -0.16513544
0.10084735 0.092413135 -0.21003054 0.044755563 -0.07368537 0.17816775 0.32578743 0.0075435103
-0.008294348 -0.061790872 -0.021550037 0.08638311 -0.04436846 0.015369287 -0.12357056 -0.05452191
-0.1261704 -0.028168488 0.005764907 0.038589522 0.2127397 -0.03020572 0.24683934 -0.2040088
-0.052235443 -0.11030302 -0.1099776 -0.081454 0.025570787 -0.29244044 0.016134277 -0.18875149
-0.00443049 0.03897675 -0.10217731 0.09613087 0.023146074 0.0050832937 0.03844489 0.084685214
0.0419905 0.040192325 -0.035424113 0.09366059 -0.028244361 0.03414963 0.0835258 -0.031705055
0.03629679 -0.032245472 0.02908216 -0.018774737 0.031469196 -0.04658205 0.03418169 0.014285727
0.17177655 -0.033066366 0.22422713 -0.06786669 -0.015169277 0.07388197 0.036458172 -0.019023776
0.063145906 0.14873703 0.19235055 0.081174806 -0.11333973 0.16103965 0.1663693 -0.06418461
0.029915879 -0.040894922 -0.13038465 -0.06524344 0.086276636 -0.21485874 -0.015398817 -0.039973896
0.035295613 0.0712388 0.14694859 0.11089712 0.0640996 0.15318839 -0.13426812 -0.20862408
-0.05898601 -0.15875757 -0.01608134 -0.011934525 -0.066601835 -0.22714218 -0.08903834 -0.08215316
0.07854947 -0.053706795 -0.19632348 0.04856888 0.068002336 0.10717898 0.12505876 -0.12174968
-0.2251521 0.058409505 -0.038169213 0.035167858 -0.10902667 -0.20819037 0.06913996 0.19184503
0.018717129 0.00920411 0.00255219 -0.23351942 0.031310305 0.085989304 -0.03127256 -0.010625737
-0.26962978 -0.012265289 0.09030937 -0.008444847 0.16738571 -0.111246556 0.033353325 -0.099911936
-0.20687501 0.058070425 0.06288537 0.11861811 -0.23767492 -0.028521892 0.07745555 -0.20687917
-0.2180417 0.095770836 0.1125491 0.041220862 -0.04285768 -0.14158231 0.1250488 0.11465875

encoder.layers.0.self_attn.out_proj.bias f4 [16]
00000000: 70de 3e3d ca62 4dbd 8b9a 103e ce56 ea3d
00000010: d32b 063e 041d 993d 85a8 af3d b183 063e
00000020: 3606 0d3e b3e2 ae3d 074b 98b9 0764 3d3d
00000030: ce1f d93d c786 54bd 7ebb 133e c6f6 313d
0.04659885 -0.05014304 0.14121453 0.11442338 0.13102655 0.074762374 0.085770644 0.13136174
0.137719 0.08539333 -0.000290476 0.04623797 0.106017694 -0.051886346 0.14426991 0.043448232

encoder.layers.0.linear1.weight f4 [64, 16]
00000000: 7a29 56bd 482b 7cbe a9bd 053e 9025 2b3e
00000010: 0c33 4cbd ee2b 183e efd8 643e 2496 003e
00000020: daf7 0abd 23ff 52bd 1152 2cbe 44ef 2d3e
00000030: 8cd0 ca3d 5e95 a93e ab37 a6bd 6fa0 683e
00000040: cbde 9dbe 3202 63be b92d 3e3e 3fb6 3abe
00000050: c802 7a3e d932 c1bd 8887 7fba 52f9 873d
00000060: 1d79 b23c 6f61 9bbd a5d5 a53b eb08 203e
00000070: df5e 8ebe e4fa 0f3e 6f56 9dbe dd4d e4bb
00000080: 368d e9bd bc13 a03a 9a87 973e 1e77 6d3e
00000090: 82d3 2cbe 84d0 35be d8f6 ad3d 9d86 5bbb
000000a0: 7485 923e fa76 61be 159e a23e bfc8 0bbe
000000b0: 0404 e13a ba0c 53be 833a 15be e3a4 573e
000000c0: 9637 89be 2e8a c3bd 1738 9d3e 8cc5 393e
000000d0: 631d 16be ef7e 82be 8d3f a7be 1993 4b3e
000000e0: 1a90 06be f953 483e 71d8 74be d648 1dbe
000000f0: 252a 1e3e 1fb1 703d 88da 7b3e 74fa 9f3d
00000100: 2a33 f73d 37dc 57bd bda2 833e 67b2 d9bd
00000110: 6a9a 8fbe 7007 cebd 701a 183d d89c 953d
00000120: 0a06 5bbd 845a 9f3e d44b 023e cf6a 5dbe
00000130: 741a 633e 1ab6 f83b 9464 7bbe 4635 08be
00000140: 05ea 40be 1164 ee3d f590 363d ad02 6cbe
00000150: 5ea7 8bbd b6c4 7fbd d614 5d3e b61f ec3e
00000160: ef10 77bd 5660 0fbe 6aba e23c 3aa4 47be
00000170: d12b 923b 8918 b5bd 7024 74be a156 4bbd
00000180: c635 2cbd 3420 063d 05dc 63be e89b 30bd
00000190: 0709 72bc afa4 67be 4896 0f3e 718d 823b
000001a0: 335c 303c 348d 713d a590 3d3e 0d09 24bd
000001b0: a90e b6bd cd0c 65be 4186 a3bd f6e4 a13e
000001c0: 5ae7 7c3e c925 50be 23e9 903e ddcc 893d
000001d0: 091b 9dbc ff1f 833e b0f5 143e b405 1d3d
000001e0: ffde 56bb 9d2f 233e 80a9 54be dde5 033e
000001f0: ea65 24bd bf55 603e 96f6 e13c 5a05 24be
00000200: 48f6 813d 4376 34bd 499f 103e cb11 a5bd
00000210: 9f92 a0be e6b9 db3c fe31 77be f578 273d
00000220: 6b91 0e3d e1ee 723e d214 043f 90e9 2c3e
00000230: 5525 aabc 99f3 8c3e 4759 90be f256 3c3e
00000240: 6ef4 7a3d 0dd2 c23d 2487 26be 3271 ec3d
00000250: c094 9b3e 0fff 40be cbaf a5bd 33ca 713d
00000260: 4812 1a3d e2a5 e3bd ccb7 c73e d5f8 cb3c
00000270: 61e5 17bd 5963 243d 6248 38be 659f c93d
00000280: 7175 85be efa5 c8be 9cc2 40bd 881d 17be
00000290: aebe ca3d 45e2 6f3e b824 c7bc 6e65 eb3c
000002a0: 9066 a6bc 0aa9 323e 4631 ccbe 1073 f23e
000002b0: 182e 083d a2e3 733e 1145 9e3c 0802 563e
000002c0: 016b d8be 5a71 303d d196 53be d4d4 563e
000002d0: 5728 67be 8fc3 6b3d 2c26 d7bc f99f 273e
000002e0: 659b e4bd 69ea aebd ebc2 24be 35a7 97bd
000002f0: 1aa4 a8bd e0a6 673e 03e2 543d 4f0f aabe
00000300: 3d90 46be f493 2d3c 8e48 febc b29e 4ebe
00000310: 00f4 d2bd f4ca 863e ff5a 62be d50d 39bc
00000320: b0c6 aa3d 69f5 64be 17ea 07be 3836 c63d
00000330: 69ca 583e 12a0 cd3e 08a7 a6bc 5d68 8a3e
00000340: 234c a8be d589 533d 6fe1 14bd e596 4abe
00000350: 7499 bbbd 8dd1 cfbd cf43 4ebe a22d aabd
00000360: 8318 d6bc 9f46 0d3e 02d0 693e 709c 7abe
00000370: 69ac 03bd ae75 bfbd a8c4 a5bd a9db 85bb
00000380: d720 70bd 86d1 c8bd 5357 a83d 1278 7c3c
00000390: 425d 2fbd 3d42 8bbe 3c59 873e 439d a1bd
000003a0: d140 5f3d c83c 323e ec59 803e e66b 20be
000003b0: b0f4 f03c d4b9 323e b82a 92be 24d2 c83e
000003c0: 9c7a 32bd f405 f5bc e793 1bbe bfe2 40bd
000003d0: b544 983b 64e6 6ebd fc28 bd3d 8320 96bd
000003e0: 4b0e 123e 6cf0 723d 81d2 6c3e 9af3 0ebd
000003f0: cc9d 643e c914 0d3e c231 3a3d 7eb3 803d
-0.05228565 -0.24625885 0.13060631 0.16713548 -0.04985337 0.14860508 0.22348379 0.12557274
-0.033927776 -0.05151285 -0.16828181 0.16985804 0.099030584 0.3312177 -0.081160866 0.2271745
-0.3083404 -0.22168806 0.1857213 -0.18233584 0.24415123 -0.094335265 -0.0009747674 0.06639351
0.021786267 -0.07586943 0.005060869 0.15628402 -0.27806756 0.14060551 -0.30730006 -0.00696729
-0.11403887 0.0012212913 0.29595643 0.23189971 -0.16877559 -0.17755324 0.08494347 -0.0033496984
0.28617442 -0.22018042 0.31761232 -0.13650797 0.0017167334 -0.20610324 -0.14573102 0.21058993
-0.2680022 -0.0954784 0.30706856 0.18141764 -0.14659648 -0.25487468 -0.32665673 0.19880332
-0.13140908 0.19563283 -0.23910691 -0.15359816 0.15445764 0.058762666 0.24595082 0.07811442
0.12070306 -0.052700248 0.25710097 -0.10629731 -0.28047496 -0.10060012 0.037134588 0.07305306
-0.053472556 0.31123745 0.12724239 -0.21622775 0.2217806 0.0075900676 -0.24550086 -0.13301572
-0.18839271 0.1164018 0.044571836 -0.23047896 -0.06819032 -0.062443458 0.2158998 0.46117944
-0.060318884 -0.14001593 0.02767678 -0.19496241 0.0044607897 -0.0884257 -0.23842025 -0.049643163
-0.04204347 0.032745555 -0.222519 -0.043117434 -0.01477266 -0.22621416 0.14022171 0.0039841463
0.0107641695 0.058972552 0.18512209 -0.040047694 -0.08889515 -0.22368164 -0.07984591 0.31619996
0.24697629 -0.20326914 0.2830287 0.06728528 -0.01917793 0.2561035 0.14546847 0.038335517
-0.0032786725 0.15936132 -0.20767784 0.12880655 -0.040136255 0.2190771 0.027583402 -0.16017666
0.063458025 -0.044058096 0.14123262 -0.08060034 -0.31361863 0.026822042 -0.24140164 0.040886838
0.03480665 0.23723938 0.5159427 0.16885972 -0.020769754 0.275296 -0.28193113 0.18392542
0.061268263 0.0951272 -0.1626249 0.11545028 0.30386925 -0.18847297 -0.080901705 0.059030723
0.03761509 -0.11115624 0.39007413 0.024898926 -0.037083987 0.040133808 -0.17996362 0.09844855
-0.26066163 -0.39189097 -0.047060594 -0.14757359 0.098996505 0.23426159 -0.024309501 0.028734889
-0.020312577 0.17447296 -0.39881343 0.4735341 0.033247083 0.23817304 0.019320043 0.20899212
-0.42269138 0.04307685 -0.20663 0.20979625 -0.22573982 0.057559546 -0.026263319 0.16369618
-0.11162452 -0.08540804 -0.1608998 -0.07404939 -0.08234425 0.22622252 0.051973354 -0.33214805
-0.1939096 0.010594357 -0.031040456 -0.20177725 -0.103004456 0.26326716 -0.22105025 -0.011294802
0.08338678 -0.22359242 -0.13272892 0.0967831 0.21170963 0.40161186 -0.020343319 0.27032748
-0.32870588 0.05164512 -0.036347803 -0.19784124 -0.09160128 -0.101473905 -0.20143054 -0.08309485
-0.026134735 0.13796471 0.22833255 -0.24473739 -0.032146845 -0.093486175 -0.0809415 -0.0040850234
-0.05862507 -0.098055884 0.08219781 0.015409486 -0.042813547 -0.27198973 0.26435268 -0.078913234
0.054505173 0.17405999 0.25068605 -0.1566616 0.029413551 0.174537 -0.28548217 0.39222825
-0.04357396 -0.029910065 -0.15193139 -0.047091242 0.0046468624 -0.058325186 0.09236333 -0.0733042
0.14263265 0.059311315 0.23127176 -0.034900285 0.2232582 0.1377746 0.04545761 0.062842354

encoder.layers.0.linear1.bias f4 [64]
00000000: 321c 5bbd 4a19 e3bd 0cf9 71be 439c 753e
00000010: d496 bbbb 9f29 dbbe e42e d2be de93 3bbe
00000020: 9a6c a2be 65fc 8cbe 62e6 29be e8f4 8abd
00000030: 1eb6 27be c853 44be 11e9 ebbd 98d5 193d
00000040: 8062 7cbe cb96 9fbe b87e 3bbe c91b 37be
00000050: 0aad a0be a4fa 60be db77 00be 5a59 2fbe
00000060: 1c0a f1bd 75de b4be 3d8c 40bd 4fee a8be
00000070: dcb8 36be 2986 f5be 1858 cfbd 816d 12be
00000080: 4946 16be 5f98 3abe 183a c73d ca30 4bbe
00000090: 7727 77be ce9e 08be 33fa 83bd 7485 cebe
000000a0: 296e 5ebd d11e b7be 767f a0be dee4 843d
000000b0: 03d6 0dbe 58b4 b8bd f651 5fbe 0eb1 a3be
000000c0: c0f3 4cbe 56d5 0f3d fc3c a53d 630d 083e
000000d0: 0d15 223b 5cec 83be b0e2 93be 91e7 29be
000000e0: 8470 b9be 2678 23be 9e6f 18be 30f7 debd
000000f0: 35ba 84be 2fbe a6be 976a ecbe 3097 c4be
-0.053493686 -0.11088808 -0.2363016 0.2398539 -0.005724767 -0.42805192 -0.410514 -0.18318126
-0.3172348 -0.27536312 -0.1659179 -0.067849934 -0.16378066 -0.19172585 -0.11519063 0.037557214
-0.2464695 -0.31169733 -0.18310058 -0.17881693 -0.31382018 -0.21970612 -0.12545721 -0.17123929
-0.11769506 -0.3532597 -0.04700874 -0.32994315 -0.17843956 -0.4795392 -0.101242244 -0.14299585
-0.14675249 -0.18222187 0.097278774 -0.1984283 -0.24136148 -0.13341829 -0.06444206 -0.40336192
-0.054304276 -0.357657 -0.31347245 0.064889655 -0.1385117 -0.09018773 -0.2180861 -0.3197102
-0.20014858 0.035115562 0.080682725 0.13286357 0.0024731786 -0.25766265 -0.28883886 -0.16592242
-0.36218655 -0.15963802 -0.14886329 -0.10886991 -0.25923315 -0.32566974 -0.46175072 -0.38396597

encoder.layers.0.linear2.weight f4 [16, 64]
00000000: a5a8 86bc 104f 3abd c359 143e 7669 fc3d
00000010: df4a 94be 4171 633d 655a 9a3d 1830 42be
00000020: 35a3 c4bc ef46 9e3d f500 343d 4807 733d
00000030: 100b 0c3d eb5a 193c 4e57 b83d 168c 15bd
00000040: 5821 1c3b 7157 4fbd 4a18 bb3d 5ad3 42bd
00000050: 01de 3e3e d845 113d f072 dcbb 7bb3 633e
00000060: 6111 96bc b493 2abc fa3a b53d a607 403d
00000070: eaea c93d f579 8fbd 53b5 2b3e edd4 3abe
00000080: ab57 a6bd c94e 4abb bdd2 f5bb 288a 24bd
00000090: 21e1 3dbd e426 b6bd e6f5 ca3c 845e 7bbb
000000a0: c305 bfbc 2da0 10be 3e87 27be 90aa 7a3d
000000b0: 8f85 613d c14d c13d 5dfd 36bd 743c 223e
000000c0: ffd5 9f3d e625 343e 3487 c63c e07d 21be
000000d0: 5b72 c63d c9db dd3d 3365 1bbe c2c1 d13d
000000e0: 6918 263c fa76 6dbe 7767 543e bd0f 06be
000000f0: 3748 4b3e 7843 863d a1fc 383e 0cbb 7b3c
00000100: f0fe b83c 608d b83c 553b 52bd b6c4 7fbd
00000110: ba18 21bd 3531 9a3c 12c3 d0bd 32c7 6cbd
00000120: 140d 6d3c f423 51bd 2e88 f8bc 518f f63d
00000130: e181 64bd c5d1 d83c ce74 06be 5840 4fbd
00000140: 765a 7abb c8ff 1ebe bf61 843d 6108 c9bb
00000150: 51a2 40bb d75d 623d 72a0 c0bc 2aa8 153e
00000160: 6415 54bc 483a d2bd 40ed 793d 00cb 25bc
00000170: f724 dc3d 8b72 35be 550b d43d fb93 e3bd
00000180: fd20 cabc a54b 1abc 232d 103a 7cce 1a3d
00000190: 1ca4 cd3b 1dcf 74be e9c2 a6bd 2612 1e3e
000001a0: 6442 7bbe 7c2e 2f3d ef0e 473d 5e80 873d
000001b0: 5fb9 f3bd 4c61 65be 3ce6 9b3e fed2 ab3c
000001c0: 496e 013e 0788 f73d 7ba2 1dbe 1baf c3bc
000001d0: 9d22 223e 2a03 673d a71f 6f3e b872 2ebe
000001e0: 30f0 88bd c98f a13d e451 023e 5446 2c3e
000001f0: b9a4 433d 315b 0f3e 8ef5 e43d 3edf 273e
00000200: c1e0 6c3c 25f6 053e b8f1 a4bb bf06 cbbe
00000210: a2fb c73d 1570 7ebd 3c22 543c c232 a93d
00000220: 2749 003b 6c45 5a3e f3eb de3d 5ff7 ffbc
00000230: 5027 03be 190f 79bd b05e bb3d 5ace d23d
00000240: f5cb 97bd ca6e f53d 7d89 32bc 8065 1dbe
00000250: 6c4a 4f3e 71ca bd3d ad9e c83c 8245 b5bd
00000260: 3c91 8b3d fec0 003e 8cac c63d 2baa 943d
00000270: 4319 20be 81fe 8ebd a5b8 ccbc 5725 eebd
00000280: 3171 ea3b 252f 2c3c 6987 b6bd 82bd 433e
00000290: 5f88 e5bd a340 e93d a5c7 bebc c24a 883d
000002a0: 5385 a5bd 9f47 50be dc35 953e b8a4 c73c
000002b0: 9d50 3f3d e78c c03d c572 b13d 9a80 17be
000002c0: afdf 17be eeca ed3d 1be6 ecbc f057 8c3e
000002d0: 63c9 aabd 8f10 803e 6585 d4bd 2d18 cdbc
000002e0: d7b0 a63d 7f76 3f3d c047 123e f1e7 c43d
000002f0: 322d eebd 327a 753d ccba d53b f181 583c
00000300: 82c9 08bc 3208 97bd 621e e8bc ac51 89bd
00000310: f086 adbe 71e4 a2bd ba08 033e abe0 243e
00000320: adb3 4ebe e556 0bbd b661 8b3e da4d 64be
00000330: afe9 22be f906 653e ef2f 733e 1a24 053e
00000340: f9bc b9bb d2ff d73c c7a8 fd3c f2a3 353e
00000350: 47a1 babd 95dd e83c 9149 d1bb 5dea 4bbd
00000360: 6344 2ebe 9ea6 a83e a930 f33d 190c 053e
00000370: 6f16 383e e461 8dbd 6f4f cd3c afe7 bc3d
00000380: 79d5 f9bd 5601 023d 20ad 9ebc 7e0f 843d
00000390: 42a0 92bd 167b 3bbe 76dc f13d 3c0e b53d
000003a0: 3b05 263e 7ffd 143e 217a 1bbe 7b60 e43d
000003b0: 7fac ba3c cb60 a83d 1bfd 893d aca8 343c
000003c0: 34ba fdbd 913a fc3d 980a 923c 265a 5abc
000003d0: 6c37 c83d f6e3 8f3d 7db5 91bd c6e4 413e
000003e0: 4d39 e93d 9976 29bd 6412 9c3c 6681 b8bd
000003f0: d9f8 5b3c 7424 7bbd f469 83bd 5f8e ba3d
-0.016437838 -0.045485556 0.14487366 0.123248026 -0.28963372 0.05552793 0.07536773 -0.18963659
-0.024003604 0.07728373 0.043946225 0.059333116 0.034190238 0.009360055 0.09001027 -0.03651055
0.0023823585 -0.0506205 0.09135492 -0.04756484 0.18639375 0.035467 -0.006727569 0.22236435
-0.018318834 -0.010411192 0.088491395 0.046882294 0.098592594 -0.07005683 0.16768388 -0.18245287
-0.0812219 -0.0030869714 -0.0075019286 -0.04017082 -0.046357278 -0.088941365 0.024775457 -0.0038355896
-0.023318177 -0.14123602 -0.16360185 0.061197817 0.055059012 0.094386585 -0.04467522 0.15843374
0.078044884 0.17592582 0.024234392 -0.15770674 0.0968978 0.10832936 -0.15175323 0.102420345
0.010137656 -0.23189917 0.20742594 -0.13091941 0.19851767 0.065558374 0.1806512 0.01536442
0.022582501 0.02252835 -0.051326115 -0.062443458 -0.03933022 0.018822292 -0.10193457 -0.057807155
0.01446845 -0.05105968 -0.030338373 0.12039054 -0.055787925 0.026467213 -0.13130495 -0.050598472
-0.0038200892 -0.1552726 0.06463956 -0.006135032 -0.0029393623 0.055265274 -0.023514006 0.14614931
-0.012944553 -0.102650225 0.061017275 -0.0101192 0.10749238 -0.17719476 0.10353724 -0.111122094
-0.024673933 -0.009417449 0.000549989 0.037794575 0.006275667 -0.23907132 -0.08142645 0.1543661
-0.24537045 0.04276894 0.048598226 0.06616281 -0.11900591 -0.22400397 0.30449092 0.020974632
0.12639727 0.12086492 -0.15394013 -0.023887208 0.15833516 0.0563995 0.23351918 -0.17035949
-0.06686437 0.07888753 0.12726551 0.16823703 0.047764514 0.1399963 0.11179648 0.16393754
0.014457882 0.13082178 -0.005033698 -0.39653584 0.09764792 -0.06211861 0.012947615 0.082616344
0.0019574852 0.21315545 0.108848475 -0.031245885 -0.12807965 -0.060805414 0.091489196 0.10293265
-0.074119486 0.11984022 -0.010897038 -0.1537075 0.20243233 0.09267128 0.024489725 -0.08851148
0.06814811 0.1257362 0.097008795 0.072590195 -0.15634637 -0.069821365 -0.02499039 -0.11628216
0.0071546067 0.010509287 -0.08912546 0.1911526 -0.11207651 0.113892816 -0.023288557 0.06654884
-0.0808207 -0.20339821 0.29142654 0.024370536 0.04670774 0.09401875 0.08664469 -0.14795151
-0.14831422 0.116109714 -0.028918317 0.2741084 -0.08339193 0.25012633 -0.103770055 -0.025035942
0.08139198 0.046743866 0.14285183 0.09614552 -0.11629714 0.059930988 0.006522512 0.013214574
-0.008348824 -0.0737461 -0.0283348 -0.06705031 -0.33892012 -0.07953728 0.12796298 0.16101329
-0.20185728 -0.034018416 0.27222985 -0.22295323 -0.15909456 0.22365941 0.23748754 0.13002053
-0.0056682792 0.026367102 0.030964268 0.17738321 -0.091127925 0.028425971 -0.0063869436 -0.049784053
-0.17018275 0.3293962 0.118745156 0.12992896 0.17977308 -0.06903437 0.025062291 0.09223878
-0.1219892 0.031739555 -0.019369662 0.064482674 -0.07159473 -0.18308672 0.11809628 0.088406056
0.16212933 0.14549826 -0.15183307 0.11151215 0.02278733 0.08221587 0.06737729 0.011026543
-0.12389031 0.12315858 0.017827317 -0.013327157 0.09776196 0.07025902 -0.07114694 0.18934926
0.113878824 -0.04137287 0.019051738 -0.09009056 0.013426029 -0.06131406 -0.06416693 0.091091864

encoder.layers.0.linear2.bias f4 [16]
00000000: 4d82 f63c 37bb 8b3d 8e47 003e 313a 87bc
00000010: dd2a 12be 5256 36bd d415 ec3a 0a64 9f3d
00000020: 232a 093d 61b3 a5bc e626 bc3b c10c 213d
00000030: bd69 ccbc b519 ab3b 9680 363b 8a6a 463d
0.03009143 0.06822818 0.12527296 -0.01650724 -0.14274164 -0.044515915 0.0018011876 0.07782753
0.03348745 -0.020227136 0.0057419417 0.039318804 -0.024952764 0.0052215704 0.002784764 0.048441447

encoder.layers.0.norm1.weight f4 [16]
00000000: a5a0 163f cfd9 3b3f dacc 2b3f 312f 123f
00000010: 8e31 6c3f 5152 223f abc6 363f 879c 3f3f
00000020: 0ef6 033f b7d5 453f b715 3c40 303c 443f
00000030: 3292 173f fc8f 303f 4c49 203f e2bb 643f
0.58838874 0.73379225 0.67109454 0.5710326 0.92263114 0.63406855 0.71396893 0.74848217
0.51547325 0.7727923 2.9388254 0.7665434 0.5920745 0.689697 0.6261184 0.89349186

encoder.layers.0.norm1.bias f4 [16]
00000000: d3fe 033f 1b30 2a3c afb4 62bd c9c1 68bc
00000010: 5185 e13d bc98 353d 4e54 71bd a111 dabd
00000020: 78d2 323e d44f bdbd 0d2b f5bd 1823 8ebd
00000030: 2b74 87bd ff44 57be 66b6 c63e fde7 58bd
0.51560706 0.010387446 -0.055348095 -0.014206358 0.11011756 0.044335112 -0.05891829 -0.10647894
0.174631 -0.09243742 -0.11971102 -0.06940287 -0.06613954 -0.21022414 0.38811034 -0.052955616

encoder.layers.0.norm2.weight f4 [16]
00000000: 9444 473f 4e35 213f f410 5f3f 4992 363f
00000010: 6ba3 773f 38f1 293f c865 373f e3cf 233f
00000020: 696f a23f 7847 503f c7cb 0240 d074 4f3f
00000030: 83e5 1e3f c749 373f 3537 1b3f e7b2 4e3f
0.77839017 0.6297196 0.87135243 0.71316963 0.9673373 0.66383696 0.7163968 0.63989085
1.269025 0.8135905 2.0436876 0.81037617 0.6206896 0.7159695 0.60631114 0.80741733

encoder.layers.0.norm2.bias f4 [16]
00000000: 6038 823e 25ad d5bc 20c5 b43d c323 873c
00000010: fc8c b9bc 611a cd3d 4c8a 97bd 7e46 08be
00000020: 346d 633d a85c c3bd 14bd 05be 53bc 7cbc
00000030: a092 42bc 5a44 b1bc 4703 823e 1ad8 7f3c
0.25433636 -0.026083538 0.08826661 0.016496545 -0.022650234 0.10014797 -0.07399425 -0.1330814
0.055524066 -0.09539157 -0.13060409 -0.015425759 -0.011875778 -0.021639038 0.25393125 0.0156154875

encoder.layers.1.self_attn.in_proj_weight f4 [48, 16]
00000000: 3280 853c 8497 f13d 073f 1abe 536e 863e
00000010: b220 923e d6bf 333c 86cf 8f3d 9b45 353e
00000020: c20c b83c dc6f fcbd f935 4a3d 15a9 e0bd
00000030: 3ab4 153e 7e5f 49be 8733 01bd a82c a3bd
00000040: b7d4 453e b43e 29be 0794 ea3d 95d7 b93d
00000050: 8230 8cbe 554e d63d edbe 883d f835 413e
00000060: c3aa a83d d7e1 8fbd 8ac2 a13d c72d 2c3d
00000070: cefe d4bd 9b1a b8bd ef02 953e b99a cdbe
00000080: bae4 a8bd 8969 203e ae15 7fbe 402e 62bd
00000090: 03e8 e4be c358 3b3e 5d23 443e acd6 563e
000000a0: 188b 85be a337 323e 9b9c b43c 9949 c3bd
000000b0: 758f a6be 1bb0 ae3e c322 0b3e bc84 a93d
000000c0: 1950 82be cd0a 173e e9c2 643e dc44 7d3e
000000d0: eba7 ed3d c45a 9dbe bffa 8b3e 1db0 01bd
000000e0: 397f 9e3d 3bc5 e43d 1d26 8bbe 41b4 4fbe
000000f0: add7 e03d c714 56be b2b5 933d 3e3b f2bd
00000100: e8bc 233d cf0c 00be 0558 a63d 3df8 173e
00000110: f44e 7cbe b53b 8e3d d8f1 c0bd defd 783e
00000120: c196 a2bd 3e99 273e db03 4cbd 288c 47be
00000130: 6d3d d7bd 8235 873e 3437 1e3d c141 c3bd
00000140: 4d35 54be 63fa c3be 7f54 6f3e 4369 be3b
00000150: 4330 67bd a9d0 8e3e 9e66 7dbd 5ac4 41be
00000160: 7c0b 903e e123 8fbe a43a bf3d c1a3 d9be
00000170: c55d 4d3e 0e0a 41be 9927 74bd 51ca 483d
00000180: 019b 113e 0534 aa3e 037a b5bd abbf 08be
00000190: de81 1c3c 1dd0 323e 568d 82bc 3398 9d3c
000001a0: 4cc1 513e b156 b93e e8c6 62be 433c 67be
000001b0: 4d16 43be 3e00 8c3d a55d 19be 90a3 bbbc
000001c0: be53 10be a79e 85be 4bba 32be 9e89 27be
000001d0: aaa6 7b3d 6954 863e 3044 3cbe 879d 173d
000001e0: 2136 ba3c 36bb 373d 3c6d a13e 3505 3cbe
000001f0: 4f91 973d 627e 123d 5aaf c2bd 1e6f 1ebe
00000200: 94d7 79be d40b 20be 40d3 c13e a61b fa3d
00000210: 1ebd 7fbe aa81 643e 4549 f0bc 702e 873e
00000220: 99b0 cf3d f535 4dbe 39fb cabe 0a9f a23e
00000230: 6390 0dbd 5978 2dbe bec0 5fbe eae4 abbe
00000240: 07f5 643e 8abe f63d 8d08 79be 55c5 0bbe
00000250: 7e2d 3c3e b404 d13e ebb0 243e c131 063d
00000260: fd41 40bd 7f9c 753d 9181 693e 7153 733e
00000270: fc19 2dbe 1882 2abe adf8 9f3e 1886 d13c
00000280: 0f2e ecbc b4d1 8b3e 3897 9abe 5228 823e
00000290: f5e3 ae3d eb95 a6be 1279 ab3e ccf3 f23e
000002a0: 2c0e 8b3e cba2 3d3d a243 c83d 2cf9 9ebe
000002b0: d924 90bd 4c31 b53d 00f2 8abe 9aef dc3e
000002c0: 4768 32bd c2e0 c13e 90d9 613e 53d6 dc3c
000002d0: 4826 733e 4f4e 173e be9e 3b3e 7f92 9abe
000002e0: 321d 9dbe 11fe a63e 52e5 e53d 96d7 b0bd
000002f0: cce1 1cbe bdb0 f83e 1f96 cabd 28ac 3e3d
00000300: 3cfe aa3e 4f03 5dbe 6f85 b93e 78f4 fc3d
00000310: 8d65 afbe d5f0 b5bd dd21 c7be 7ded 133e
00000320: d94b a3be d0ae c5be 16f8 0b3f 9be5 df3d
00000330: 114c 8f3d e3cf 94bd 2943 b33e d2e6 093e
00000340: 84f6 2cbb da34 0cbe 062d 79be 990b 1cbe
00000350: 6798 8d3d 79a0 2f3e 6d71 1abe 3415 4dbe
00000360: 6c0e a03d ec92 a1be 8795 b43e a0f7 edbd
00000370: 6b9a 103e 510f c7be 8ccf a53d 61a1 603e
00000380: 72bf 6fbe e62e f5bd 2d03 c13d 8964 76be
00000390: 2b9d 9b3e 0a6e 913e b8ff a7bd 7e0c 853c
000003a0: 28f8 c1bd 5c39 973d 71a9 94bd 0765 2fbe
000003b0: bdf8 e8bb 0cb5 6e3d 7cf9 9d3d fe47 4d3d
000003c0: 304c 20bd a65f 1d3e fa7a 103f e4ef 9c3e
000003d0: 83a4 a0be 3f5d 833e 714e 923e 1600 ecbc
000003e0: 5843 0d3e fab7 02be 57f0 473e 5bad 1c3d
000003f0: 64fb 9e3e f519 b7be 1f7c f3bd 3824 83bd
0.01629648 0.117964774 -0.15063106 0.26256046 0.2854057 0.01097103 0.07022004 0.17702334
0.02246702 -0.12326023 0.04936788 -0.1096975 0.14619532 -0.19665334 -0.03154328 -0.07967502
0.19319426 -0.16527826 0.11454015 0.09074322 -0.2738076 0.104641594 0.06677041 0.18868244
0.08235695 -0.070254974 0.078984335 0.042035844 -0.10400163 -0.089894496 0.291038 -0.40157107
-0.08246751 0.15665258 -0.24910614 -0.05521989 -0.4470826 0.18295579 0.19154115 0.20980328
-0.26082683 0.17404036 0.022047332 -0.09535522 -0.32531324 0.34118733 0.1358748 0.0827727
-0.25451735 0.14750214 0.22339977 0.24733299 0.116042934 -0.3073331 0.27339742 -0.031662095
0.077391095 0.11170431 -0.27177516 -0.20283605 0.10978637 -0.20906363 0.0721239 -0.11827706
0.039975077 -0.12504886 0.08122257 0.14840789 -0.24639493 0.06944982 -0.09421128 0.24315593
-0.0793891 0.16367051 -0.049808364 -0.19487059 -0.10509763 0.2640801 0.038626865 -0.09534026
-0.20723458 -0.38276967 0.23372076 0.005810888 -0.05644251 0.2789357 -0.06186544 -0.18922558
0.28133762 -0.2795706 0.09337357 -0.42507747 0.20055301 -0.18851492 -0.059608076 0.04902107
0.14219286 0.33242813 -0.088611625 -0.13354366 0.009552447 0.17462201 -0.015936535 0.019237613
0.20483893 0.36198953 -0.22146189 -0.22581582 -0.19051476 0.06835984 -0.14977129 -0.022905141
-0.14094445 -0.26097605 -0.17453878 -0.1636109 0.06143824 0.26236275 -0.18385386 0.037015464
0.022730889 0.044856273 0.31528652 -0.18361361 0.07400762 0.03576506 -0.09506102 -0.15472075
-0.24398643 -0.15629512 0.37856483 0.12212305 -0.24974486 0.22315088 -0.029331813 0.26402617
0.10141105 -0.20040114 -0.39644793 0.31761962 -0.034561526 -0.1694044 -0.21850869 -0.33573085
0.22359096 0.12048061 -0.24319668 -0.13649495 0.18376729 0.408239 0.16083114 0.032762293
-0.04693793 0.0599637 0.22803332 0.23762299 -0.16904444 -0.1665119 0.31244412 0.025576636
-0.028830556 0.27308428 -0.30193496 0.25421387 0.08539573 -0.32536253 0.33490807 0.47451627
0.2715925 0.04629783 0.09778525 -0.31049478 -0.07038278 0.08847293 -0.27137756 0.4315155
-0.043556478 0.3786679 0.2205565 0.026957667 0.23745072 0.14775966 0.18322274 -0.30189893
-0.30686337 0.32615712 0.1122538 -0.0863487 -0.1532051 0.4857234 -0.098919146 0.0465509
0.3339709 -0.21583293 0.36234614 0.12351316 -0.34257165 -0.08883826 -0.38893023 0.14446063
-0.31893805 -0.38609934 0.54675424 0.10932466 0.069969304 -0.07266214 0.35012177 0.13466957
-0.0026392052 -0.13692036 -0.24333581 -0.15238799 0.06913834 0.17151059 -0.15082331 -0.2002762
0.07815251 -0.31557405 0.3527033 -0.11619496 0.14121406 -0.38878873 0.08096227 0.21936561
-0.23412874 -0.11971836 0.09424434 -0.24061789 0.30393347 0.28404266 -0.08203071 0.016241308
-0.0947116 0.07383987 -0.07258881 -0.17128383 -0.00710973 0.05827813 0.07713601 0.050117485
-0.039135158 0.15368518 0.5643765 0.30651772 -0.31375512 0.2565708 0.2857547 -0.028808635
0.13795221 -0.12765494 0.19525276 0.038251262 0.3105117 -0.3576199 -0.118889086 -0.064033926

encoder.layers.1.self_attn.in_proj_bias f4 [48]
00000000: 3ae1 5d3d 626f aebd 5d3e 623d c79c 3c3e
00000010: 7097 1cbe d3c3 36be 7e40 06be d021 abbd
00000020: 72d0 ec3c d180 6a3c b7da 46be fd3a 393d
00000030: f7b3 853d 4941 a0bd c290 d2bc 0306 0e3e
00000040: a4e6 ca39 f14a 53bb 100f 353b a372 f439
00000050: 68a4 53bb 761d 36bb 3040 423b 1452 a43a
00000060: 498f 133b 8639 643a c46d f739 fc98 0cbb
00000070: 0a00 71bb ac69 713a f510 f9ba 13a4 383b
00000080: eccc 593d c544 d4bd 12d8 d03b 889a 26bd
00000090: 97b8 c9bc aad6 19bd 9d83 d43d ed64 d6bc
000000a0: 3f94 a5bd af53 f13c 468e d6bd bdbd b8bb
000000b0: c0b8 953c fa17 3a3d bddb a2bc e9e6 0dbd
0.05416987 -0.08517338 0.055235256 0.18419181 -0.15292144 -0.17848139 -0.1311054 -0.083560586
0.028907988 0.014312939 -0.1941937 0.04522227 0.06528466 -0.07824952 -0.025703792 0.13869481
0.00038700283 -0.0032240713 0.0027627386 0.00046624718 -0.0032294039 -0.0027788556 0.002964031 0.0012536668
0.0022515825 0.00087060814 0.00047193293 -0.002145349 -0.0036773705 0.0009209167 -0.0019002246 0.0028173968
0.053173944 -0.10364679 0.006373414 -0.040674716 -0.024624152 -0.037558235 0.10376666 -0.026171172
-0.08084916 0.029458849 -0.10476355 -0.005637853 0.018276572 0.045433022 -0.01988017 -0.03464404

encoder.layers.1.self_attn.out_proj.weight f4 [16, 16]
00000000: 6303 6bbd 18d3 eabd 5363 e73d 97b5 4abe
00000010: fd13 25bd b715 40be caf5 01bd 2590 e5bd
00000020: be32 343e 0f52 71bd 4d26 343e d9b7 a83e
00000030: e233 953d 8914 f4bd 6ea0 fcbc 9155 05bd
00000040: ff65 bebb 7f1b 05bd 6109 513d 73d2 4a3d
00000050: c403 3dbd 97ab 4d3e 1279 12be 58ea 07be
00000060: cd8b 08be 3448 203d 674f 85be 868c d03d
00000070: e108 47bd 58cc 363e 40c7 083e 0bf4 19bd
00000080: 4225 dc3d b8ba 193d f2b0 43bd b4ea 51bd
00000090: be44 6a3d 81e6 173e 378f 8cbd 0f82 553e
000000a0: ea34 23bd 364f 273e 8735 09bd 7997 bebc
000000b0: 4938 fb3c 0549 06be 63ea 663e df5e ad3c
000000c0: e96f 80bc e7db 3a3d ad05 b33d cb0b ca3c
000000d0: 004a 5c3d 9c82 1cbd 2ab8 433d 676d f03d
000000e0: a9c0 d9bc 0bc3 a6bc c0e4 a3bb 3f88 c3bd
000000f0: 29df 3c3e de24 0b3e 1bc1 093e 580a efbd
00000100: a68f 383e 1c34 cebc 0d20 43bd 1f7c 22be
00000110: 57ca 513e 6380 c83d 9fb3 263e a890 1f3e
00000120: 16d4 723d ab63 e53d b62e 773d ff8d 33be
00000130: a4e9 553e 0d77 23be a1b4 37bd 1022 40bd
00000140: 6e0f 34be 8754 32bd f160 0d3e 85b1 75be
00000150: 9715 93bd 1a91 413e b0a0 56be 91da 283b
00000160: c1a5 a53d 6c6d 2bbc 9c59 a9bd 6b1c a03d
00000170: 88a8 56be 247f 9d3c 1e2b 39bd b7ea 93bd
00000180: 0ad2 96be 7023 9e3d 50b5 27be 3e66 443e
00000190: da79 25be 96fd 4abc 8f5c 873c bf15 24bd
000001a0: 8d9f b0bd 70ea 133e 6962 adbe dc28 933d
000001b0: f953 113e e87b 323e a427 ae3d 5605 8a3d
000001c0: d9f4 5a3d 40fb 38be 7aa9 a1be 598d cfbd
000001d0: a25b 36be 6c62 383d 76e4 c33d a3a7 c03d
000001e0: 40d3 f13d 432c 21be 5c8d 03be 6b67 fc3d
000001f0: 59e4 ae3d bff2 d63d d499 d3bd d8ef 81be
00000200: 4ba7 c53c 57a1 dfbc 059b b73c 877a 3c3d
00000210: 2bd0 823d 0427 cf3c 869f 0c3e 91ca 0dbe
00000220: a28a adba c289 293d c7d6 96bc bec3 29bd
00000230: b87e 273e 77d0 29be 56c7 61bd a15e afbd
00000240: eac9 5d3e 9eb0 233e 4435 3bbd 9dc7 2c3d
00000250: 088c 04be e2ca d93b 7d28 ccbd e072 12be
00000260: e683 5ebe d6a6 1d3e 6354 eb3d f975 253e
00000270: 90cd 3bbd 4459 86be 6d30 7d3d 3870 14be
00000280: 0491 bebd e7dc 303d 3500 e0bc 93c2 bebc
00000290: b53d 053d 1999 3abd 3fbc b9bc 752f 243d
000002a0: 8c45 5d3a edfc 483c e872 943d 0d54 a63c
000002b0: 3a17 823c 79dd b83c 3187 403d cbdd 083d
000002c0: 3400 a23d bf9a 403e ff8e f33d 6f03 96bd
000002d0: 339b 4ebe f6ce d9bd 8dd3 793e a64d 38bd
000002e0: d410 883d 6136 0d3d 55a8 42bd 774a 3dbe
000002f0: a094 25bc 8161 de3d 89f0 183e 0f85 1f3d
00000300: 5749 613d 6b9d b9bd ed53 5c3e 933f 943d
00000310: 3d9b a53d ce7a 413e af6c 18be e5c9 f1bd
00000320: aec2 093e 3ba7 e53d 2826 8a3d acec 133c
00000330: 98e4 2ebe 0b51 acbc d7f6 043c d2ae 86bd
00000340: bd07 b53d 223f 0d3c ba8c 3ebe 470e 2abd
00000350: b426 60be 9444 093e 1f8a d3bd 4473 323c
00000360: a709 dbbd 9cf3 f73d 30ac 8bbd 9d74 8e3e
00000370: 2437 9fbd 4143 95be 7207 8fbd 8619 843e
00000380: 0573 383b 663d 1dbd d214 eb3c 8870 17be
00000390: de43 983d afe2 e33b a9d0 03bd 98e5 1ebe
000003a0: a687 4dbe aa62 eabd f609 c53d e8b5 943d
000003b0: 015e 3e3e 1100 0dbe 9ece b73d dd6f d7bd
000003c0: 71c4 70bd 9faa 59bb f973 80bd 68f3 753e
000003d0: 2be1 2ebd 17d9 d6bd 32f1 603e 68fc 20be
000003e0: 3e53 e2bd 8005 1c3e 18d2 243e e2d7 de3d
000003f0: b98b 76be 7638 dfbd 5d61 113e c814 b3bc
-0.057376277 -0.11466044 0.112982415 -0.19795834 -0.040302265 -0.18758284 -0.031728543 -0.11209134
0.17597482 -0.058916148 0.17592736 0.32952765 0.072852865 -0.11917979 -0.030838218 -0.032552306
-0.0058104987 -0.032496925 0.051034335 0.049517106 -0.04614617 0.20084988 -0.14303997 -0.13272989
-0.1333458 0.03913136 -0.26037142 0.10183053 -0.048592452 0.17851388 0.13357258 -0.037586253
0.10749294 0.037531585 -0.04777617 -0.05124922 0.057194464 0.14834024 -0.068632536 0.20850395
-0.039845385 0.1633881 -0.033498313 -0.023265587 0.030666487 -0.13113792 0.22550349 0.021163402
-0.015678363 0.04561987 0.08741317 0.024663826 0.05378151 -0.038210496 0.047783054 0.11739617
-0.026581125 -0.020356676 -0.0050016344 -0.09547471 0.18444504 0.13588282 0.1345257 -0.11671895
0.18023548 -0.025171332 -0.047637988 -0.15867661 0.20487343 0.09790113 0.16279458 0.15582526
0.059284292 0.11200651 0.06034728 -0.17534636 0.20889908 -0.15963383 -0.044849996 -0.046907485
-0.17584011 -0.043537643 0.13806511 -0.239935 -0.07181852 0.18903008 -0.20959735 0.0025765041
0.08088256 -0.0104631 -0.08269045 0.0781792 -0.20962727 0.019225664 -0.045207135 -0.07222503
-0.29457122 0.07721603 -0.16377759 0.19179627 -0.16159764 -0.012389561 0.016523628 -0.0400598
-0.08624182 0.144449 -0.33864143 0.07185528 0.1419219 0.17430079 0.085036546 0.06739299
0.05345616 -0.18064594 -0.31574613 -0.10134382 -0.17808393 0.045015737 0.0956506 0.09406974
0.11807871 -0.15739541 -0.12846893 0.12324413 0.085396476 0.10495519 -0.10332075 -0.253783
0.024127623 -0.027298613 0.022412786 0.04601529 0.06387361 0.025287159 0.13732728 -0.13846804
-0.0013240168 0.04139114 -0.01841296 -0.04144644 0.16356933 -0.1658343 -0.055121742 -0.08562971
0.21659055 0.15985343 -0.045705095 0.042182554 -0.12944043 0.0066465 -0.0996866 -0.14301634
-0.21730003 0.15395674 0.11490705 0.16158284 -0.045850337 -0.2623998 0.06181376 -0.14495933
-0.09305003 0.04317942 -0.027343849 -0.02328614 0.03252955 -0.04555616 -0.02267277 0.04008432
0.0008440844 0.012267333 0.07248479 0.02030375 0.015880216 0.022566544 0.04700393 0.033414643
0.07910195 0.18809031 0.11892509 -0.07324874 -0.20176391 -0.10635178 0.24397106 -0.044995926
0.06643835 0.034475688 -0.047523815 -0.18485437 -0.010106236 0.10858441 0.14935507 0.038945254
0.055001583 -0.09063228 0.2151639 0.07238688 0.0808625 0.18894503 -0.1488521 -0.118060865
0.1345317 0.11213537 0.06745559 0.009028595 -0.17079389 -0.021034738 0.008115492 -0.06576313
0.088393666 0.008621009 -0.1860837 -0.041517522 -0.21889764 0.13405067 -0.10329079 0.010891739
-0.106952004 0.12107012 -0.068199515 0.27823344 -0.07774189 -0.29152873 -0.06983842 0.25800723
0.002814473 -0.038388632 0.028696451 -0.14789021 0.0743482 0.006954513 -0.032181416 -0.1551727
-0.20071277 -0.114446 0.096210405 0.07261258 0.18590547 -0.13769557 0.08974956 -0.10519383
-0.05878109 -0.003321327 -0.0627212 0.24018633 -0.042695206 -0.10490625 0.21967009 -0.15721285
-0.110510334 0.15236473 0.1609577 0.1088102 -0.24076737 -0.10899441 0.14197297 -0.021860495

encoder.layers.1.self_attn.out_proj.bias f4 [16]
00000000: a842 053e 40d9 033d 8460 a13d 7bee 61ba
00000010: 6f93 52bd d7cf ca3d a389 19bd a623 cdbd
00000020: ca6d 063d 004b 893d d6ed 15bd e2c9 993c
00000030: 34ba d7bc da34 233e 2b96 f9bb b29b 8f3b
0.13013709 0.032189608 0.07879737 -0.0008618605 -0.051410135 0.099029236 -0.037484776 -0.10016565
0.032819547 0.06703758 -0.03660377 0.018773023 -0.026333906 0.1593813 -0.0076167784 0.004382574

encoder.layers.1.linear1.weight f4 [64, 16]
00000000: 6f06 21bd cb0c 513e 2f37 98bd 90a9 c3bd
00000010: 5cf4 a43d 3ea6 133d e146 c23e 8a2f 5c3e
00000020: 51f9 2cbe d8ea e83c 0e39 2abe cbb2 2e3e
00000030: e536 613e 8a58 853e cb41 85bd ce73 923e
00000040: 0428 8cbe 4fd5 e4bb caec 973e 5499 e4bd
00000050: 1506 673e 26e2 473e 7c5d 24be 4427 df3d
00000060: 1e48 8bbe 549d 273d 8ec4 efbd 6a82 4f3e
00000070: 8623 a8be 1907 873e 7576 2ebe abeb 91bd
00000080: f5f9 12bd 69ff 5d3e ecf1 ff3d ae9b 843e
00000090: dce9 013e 8f90 25bc edc4 543e a740 153e
000000a0: 55f8 833d 73c0 32be 6fa6 bd3d 956d c33d
000000b0: dc9b 10be 26e0 f03d b7ee 58be b5a0 f73d
000000c0: e8b0 63be 28c3 6aba 1185 823e 4f0c f03c
000000d0: 9fe4 85be d921 39be 95e2 9bbd a815 6f3e
000000e0: c527 113c 0908 0e3e 94d5 27be b75f a8be
000000f0: 631d a2bc 92b8 873d 4216 0fbb e009 923d
00000100: 77f3 103e 600c 5abc f5aa 143e b286 28be
00000110: 7390 a4be 26d4 d2be bb60 433d 1a5c b93d
00000120: 7d09 0b3e 4e59 7c3e f386 213e ceb1 a7be
00000130: cab0 673d 7a57 93bd f69c a3bd 4a55 8b3c
00000140: 4445 c5bd 2909 53bc 8d98 d13d 1ce5 8fbd
00000150: c626 7c3e 6e78 153e 25a0 643e 793d 6f3e
00000160: ea2e 30bd 9a0e b1be 2eb2 13be 6343 9dbd
00000170: 9fa0 2f3c 4e61 2bbe adc6 81be 8b3e 1dbd
00000180: 1a92 96bd 2364 a63e adb8 c63d 690a 09be
00000190: 21c5 1bbe 3846 ebbd 4cc9 e53d 0689 34bd
000001a0: eed4 1a3e a123 d53c 05a3 043e 46c1 8e3e
000001b0: d447 6ebe ba76 7dbe b42f e5bd 1d52 8bbd
000001c0: 4938 f13c c2df c7bc c3c3 8f3d 3637 2f3e
000001d0: f12b d53c af70 923d b0e7 133e 3faf 18be
000001e0: 55b4 223c 7e86 a73d 298f 603e eec8 cd3d
000001f0: 1164 00be 02e8 85bd 2d97 2f3e ad5a f33d
00000200: dd32 873c a4ea 16bd 66ba 28be 89f5 59be
00000210: a01e 7fbe 03a3 ebbd e967 e83d a64a 9abd
00000220: 4eec 953e 6f63 233e bf74 823e b9b0 913c
00000230: 57c7 e4bd 95e9 303e 86a5 dbbe dc8e da3d
00000240: cb42 60be c1c3 123e 97fc 16be 4fae 453e
00000250: 5c06 6c3e a541 47be 543b 853b a78c 213d
00000260: 7ad8 aa3d 678e 643d bc8c 1abc ef02 d7bd
00000270: b2e6 123e 7879 b23d c125 6abe 689d f83d
00000280: 9e1e b4be 068d a23d 0666 e73c 15a5 f2bd
00000290: 483d 1a3c 0055 9c39 6551 983d 992b 343e
000002a0: d203 413c 9f86 a03e 3e13 e7bc 4a75 e03d
000002b0: ac18 db3c de51 15be faa2 38be fc3a 743e
000002c0: 62f2 e7be 854c 273e c368 76bd f829 003d
000002d0: 2e42 ecbd 054f 203c b766 603d 8c6a d7bc
000002e0: 0011 513a 06ae c0bd 4bdf 47be 65d2 423d
000002f0: 7fed 54bc 00b8 6cbd 13eb 36be 3bf2 3ebe
00000300: 391b 53be 8ffc 1dbd f20b 393e dabb 173d
00000310: 17cb d03d 3f83 a3bc 052e 32be 744f 533e
00000320: ae06 16bc d279 c8bc 0ae2 32be c6ea 0abe
00000330: 7832 1c3e 0ae1 c83e 3a72 4bbe 34ae 013c
00000340: 1bf0 98be 5eb2 b13d 5aaa 86be e062 8fbd
00000350: ba29 533e e11b 543e 147a dc3c 3df6 36be
00000360: c03b b8bd 76b5 53bc 3e20 47bc 0a64 73be
00000370: 45e0 35be aa3b 0dbc 0bbf b43d 3ca1 1abe
00000380: da6c edbd 93c8 17be b07c 523e 892a 923e
00000390: bc17 a63d 07d5 c4be be5a 783d 4acb 5c3b
000003a0: 57e1 88ba 02ef d1bd 0b39 34bd b5a0 d4bd
000003b0: da71 bd3d b7e9 b43e 6feb 2bbe e937 853e
000003c0: 6bde 08be 0c63 13be e3a4 fe3d 11d1 4a3d
000003d0: 4ca4 1f3d f777 d4bc f198 1d3e fadf 093e
000003e0: 3786 2c3e ee6a 9b3e e3c5 013e 21ba 1dbe
000003f0: e5ba 6c3e ca9d b13c db93 7f3e da1d 9cbd
-0.039312776 0.20415036 -0.074324004 -0.09553826 0.0805442 0.036047213 0.379447 0.2150251
-0.16891982 0.028432295 -0.16623327 0.17060392 0.21993597 0.26044112 -0.0650669 0.28603977
-0.2737428 -0.006983436 0.29672843 -0.111620575 0.22560914 0.19519863 -0.16051286 0.10896161
-0.2720346 0.040921524 -0.11707412 0.20264593 -0.32839602 0.26372603 -0.17037375 -0.07125028
-0.03588291 0.21679462 0.12497315 0.25900024 0.12686867 -0.010105266 0.20778246 0.14575444
0.0644385 -0.17456226 0.0926026 0.095423855 -0.14121956 0.11761503 -0.21184812 0.12091199
-0.22235453 -0.0008955472 0.25492147 0.029302744 -0.26150987 -0.18079318 -0.076115765 0.23348105
0.008859579 0.13870253 -0.16390067 -0.32885525 -0.019789403 0.06627001 -0.0021833335 0.0713079
0.14155374 -0.0133086145 0.1451834 -0.16457632 -0.32141456 -0.4117748 0.04769967 0.0905077
0.13577838 0.24643442 0.15774135 -0.32752842 0.056565084 -0.07194419 -0.07988922 0.017008442
-0.09632352 -0.012880602 0.10234175 -0.07026121 0.24624166 0.14596722 0.22326715 0.23363294
-0.04301349 -0.34581453 -0.14423439 -0.076788686 0.010719447 -0.16736338 -0.2534689 -0.038389724
-0.073520854 0.32498273 0.09703193 -0.13382877 -0.15211917 -0.114880025 0.11220035 -0.04407599
0.15120289 0.026017966 0.12952812 0.2788183 -0.23269588 -0.24752322 -0.11190739 -0.06802771
0.029445784 -0.024398688 0.070197605 0.17110905 0.02602193 0.07150399 0.1444385 -0.14910601
0.00993069 0.08179949 0.21929611 0.1004809 -0.12538172 -0.065383926 0.17147513 0.118825294
0.016503746 -0.036844864 -0.16477355 -0.2128507 -0.24914026 -0.115057014 0.11347944 -0.07533769
0.2928185 0.159559 0.25479695 0.017784463 -0.111708336 0.17276604 -0.42899722 0.106717795
-0.2190048 0.14332487 -0.14744793 0.19304775 0.23049301 -0.19458635 0.0040659104 0.039440777
0.08342071 0.055799868 -0.009432968 -0.104986064 0.14345816 0.087145746 -0.22865964 0.12139398
-0.3517961 0.07937054 0.02824689 -0.11847893 0.009414025 0.0002981797 0.074374 0.17594756
0.011780696 0.31352708 -0.028207418 0.10959871 0.026745163 -0.14582011 -0.1803092 0.23850626
-0.4530211 0.16337784 -0.060158502 0.031290025 -0.1153606 0.009784465 0.054785457 -0.026295923
0.00079752505 -0.09408192 -0.19518773 0.04756393 -0.012996077 -0.057792664 -0.17863111 -0.18647091
-0.20615853 -0.038570937 0.18070963 0.037044384 0.10194986 -0.019960044 -0.17400368 0.20635778
-0.009156866 -0.024472151 -0.1746904 -0.13566121 0.15253627 0.3923419 -0.19867793 0.007915068
-0.29870686 0.08676599 -0.26301843 -0.07001281 0.20621386 0.2071376 0.02691368 -0.1786737
-0.089957714 -0.012921682 -0.012153683 -0.2376863 -0.17761333 -0.008620182 0.08825501 -0.15100569
-0.115930274 -0.14822607 0.20555377 0.28548077 0.08109996 -0.38443777 0.060633413 0.0033690506
-0.0010443133 -0.10250665 -0.043999713 -0.10382215 0.09250231 0.3533456 -0.1678903 0.2601922
-0.13366096 -0.14393252 0.124337934 0.049515788 0.038975045 -0.02593611 0.15390374 0.13464347
0.16848074 0.30355018 0.12673144 -0.15403034 0.2311817 0.021681685 0.24958746 -0.07622881
