log/20231223_014541/best_loss.pth (torch, 53303 bytes, 38 tensors)

encoder.layers.0.self_attn.in_proj_weight f4 [48, 16]
00000000: 9f04 003f 3d40 a43e 4955 c33e 0656 bf3e
00000010: 1641 52bf ac38 f23d 903f 7e3e eefb 053f
00000020: e590 b03d 22d6 33bf abc2 c03d bb4c 20bf
00000030: 75f9 f03e 8d82 833d f9e8 0a3d 5f9b c43e
00000040: 944e 1dbe d642 8cbe 7eb5 17be 86d0 ffbc
00000050: e505 513f 1e71 7e3e 2b28 42bb c22b 41be
00000060: 1788 3c3e 0835 623e dff9 25bf 17d6 fc3e
00000070: 0b38 b5be b0c9 8ebe ed55 853d 0ba7 13bf
00000080: 52a1 253e cf7a e43d 268a d8bd 012a 0cbe
00000090: 472c 83bf a35a 2abf 4957 a73c e6b3 c13e
000000a0: eda7 8ebd 004e 553e c923 9a3f fdef 8ebf
000000b0: dc8f 2dbe 43c5 203d a0c1 cabb ee0f 0f3f
000000c0: 2383 02bf 3707 0fbe 2b54 febd 6cc2 f3bd
000000d0: d0c7 7d3f 77bd b63e 481e cc3e 5df9 1cbe
000000e0: 3daa b43d d1c6 08bf 6a9f 1bbf 141d 9d3c
000000f0: b28d d53d 1c25 89be bf2c d7bd 8166 0ebf
00000100: 4b9e a93d 01c3 fabd c9da a63e 4995 be3e
00000110: b50e 3fbf 8800 89be 88e5 46be 0fc2 0d3f
00000120: 1865 57be 1aa4 6b3e 8065 bf3e a52f 26be
00000130: efb1 38be ed98 b23e 03d5 853e ebce 563d
00000140: c958 99be 237c b0be f5f4 973e 31d5 c5bd
00000150: 5367 8e3c 6a80 3d3e d265 37bd 4c35 babe
00000160: eec4 b53e dca5 04bf c2aa 69be 5adf 42bf
00000170: 1224 953e ee3e b2be be4e cabc e9cb 553e
00000180: f4e3 47be 8330 cc3d 53d3 e8be 0492 98be
00000190: 718d 943f 72f2 073f b257 e9bd e636 26be
000001a0: d363 723d db36 223f 4f6e 79bf 2098 3c3f
000001b0: a9c2 cbbe fbc3 513e cb2a 853d c347 0bbf
000001c0: 8da0 513e abbf 4e3d 1df1 2a3e 71f9 433e
000001d0: a397 acbf b43f 70be 6277 b1be 0490 ab3e
000001e0: 8c03 31bc f017 903e 7b6a 2d3f ce20 51bf
000001f0: 69f9 173e 88da 5c3e c506 8c3e 6d62 e53e
00000200: 36f1 b9be edff 9fbe ad66 d33c 8136 bdbe
00000210: af88 393f e13f 743f c171 983d ea61 c63c
00000220: 7630 b43e 93c4 c0be 76f3 b3bf 8115 9a3f
00000230: 57a8 74be d475 c1be 80de 07bf 226b f4be
00000240: f886 c03e eb94 1c3e 2710 913e e0b6 303e
00000250: 7bd2 82bf 63b0 ccbe 85ec f83d f268 873e
00000260: 391d 37be 45ee 693e 512a 9d3f 790e 43bf
00000270: c882 213e 01eb 5b3e e1e6 0b3f bee0 b13e
00000280: 7f55 403e e10a 2fbc 4504 c33e 0fbb 113e
00000290: 27e4 49bf 1561 40bd b2d0 8c3c a5d2 1a3e
000002a0: 67e1 623e 8064 a43d d7dd bd3e 6ae0 99be
000002b0: 24ff 6a3e 91b6 863c 63df 413d c5f2 3e3d
000002c0: d8a2 8b3d a685 e53e a90d 3dbe 6ed9 663e
000002d0: 5986 babe 07a1 4ebf ddb5 203d 6327 893e
000002e0: aeae b9be fc01 c43e 0424 313f 93e8 62bf
000002f0: 5e83 11bc 2c3c cc3e 5f9d 1e3e 6adc e13e
00000300: 802f c03e 901d 31bd e493 ac3e 4d14 cc3e
00000310: 99c9 91bf 14f1 39bf 4ab4 a1be af01 45bd
00000320: aee4 1c3d f661 0ebe 66d2 9d3f 5875 48bf
00000330: 0054 363e 3436 a63d c4c8 e83e 6432 de3e
00000340: e940 17bd 1443 8bbe dd6d 56be ee45 debe
00000350: 30fe 83be ada6 41be 60b3 bbbe d088 c0be
00000360: 3d4e 9f3e 60ed 35be f54a ce3e 4c15 1abf
00000370: e988 283d 4a9e b3be 0714 30bd b054 8a3d
00000380: 35fc 94be 2bca 7e3d 28aa 6abe f576 a23c
00000390: 4b76 a33f 4096 313f 248b 84bd dc28 833e
000003a0: 2471 3cbd 5f72 8d3d 0b7a 48bf 2a30 e43e
000003b0: fc8b 7cbd 9116 ddbd 00c0 e9bd 500c 7bbe
000003c0: b889 06be 46f0 cc3e 2098 0a3f f359 1dbd
000003d0: d1bf bfbe 032a 333e c085 9b3e 0b3e d2be
000003e0: 41f4 193f 5b32 90be 23ec 393e 7cf2 36be
000003f0: 07fc e73e d343 e3bd 3873 96bd 778e 923e
0.5000705 0.3208026 0.38151005 0.37370318 -0.82130563 0.118272156 0.24828935 0.5233754
0.086213864 -0.70248616 0.0941213 -0.6261708 0.4706532 0.06421385 0.033913586 0.3839979
-0.15362006 -0.27394742 -0.14815328 -0.031227361 0.8164962 0.24847838 -0.0029625993 -0.18864349
0.18411289 0.22090542 -0.648344 0.49382088 -0.3539432 -0.2788825 0.0651053 -0.5767676
0.1617482 0.111562364 -0.10573225 -0.13687898 -1.0247887 -0.6654455 0.020427363 0.37832564
-0.06965623 0.20830536 1.2042171 -1.1166989 -0.16949409 0.039250623 -0.0061876327 0.5588368
-0.5098135 -0.13967596 -0.124183975 -0.119023174 0.99133015 0.35691425 0.39866853 -0.153295
0.08821533 -0.5342837 -0.6079012 0.019178905 0.10427417 -0.26786125 -0.105065815 -0.5562516
0.08282145 -0.12244225 0.32588795 0.3722327 -0.74631816 -0.26758218 -0.19423497 0.55374235
-0.21034658 0.23011819 0.37382126 -0.16229112 -0.18036626 0.34882298 0.26139078 0.052443426
-0.2995055 -0.3446971 0.29679075 -0.09659804 0.017383253 0.18506017 -0.044774838 -0.36368787
0.35501808 -0.5181558 -0.22819045 -0.7612206 0.29129082 -0.34813637 -0.02469575 0.20878567
-0.19520551 0.099701904 -0.45473728 -0.297989 1.1605664 0.5310432 -0.1139368 -0.1623188
0.05917723 0.6336495 -0.9743394 0.73669624 -0.3979695 0.20484917 0.06502303 -0.54406375
0.20471402 0.050475758 0.1669354 0.19138123 -1.3483776 -0.23461801 -0.34661394 0.33508313
-0.010804068 0.28143263 0.677406 -0.8169068 0.14841236 0.21567738 0.27348915 0.44801655
-0.36316842 -0.31249943 0.025805796 -0.36955646 0.7247419 0.9540997 0.07443572 0.024216611
0.35193223 -0.37649974 -1.4058673 1.2037812 -0.23892342 -0.37785208 -0.53073883 -0.47737986
0.37602973 0.15291183 0.28332636 0.17257261 -1.0220484 -0.39978322 0.121544875 0.26447254
-0.17882241 0.22844799 1.2278539 -0.7619396 0.15772545 0.21476366 0.5464917 0.34741777
0.18782614 -0.010683746 0.38089195 0.14231513 -0.7886376 -0.046967585 0.017189357 0.15119417
0.22156297 0.08026981 0.37083313 -0.30054027 0.22948891 0.016444476 0.04733218 0.04661824
0.06818169 0.44828528 -0.18462242 0.2254388 -0.36430624 -0.8071446 0.03923594 0.26787862
-0.36266083 0.38282764 0.6919558 -0.8863613 -0.008881418 0.39889657 0.1548972 0.44113475
0.3753624 -0.043241084 0.33706582 0.39859238 -1.1389648 -0.7263348 -0.31582862 -0.04809731
0.038304023 -0.13904557 1.2329834 -0.7830405 0.17805481 0.08115807 0.45465672 0.4339782
-0.036927138 -0.27199614 -0.20940347 -0.43412727 -0.25779867 -0.18911238 -0.3666029 -0.3760438
0.3111438 -0.17766333 0.40291563 -0.60188746 0.041146193 -0.35081702 -0.04298785 0.06754434
-0.2909867 0.06220452 -0.22916472 0.019832114 1.2770475 0.6936989 -0.064718515 0.2561711
-0.046006337 0.0690658 -0.7831122 0.44567996 -0.061656937 -0.1079532 -0.11413574 -0.24516416
-0.13138473 0.40027064 0.54138374 -0.03841586 -0.37451032 0.17496495 0.3037548 -0.4106296
0.60138327 -0.28163418 0.18156485 -0.17865938 0.4530947 -0.11096921 -0.07346195 0.28624317

encoder.layers.0.self_attn.in_proj_bias f4 [48]
00000000: b67c 51bf e55c 223f f1e2 adbc 65a1 ddbe
00000010: 2433 93be 6f30 a8bb 0504 ca3e c614 11be
00000020: a447 18be 86d3 1bbe 1f5f 02bf 9696 6e3e
00000030: 5c91 1fbe a1da a63d 0d07 803e a900 1abe
00000040: 9571 6cbc bb87 a43a 109c b13b 2057 b0ba
00000050: e041 863b 3310 68bb e5e3 e53a a30c 6f3b
00000060: 3bb6 82bc eed2 903a 893a 23bc 4f17 bebb
00000070: 205d 303b 6141 25bb f0a4 e13a ca0a 0fbc
00000080: 6ffe f3bc a5c6 a93d a40b e4bc aa34 253d
00000090: e61b c2bd e40b fa3d 1cf5 adbd dcf7 c33d
000000a0: 2b95 bd3d e46d 383d b5ff a4bd 972e e93c
000000b0: 1509 323b b703 acbd 3216 873d d100 e03b
-0.8183092 0.63422996 -0.021226378 -0.43287197 -0.28749955 -0.005132727 0.39456192 -0.1416808
-0.14871079 -0.15217409 -0.50926393 0.23299631 -0.15582794 0.08147169 0.2500538 -0.15039314
-0.014431377 0.0012552658 0.0054202154 -0.00134537 0.0040972084 -0.0035410046 0.0017539231 0.0036476038
-0.015956035 0.001104919 -0.009962686 -0.0058011184 0.0026910976 -0.002521597 0.0017215293 -0.0087306
-0.02978441 0.082898416 -0.027837582 0.040333427 -0.094779775 0.12209299 -0.084940165 0.0956876
0.09256967 0.045026675 -0.08056585 0.028464599 0.0027166058 -0.08399146 0.0659603 0.006836035

encoder.layers.0.self_attn.out_proj.weight f4 [16, 16]
00000000: a9f2 1abd cc75 af3d e50f 84bd 99b4 91bc
00000010: 2f83 0dbe ba1a 9f3d 8efb aebc 8591 f53c
00000020: 625d d8bc 6927 afbc 8323 f6bd 295d 873d
00000030: 2e52 b43c a78e eabd ddf0 23bd 1b83 98bd
00000040: 5096 a7bd 76b5 083d e1c6 1bbd 3911 9b3d
00000050: 4e10 a3bd 6513 4f3e a8f5 2abe a2a1 c13d
00000060: 22ad 383d 7ac0 a7bd 6991 cfbd 3a0f 9a3d
00000070: c15c 2cbd 6bcc 7bbe 800f 68bd 9e7f 21bd
00000080: 04f7 a0bd cb20 033d f6fc 8ebd 1c3b 083e
00000090: 6c02 c23d f2ed bb3d 6a54 853d e122 573d
000000a0: ed59 c2bd bfd4 34be ae27 963c f10a 9cbd
000000b0: 61c6 72bd 03a3 5ebe 4bfb c3bd 0af4 b5bd
000000c0: c30f f23d 17b4 df3d d4f9 083e a574 013e
000000d0: d728 6a3e 2de2 07bd b682 003d 595c 1cbc
000000e0: 74b7 d3bd aa08 a83d 26e8 40bc f2a5 17bd
000000f0: 7f4c e53c 381c 31bd 0662 b0bc 3b0d c3bd
00000100: c675 cfbd 6b69 dc3c e0a5 a2bd 3f2f 48bd
00000110: 0e4a 2ebc bfe0 113e a42a dfbd de64 66bc
00000120: 1e86 2039 874a fe3d 6341 c6bd 22a3 1cbc
00000130: 86f6 e63c 0cec 84be 0aae 043d 20ad 7ebd
00000140: a1e1 2fbc bb47 a6bd deab 65bc d38e b5bd
00000150: 57c0 e1bc 24f6 f43d d54c 183d 8b73 0a3d
00000160: 4d53 9ebc 18d0 82bd e451 b53c 28b3 92bc
00000170: 661b 043d 22aa adbd 59eb aa3d 3b4d 0b3d
00000180: 7a0d 6abe 2066 613d 5263 4dbd 413c 113d
00000190: 0cf5 95bd 20f0 3a3e 7a6c 833d a58c e33b
000001a0: 9306 d4bc 3fe1 433e 3ef0 48bd 550a 11bd
000001b0: cf0f 0abe 9735 07bc a4a3 8fbe cb5f bebd
000001c0: b5f4 da3a acf2 d1bd 912f 18be 683c f1bd
000001d0: fcd7 bcbd 00f9 423e 09f3 423e 9711 25bd
000001e0: 98da 023b 5331 f23d 3783 4f3c 8c82 103e
000001f0: 09b4 053d aed4 d43c fc3c 80bd ab64 3b3d
00000200: 9bca 6abe 16d8 873c 10db cf3d 4d8f d8bc
00000210: b620 993d 9a3f 513e 3d61 33bd b4be 05be
00000220: bed3 e2bd 90ab 59bd 2547 893d 98fb d73d
00000230: e389 843d 30f1 34bd 9468 85bd 98f3 983c
00000240: b6e6 2fbc 960b ef3b 874a 67bd 8b9c 4b3c
00000250: 40c4 543c 0f29 ae3c 2fed 7cbd e3e4 b13d
00000260: b48c 5e3d 8304 bfbb 23cb 91bd 995a 94bc
00000270: 384d 3abd 2bd7 7abd 3b0c 15bb 9e8c bc3c
00000280: 44d3 043d a0ee 1ebc b9b0 683c 7aa3 87bb
00000290: b40f db3c 1284 4bbd 8419 e8bb 64d9 6fbc
000002a0: a445 d93c d56b 7f3c 9e4b b13c a0c1 833c
000002b0: 7656 163c 7d5a 703d 9772 2c3c f453 103d
000002c0: b925 bbbd f208 c83d 6bb2 d73c ee16 1d39
000002d0: aad2 1abd eca6 e43d d05e a5bc 80ed 403d
000002e0: f9b7 93bd b1ce a4bb 736b c63c f0eb 9ebc
000002f0: 62ad d13d 6681 e8bd 96ca 1bbd 3d86 373a
00000300: 3f37 c1bd 5f88 9c3d 3406 253e f702 86bd
00000310: d681 9ebd 093f 9d3e 71a0 323d c67a 16be
00000320: 462a 0abe fc4a fabc 0864 83be 4a70 2bbe
00000330: 7020 25bd 7cae 6abe a974 ddbd 1707 4e3d
00000340: 67aa bb3c bd0b 2fbe ca39 cdbd 3569 2ebe
00000350: 5bd5 043e 6d26 da3c 4222 aa3d 2f9b 50be
00000360: 7384 723c 7506 3bbd 4702 7e3b fbf7 4c3d
00000370: f633 3a3d 1abc a9be e88f 883d 6cf6 9f3c
00000380: 4e97 f9bd f6a2 eabc 75df ed3a 5660 f1bd
00000390: bf01 11ba 2cc6 513e 6ff8 e5bc 6943 38bc
000003a0: 3d46 5dbe b6a2 6fbd 5c44 ce3d 9067 44bd
000003b0: e688 053d 3c17 3fbe 262a 19bd b2e1 66be
000003c0: ac1d 9abc e8e2 2abc 499e 94bd 44f5 6dbd
000003d0: 1968 bbbd 30d2 503d c176 f8bd c410 54bd
000003e0: 9b30 49bd beb5 3fbe 9894 22bd e955 8b3d
000003f0: d2cc 513d d08f 6abe 4ad0 85bd 4fb0 b5bd
-0.037829075 0.0856739 -0.06448344 -0.017786311 -0.13819574 0.077687696 -0.021360185 0.029976616
-0.026411716 -0.021381097 -0.12018492 0.06609566 0.022011843 -0.1145299 -0.040024627 -0.074468814
-0.08182967 0.03337618 -0.038031463 0.07571644 -0.07962094 0.20222242 -0.16695273 0.09454657
0.045086987 -0.08191009 -0.10135157 0.075224355 -0.042080645 -0.24589698 -0.056655407 -0.039428346
-0.078596145 0.032013696 -0.06981842 0.13303798 0.09473118 0.09176244 0.06510241 0.052523497
-0.09489808 -0.17659281 0.018329468 -0.076192744 -0.05927122 -0.21741872 -0.09569415 -0.088844374
0.118194126 0.10923021 0.13376552 0.12642153 0.22867142 -0.033174682 0.031374656 -0.009543502
-0.10337725 0.082047775 -0.0117740985 -0.037023492 0.027990578 -0.043239802 -0.021531116 -0.09524008
-0.101298854 0.026905736 -0.079417944 -0.048873182 -0.010637773 0.1424589 -0.10896805 -0.014062135
0.00015308752 0.12416559 -0.0968044 -0.009560378 0.028193723 -0.2596134 0.03239254 -0.062176824
-0.0107349465 -0.0811915 -0.014018027 -0.08865132 -0.027557535 0.1196101 0.037182648 0.033801597
-0.01932683 -0.06387347 0.022133775 -0.017907694 0.03225269 -0.08479716 0.0834567 0.0340092
-0.22856703 0.055029035 -0.050143547 0.035457853 -0.073221296 0.18255663 0.06417175 0.0069442564
-0.025882041 0.19128893 -0.049057238 -0.035410244 -0.13482593 -0.008252523 -0.28054535 -0.09295615
0.0016705008 -0.10251364 -0.14861895 -0.117791 -0.09220883 0.19040298 0.19038023 -0.040299978
0.0019966718 0.11825814 0.012665561 0.141123 0.032642398 0.02598032 -0.06261632 0.0457503
-0.2292885 0.01658253 0.10149205 -0.026435519 0.07476942 0.20434418 -0.043793906 -0.13061029
-0.11075543 -0.05314213 0.06703023 0.105460346 0.06471612 -0.044175327 -0.06514087 0.018670842
-0.010736158 0.0072950823 -0.05646756 0.0124274595 0.012986243 0.021259813 -0.061749633 0.08686235
0.054333404 -0.0058293953 -0.071188234 -0.018109607 -0.045483798 -0.061240356 -0.0022742886 0.02301627
0.03242804 -0.009700447 0.01420229 -0.004139361 0.026740886 -0.0496865 -0.00708312 -0.014639232
0.026522465 0.015589674 0.021642502 0.016083539 0.009175887 0.058680046 0.010525367 0.035236314
-0.091380544 0.09767331 0.026330194 0.00014981229 -0.03779856 0.1116465 -0.020186812 0.047101498
-0.072128244 -0.0050295223 0.024221158 -0.019399613 0.10238148 -0.11352806 -0.038034998 0.0007000899
-0.094343655 0.07643198 0.16115648 -0.06543534 -0.07739608 0.30712155 0.04361004 -0.14695272
-0.13492689 -0.030553333 -0.25662255 -0.16742054 -0.040314138 -0.22918123 -0.10813267 0.05029973
0.022908403 -0.17094322 -0.10020788 -0.17032321 0.12972014 0.026629651 0.083073154 -0.20371698
0.014802086 -0.045660455 0.0038758682 0.05004118 0.04545971 -0.33151323 0.06668073 0.019526683
-0.12187062 -0.028642159 0.001814826 -0.11785953 -0.0005531571 0.20485753 -0.028072564 -0.011246541
-0.21608825 -0.058504783 0.10071632 -0.047950327 0.03260126 -0.18661207 -0.03739371 -0.22547033
-0.018812977 -0.010430075 -0.07256753 -0.05809523 -0.091507144 0.0509817 -0.121320255 -0.0517738
-0.04911862 -0.18721673 -0.03969249 0.068034954 0.051220722 -0.22906423 -0.065338686 -0.08871519

encoder.layers.0.self_attn.out_proj.bias f4 [16]
00000000: 7258 cb3d d7d4 c33d 3706 113e 9e69 753d
00000010: 2fbc a03d 2ae5 123e ee65 593a 98f0 503d
00000020: 52cb 1abd 4492 d7bc cc7f f53b cc4d 9dbb
00000030: 48d5 073e 2696 913d c619 b93d b901 ba3d
0.09928979 0.0956208 0.14162527 0.059915178 0.07848393 0.14345232 0.0008293082 0.051010698
-0.037791558 -0.026314862 0.007492041 -0.004800534 0.13264954 0.07108717 0.09038119 0.0908236

encoder.layers.0.linear1.weight f4 [64, 16]
00000000: c322 4fbd 263a 52bd 218e 8a3e f67c 123f
00000010: f8f9 36be ad7b e83d 177b 823e 1000 913e
00000020: a3fb 2ebe 061c 37be ed22 c1be fde9 eabd
00000030: efd8 883e f2c8 823e e7cd 01be 6b0d 533e
00000040: 142a 92be e0ef 6ebe 98cd 9a3d c489 55bc
00000050: 0cfd d73e 5e29 a5be 73b1 38be f13a 0b3e
00000060: bbef 2d3c 6eb4 aa3b e4f4 9d3e a0e5 acbd
00000070: dcc7 243d 89b3 52be f52b c8be 3621 3f3e
00000080: 4d0f a1be 9c41 923e 71a3 8a3e 2be4 073f
00000090: 2e32 96be f827 d4be 7052 293d 68f1 08bd
000000a0: 12f3 f23d 624e 253c 8ffc a33e c5b0 9f3d
000000b0: 8954 ae3c cf5b 02be 45b8 debe 79df df3e
000000c0: 5f37 e5be 02e8 13bf a2dc 613e 647f 1d3e
000000d0: 1a33 1fbf de52 d1be 7016 9dbe 82b2 59bd
000000e0: c6d6 adbc b2ea 123e bbcc fcbd 4088 0d3e
000000f0: 5696 613e 4221 3e3e fe3b 12bd b048 873e
00000100: 1e1a c3bd cd24 afbe a8f5 043f d87a 8f3d
00000110: ef7c 55be e72e 92be a429 74be fa8a 27be
00000120: f5ff b13d cb54 0f3e a52f 333e a6f3 6abe
00000130: e706 a23e a75c ad3d eaf1 09bf f302 b13e
00000140: 0faf 7a3d 72b5 093c d61e 6a3e d80f 4abe
00000150: 0c95 dbbc 254e 263e 121e 093e 461c 893e
00000160: 3d33 24be 6c1d 2bbf a2ed b3bd 701f 36be
00000170: e6c7 703d 03f8 8c3d 8a37 39be 982b 9d3d
00000180: f170 9bbd 96c4 803e abf3 403d 6da1 963e
00000190: 6ef5 0fbb 5a64 34bf 5e97 23be e4ce e4bc
000001a0: d4be 4f3d 8703 c43e 970e 033d 89b6 c3bd
000001b0: 41b4 99bd f461 74be c62b 62be 2b6d 7b3e
000001c0: bba0 873d 979e 4bbe 6050 6d3e 9554 9a3e
000001d0: 70b5 6cbd 0e78 353e 9f58 803e 560b 803d
000001e0: 3c47 7ebc d8e4 d33d 4073 6a3c f901 203d
000001f0: d28c b93e d8b5 8e3e f9c3 82be 69df 78bd
00000200: 3dc4 35be 4fb8 06bd 7af1 903e 94ea d2bd
00000210: 263a 58be f1ed edbc e985 8abe ff49 a0b8
00000220: 8015 1d3e 7a5b 993d 75a4 b03e f9af 543e
00000230: 6df5 1f3d 5603 823e 65ff 16bf 49be 373e
00000240: 0cd7 25be 777c e9bd 9608 2dbd e0fb 893e
00000250: 39c6 c63e 3418 eabe 8f9a bc3d 60a2 bbbd
00000260: 83db 8a3e dcf0 64be 72bf 993e 1a7f 7e3e
00000270: bc5a d33c 91d0 013e 2246 f5be 5454 23bc
00000280: bc52 21bf 2450 21bf 6061 993d cafd 443a
00000290: ea65 3ebe e640 023e cdb4 053e 1dd4 b83e
000002a0: 573c 1c3e 4003 773e 4647 c03c 298d a73e
000002b0: c76e 3b3e cf73 e53e f1c0 8abe 5523 e23e
000002c0: 04b4 0fbf e0e5 0a3e 898e efba 8e70 093f
000002d0: 5faf e0be 6ca0 fbbc f21c b23d a3fa d23e
000002e0: b420 6fbe c467 2d3e cb88 6cbd 6d0b 2bbe
000002f0: 4bfd 993e 28d3 05bd 47fb acbc 6bcd 9dbe
00000300: 73c4 a3be 300d 54bd 39fe 27bd fbc2 25be
00000310: 4358 9abe d604 cc3e 0070 4ebe f2c1 423e
00000320: 2e30 653e 98ac c0be b8b9 5bbe d3f2 563e
00000330: 2ce0 253e ef79 0c3f d637 00be cc92 493e
00000340: f049 f1be 91cf 983d a97e e33d cd00 9f3c
00000350: 9229 213c bd6d d4bc f820 0abf cbe9 e7bd
00000360: 28aa 51be e428 0c3e cebc 7e3c 780f 13be
00000370: bc15 cf3e d1da e5bb c498 c9be 8f27 b83d
00000380: c4fc afbe dd57 d8bc 58c0 9d3e 63bc fcbd
00000390: 32cc db3c 51eb 19bc 9c43 973e 108f 573e
000003a0: 3d7e 1bbd dbe9 e03a 86ce 353d 0b14 8bbc
000003b0: e213 393e dfca ba3e dc03 dabe 6c3f 893e
000003c0: 53ec c3be 6d18 81be 8e1d 503d 5941 d3bd
000003d0: 2536 443e 4735 0c3e fdcb 843e ef2c 6fbe
000003e0: 3f1f 453e 2a74 8b3d 8595 f13d efa5 243d
000003f0: a264 a53e 494a bd3e 03c3 92be ddcc 88bd
-0.05057026 -0.051324986 0.2706156 0.57221925 -0.17868793 0.11351714 0.25484535 0.2832036
-0.1708818 -0.17881784 -0.3772196 -0.11470411 0.26728007 0.25543934 -0.12676202 0.20610587
-0.28547728 -0.23333693 0.07558745 -0.013033334 0.42185247 -0.32258123 -0.18036442 0.13596703
0.010616238 0.005209497 0.308509 -0.08442235 0.040229663 -0.205763 -0.39096037 0.18665013
-0.31456986 0.2856568 0.2707782 0.5308253 -0.2933516 -0.41436744 0.041338384 -0.033433348
0.11862768 0.010089489 0.32028624 0.07797388 0.021280544 -0.12730335 -0.43499961 0.43725184
-0.44768807 -0.5777589 0.22056821 0.15380627 -0.6218735 -0.40883535 -0.3068118 -0.053148754
-0.021220576 0.14347342 -0.12343737 0.13821507 0.22030005 0.18567374 -0.035701744 0.26422644
-0.09526466 -0.34207764 0.5193734 0.070058525 -0.2084844 -0.2855141 -0.2384401 -0.16361609
0.08691398 0.1399719 0.17498644 -0.22944507 0.3164589 0.08464938 -0.53884757 0.34572563
0.061202105 0.008405076 0.22863325 -0.19732606 -0.02680447 0.16240747 0.13390377 0.26779383
-0.16035171 -0.6684177 -0.08785559 -0.1778543 0.058784388 0.06883242 -0.18087593 0.076743305
-0.07589901 0.25149983 0.04710738 0.29420033 -0.0021966356 -0.70465624 -0.15975711 -0.027930684
0.050719097 0.3828394 0.031996336 -0.095563 -0.07505084 -0.23865491 -0.2208701 0.24553363
0.06622454 -0.19884716 0.23175192 0.30142656 -0.05779022 0.17721578 0.25067613 0.06252162
-0.015519913 0.10346383 0.014309704 0.03906438 0.3624025 0.2787311 -0.2554014 -0.060759936
-0.1775064 -0.032890614 0.28309232 -0.102986485 -0.21115932 -0.029044123 -0.2705529 -7.6431774e-05
0.15340233 0.07488151 0.3450047 0.20770253 0.039052416 0.2539317 -0.5898345 0.17943682
-0.16195315 -0.11400693 -0.042244516 0.26949978 0.38823107 -0.4572159 0.09209167 -0.0916183
0.271206 -0.22357506 0.30028874 0.24853173 0.025800101 0.12677218 -0.4790507 -0.009968836
-0.6301687 -0.6301291 0.07489276 0.0007514624 -0.18593565 0.1272007 0.13057251 0.3609933
0.15257393 0.24122334 0.023471486 0.32724884 0.18303977 0.44814917 -0.27100328 0.4416758
-0.5613406 0.13564253 -0.0018276732 0.5368737 -0.43883798 -0.030716144 0.08696927 0.41206846
-0.23352319 0.16934115 -0.057747643 -0.16703577 0.3007606 -0.032672077 -0.021115912 -0.30820784
-0.31985816 -0.05177039 -0.04101393 -0.1618766 -0.30145463 0.3984744 -0.20159912 0.19019297
0.2238166 -0.3763168 -0.21457565 0.20991068 0.16198796 0.54873556 -0.125213 0.19684905
-0.47126722 0.07461465 0.11108143 0.019409562 0.009836571 -0.025931234 -0.53956556 -0.11323889
-0.20475066 0.13687474 0.015547944 -0.1436137 0.4044627 -0.0070146103 -0.39374363 0.0899192
-0.34372532 -0.026409084 0.3081081 -0.123406194 0.026830766 -0.009394483 0.2954377 0.21050668
-0.037962187 0.0017159538 0.04438641 -0.01697733 0.18073991 0.36482903 -0.4258107 0.268062
-0.3826624 -0.25213948 0.050809436 -0.103151985 0.1916128 0.13692199 0.2593688 -0.23356985
0.192502 0.06809266 0.11796097 0.04019731 0.3230334 0.36970738 -0.28664407 -0.066796996

encoder.layers.0.linear1.bias f4 [64]
00000000: 3cd6 1cbe 8c87 f9bd 9b0b fcbe 0aa4 88bd
00000010: 0cb0 84be c23c e1be c402 dabe 3d1a f3be
00000020: bccf 0fbf 99fd ecbe d226 dabe 7562 0cbe
00000030: e292 82be 3807 b7be 5f77 a4be ee0f 92be
00000040: 9b47 00bf 8c21 fbbe f343 b8be b7a6 55be
00000050: 17a6 ffbe 0e7f a7be 1db2 aabe 383a cfbe
00000060: f79b 2abe 5834 f8be 777a b0be b97c fdbe
00000070: 09e0 91be a97c 27bf ac0e 9cbe d0c3 60be
00000080: 64e9 b4be a0ce adbe 61d2 49be d150 a6be
00000090: 37d3 e3be 9bd7 9bbe 10e6 b4be 5385 00bf
000000a0: 5ec6 86be b8d3 03bf 2f9a d1be 8111 4fbe
000000b0: 1ffe 98be 9a8d 99be b797 f7be a160 98be
000000c0: d81e 99be c41c a3be b8f8 7bbe 1cfe 47be
000000d0: 9e43 02be 5f2b fcbe 735a d4be 44b2 56be
000000e0: a7b4 07bf 03c9 b0be f2ed bebd 468a d9be
000000f0: 7eca d5be 7416 09bf b1e8 0cbf d5c1 f4be
-0.15316099 -0.12184057 -0.49227604 -0.06671913 -0.25915563 -0.43991667 -0.42580235 -0.47480956
-0.5617635 -0.4628723 -0.42607743 -0.13709433 -0.25502688 -0.35747695 -0.32122323 -0.28527778
-0.5010926 -0.49049032 -0.3598934 -0.20864378 -0.49931404 -0.32714123 -0.33339015 -0.40474105
-0.16661058 -0.48477435 -0.34468433 -0.49509218 -0.28491238 -0.6542459 -0.30479944 -0.21949697
-0.35334313 -0.33946705 -0.1970916 -0.32483533 -0.44497082 -0.3043793 -0.35331774 -0.50203437
-0.26323217 -0.5149493 -0.40937945 -0.20221521 -0.2988138 -0.29990846 -0.48357937 -0.29761222
-0.29906344 -0.31857884 -0.24606597 -0.19530529 -0.12721106 -0.4925184 -0.41475257 -0.2096644
-0.5301003 -0.3452836 -0.09322728 -0.42488307 -0.41756052 -0.53549886 -0.5504256 -0.47804132

encoder.layers.0.linear2.weight f4 [16, 64]
00000000: 86eb f03d d826 bebd aeba 68bd b5f2 193e
00000010: e429 fdbd 92ad 993e 68eb 953b cad9 423d
00000020: d068 003e 8622 bcbd c0ab c13d acbf 39bc
00000030: 507e 853e c4ad 12be 68bc 4a3d 3c89 35be
00000040: ccac 113e dbb7 b93d 9907 ba3d 1138 d83d
00000050: d5b9 eb3c e005 8d3d e595 b6bd 28ff 80be
00000060: 82d6 ba3d 288c 243d 0309 d8bc 4967 843c
00000070: 685a 4e3e cb9c 51be 30e5 d53d 8f5e 8bbe
00000080: 463d f73c 4651 8cbe 9ada 23bd bb63 c3bb
00000090: 748b 04be e2d4 1ebe 06a4 313e b0f3 1dbd
000000a0: f066 3bbd 0f70 5abd b05f 223d 0a7b 233e
000000b0: 4891 b33d acdb 5b3e d368 4abe 5c8b 033e
000000c0: fb95 623e 2876 d63d e60e 41bc 4e43 5d3e
000000d0: bc52 8a3d fee6 8f3d 5ce2 c5be bcc5 713e
000000e0: 4f57 a4bc c206 03be 1035 c93c af0d 5f3e
000000f0: 3ac4 863e 4385 4f3d df38 4a3e 9396 3e3e
00000100: 7bb8 11be 00c3 77be ae39 84be 10b7 77be
00000110: cac8 1ebf 89ba b0bd 5a44 013e 5340 34bd
00000120: cbb6 83bd 3ce6 73be 46ef 8fbe 339a 793e
00000130: 8947 28be 2a0b 51bd 6bb3 82bd e21d 6e3a
00000140: 9094 153e e09a 44be bca5 0a3e dee6 103c
00000150: 8ea9 b2bd f756 293e 6c90 33bd d1eb 383d
00000160: 378a c1be f9d7 2cbe f077 393e 1419 2d3d
00000170: f327 1ebc f2bb 8fbe 9312 82bc b2e4 09bc
00000180: 6d93 dfbe 5e0e 87bc 85e3 2abe e454 6abe
00000190: a5f5 273d 1e51 aebd c858 3abe c2d3 393e
000001a0: 3537 49be 9093 483d f66f c43e 41fe 3fbe
000001b0: 21ff ebbe 20cd 8bbe 9cf7 b4bc 8cfe 7dbe
000001c0: ec5b 1e3e d969 a8bb 6220 b9be 108e 073c
000001d0: 3edd 4ebd 7f2b c33a d1b5 903d 78d0 7c3e
000001e0: 12fc 22be 2028 e5bc 60ce 923e 597c 24be
000001f0: a805 cdbd db72 c43e a0d8 3c3e 8424 f7bc
00000200: ef0d cf3d 022e 043e bf28 85be a249 c6be
00000210: 56d7 df3c 03ff c9be bf9f 80be 9fa9 b4bd
00000220: 2718 0a3d f1c9 f03d 3e09 873e 5876 5d3e
00000230: a4e9 2ebe 32af 1abd 973d 9d3d 215a 2e3e
00000240: 1b84 b9bc d3de f53d 2442 84bd b0eb 95be
00000250: 8bff 763e b13b 823d a43c fc3c afb5 52be
00000260: fb93 a7be b622 9d3d df40 83bc 5aee 3e3e
00000270: e51f f6be a7fb 63bd ddd2 b63d f51a 47be
00000280: ceab 0e3e a941 f3be 47cf f7bd ae21 963e
00000290: 6229 3fbe ff70 69bd 7fac 33be 0b11 1e3d
000002a0: 71a6 6ebd 70c5 3dbe 1300 a13e 5a38 7abe
000002b0: e534 07bf 7516 913d 8b20 1ebe cb3f 65be
000002c0: 73e2 bebd 1599 18bd fd4a 013c 6010 a73e
000002d0: 5ac2 9b3e 7387 2e3e ff35 fbbd 0e40 ccbb
000002e0: 9510 82bb d499 a33d c2a2 21be 4a61 873c
000002f0: 87a8 923d 60bd 8ebe b765 48bc a110 09be
00000300: a40f f4bd fa9c c63d bf62 d9bd e466 513d
00000310: 062b 76be 3dde 80be f2cc 763e 889b 813d
00000320: 3ca9 f0bc ef38 3cbd 27f6 563e afc1 babe
00000330: 00a3 cabe a5a2 cb3e 23f2 893e ba83 903e
00000340: 895f 443e 4697 483c 9ad5 1ebd 7a44 e2bd
00000350: 7d4d febd 68de 813b 740d a9ba 664b 9d3d
00000360: 83b6 cc3d 702c bb3e 345a ed3d adde 563e
00000370: 9ea5 44be 3a84 08be a013 883c f99e 043f
00000380: 1ea6 bfbd c1da e43d 49a5 bf3c 211a 19be
00000390: 9842 d1be a595 b7bd 5dd7 8abd 2a54 183c
000003a0: ddf9 2a3e 8b85 0d3e 5c3b 20bd 7496 c93e
000003b0: a180 06bf e0e6 1d3e 64af 463e 423c f73d
000003c0: adf8 96be 986e 04bd 5b4a 8a3e 3bb8 f73d
000003d0: 9310 82bd 1075 b13d fded 173d a68b 993e
000003e0: bad0 1f3c 4ae5 39bc bb15 37be 166f 1ebe
000003f0: 0bec 34be 219c ba3e ede7 9ebd fc6a 7c3e
0.117636725 -0.092847526 -0.056818657 0.15033992 -0.12361506 0.30015236 0.0045751818 0.04757098
0.12539983 -0.09186272 0.09456587 -0.011337202 0.2607293 -0.14324099 0.049496084 -0.17728132
0.14226073 0.09068271 0.090834804 0.10557569 0.028775135 0.06885886 -0.08915309 -0.2519467
0.09122945 0.040172726 -0.026371485 0.016162531 0.20151675 -0.20469968 0.10444105 -0.2722058
0.030180585 -0.27405757 -0.040003397 -0.0059628165 -0.12943822 -0.15510896 0.17347726 -0.038562477
-0.045752466 -0.053329524 0.039642036 0.15964904 0.087679446 0.21470517 -0.1976655 0.1284613
0.22127526 0.10471755 -0.011783337 0.21607706 0.067540616 0.0702648 -0.3864926 0.23610586
-0.020061163 -0.12795547 0.024561435 0.21782564 0.26321584 0.050664198 0.19748257 0.18612127
-0.1423053 -0.2419548 -0.25825256 -0.24190927 -0.6202513 -0.08629329 0.1262373 -0.044006657
-0.06431349 -0.23818296 -0.2811224 0.24375229 -0.16433538 -0.051036038 -0.063818775 0.00090834324
0.14607453 -0.19199705 0.13539785 0.0088441055 -0.08723746 0.1653708 -0.043838903 0.045146767
-0.37800762 -0.16879262 0.18112159 0.042260244 -0.009653079 -0.28073078 -0.015877998 -0.008416342
-0.43667164 -0.016486343 -0.16688354 -0.22883946 0.04100575 -0.085115656 -0.1819793 0.18147185
-0.19649966 0.04896885 0.3836667 -0.18749334 -0.46093085 -0.27304935 -0.022090726 -0.24804133
0.15464753 -0.005139571 -0.3615752 0.008273616 -0.05050396 0.0014890282 0.07065929 0.246889
-0.1591647 -0.027973235 0.28673077 -0.1606306 -0.100108445 0.38368878 0.18442011 -0.03016878
0.101100795 0.12908176 -0.2600765 -0.38728052 0.02732436 -0.3945237 -0.25121877 -0.08821415
0.03371444 0.11757267 0.2637424 0.21627176 -0.17081314 -0.037764736 0.07677763 0.17026569
-0.022646 0.12005391 -0.06457928 -0.29281378 0.2412092 0.063590415 0.030790634 -0.2057712
-0.32730088 0.07672636 -0.016022144 0.18645611 -0.4807121 -0.055659916 0.08926938 -0.19443877
0.13932726 -0.47511032 -0.12100082 0.2932257 -0.1866813 -0.056992527 -0.17546271 0.038590472
-0.0582642 -0.18532348 0.3144537 -0.24435559 -0.52815086 0.070843615 -0.15442102 -0.22387616
-0.093205355 -0.037255365 0.007891414 0.3262968 0.30421716 0.17043857 -0.12266158 -0.006233222
-0.003969262 0.07988325 -0.15784743 0.016525883 0.0716105 -0.27878857 -0.012231282 -0.1338525
-0.11917046 0.0969791 -0.106145374 0.051123515 -0.2403985 -0.25169554 0.24101618 0.06328493
-0.029377572 -0.045952734 0.20992337 -0.36475894 -0.39577484 0.39772525 0.26942548 0.282255
0.19177069 0.012243098 -0.038777925 -0.11048217 -0.124171235 0.0039632805 -0.0012897686 0.07680397
0.09995749 0.3655734 0.115894705 0.20983382 -0.19203803 -0.1333169 0.01661092 0.51805073
-0.09357856 0.111745365 0.023394244 -0.14951374 -0.4087112 -0.08964089 -0.067793585 0.00929741
0.16696878 0.13820474 -0.03911911 0.393726 -0.5254002 0.15420103 0.19402844 0.1207204
-0.294866 -0.032332033 0.27009854 0.12095686 -0.063508175 0.08664906 0.037092198 0.29989356
0.009754354 -0.011346171 -0.17879383 -0.15472063 -0.17668168 0.36447242 -0.0775908 0.24650186

encoder.layers.0.linear2.bias f4 [16]
00000000: f831 50bd fcbb de3c d79f 7a3d ffe3 7f3c
00000010: 6f51 b2bd 985e a8bd 2016 d23d d0ff 803d
00000020: 4096 03bd ed0b bd3c 4275 643b ed0d f53d
00000030: c816 9dbc 055c aa3d 361b e0bd 8839 463d
-0.050828904 0.027189247 0.06118759 0.015618323 -0.087069385 -0.08221167 0.10258126 0.06298792
-0.03212571 0.023076976 0.003485993 0.11965547 -0.019175902 0.083183326 -0.1094269 0.04839471

encoder.layers.0.norm1.weight f4 [16]
00000000: 43b0 ae3e 9c9c 953e f91e c33d 06b3 b13e
00000010: 4e2d 8a3f 3939 263f e8c5 013f 8838 253f
00000020: 9699 653e 64df cb3f cd7d 2c40 bc35 3f3f
00000030: 98e6 693e 9178 7e3e a535 823d 83cf c63e
0.34118852 0.29221046 0.09527392 0.34706897 1.0795076 0.64931065 0.50692606 0.64539385
0.2242187 1.5927548 2.6951783 0.7469137 0.22841871 0.2485068 0.06357888 0.38830194

encoder.layers.0.norm1.bias f4 [16]
00000000: 27d7 843f b09d 893d 6e8a c4be 5114 52be
00000010: 5598 d13e 8929 323e 0e3c 373e ed4a c7bd
00000020: 23fc c83d 2247 13be 00d2 67be 7397 babd
00000030: 7746 98be 5e43 57be 49c1 833f 5942 45be
1.0378159 0.0671953 -0.38386863 -0.20515563 0.40936533 0.17398657 0.17894003 -0.09731088
0.09813716 -0.14382604 -0.22638702 -0.09110918 -0.2974126 -0.21021792 1.0293361 -0.19263591

encoder.layers.0.norm2.weight f4 [16]
00000000: 2293 4c3f 6a06 063f 882f c73e 7453 fd3e
00000010: 1a96 893f 6d58 f63e 5801 2d3f 6ea6 033f
00000020: 5686 993f 5cfa bf3f 6492 e33f 1813 443f
00000030: 29eb b83e b747 a83e b400 903e 3a35 2a3f
0.79912007 0.5235354 0.3890345 0.49477732 1.0748932 0.4811434 0.67580175 0.51425827
1.1994121 1.4998279 1.777905 0.76591635 0.36116913 0.32867214 0.28125536 0.6648747

encoder.layers.0.norm2.bias f4 [16]
00000000: eb6b a83f a67a 45bc aea6 c13d ae97 a03d
00000010: ffad 20be b229 ae3c e9b3 d2be 6ff9 c2bd
00000020: d1e7 3fbe 8596 67be d4d4 00be 0416 673d
00000030: e955 a03c 41ac aebd f007 b33e 0033 d93d
1.3157934 -0.012053167 0.0945562 0.078414306 -0.15691374 0.021260116 -0.41152886 -0.09520232
-0.18740775 -0.22616012 -0.12581187 0.05641748 0.019572215 -0.085289486 0.34966993 0.106054306

encoder.layers.1.self_attn.in_proj_weight f4 [48, 16]
00000000: d755 a7bd 3d92 933d 1ab2 9c3c 0e7d c33e
00000010: 9995 9c3e c38a ea3c 049d 3d3e aad3 8b3d
00000020: 5f46 093e 1bae a0bd c38b f83d 48eb e1bd
00000030: 1430 da3e d5be dc37 102c 99be 5d50 43be
00000040: bc58 573e 13c3 0d3e a404 fd3d 1cef e43e
00000050: c7aa 9d3c a9d8 db3b 09e1 80bd 7330 903d
00000060: 5adf 38be ca69 b5be 32e6 303b 2efc 323e
00000070: 2a74 e4bd 1091 b83d c3fe f63d 6c29 46be
00000080: 47ca 223d bf17 2d3e bcb0 adbd 2473 44be
00000090: d787 92be 6f07 55be 02da 28bd efc4 6e3d
000000a0: a120 8dbe 2eb2 973e f215 ce3d 1acc 2abb
000000b0: c324 9cbe c843 893e 1100 9a3e 6389 e03b
000000c0: f381 87be 7b6b b33d 229d 9e3e 0ce7 b83e
000000d0: 579a 8b3c 5fec 0fbf 710f 083d 230d c3bb
000000e0: 3ea5 35be c230 d13e d503 46bd f4d6 303e
000000f0: ab9f c73c 5e3a 02bf 5552 163e 37bb 8dbe
00000100: 65eb 8c3c d6bf 0dbe fdf0 4cbe 9acd aa3d
00000110: 3091 873d 1088 b5bb 1793 8dbe 6dec ba3e
00000120: b3f3 0abe e1df d83e 9e0f 3a3d 3f6a 8d3c
00000130: cc74 c5bd f28b 6e3e 74ce b83d 42a3 a2be
00000140: 9944 e5bc 21b0 afbe e94b 8ebd 49f7 38be
00000150: 3d8c 45bd b7eb d43e 51a4 e1bd ebdd 36be
00000160: dfab e1bb 382f 88bd 2953 7cbd b2e8 03bf
00000170: b5cf a5bd 307d 603d 62d5 ea3c b839 8d3e
00000180: 7157 4f3d d9b9 6fbd 19d9 04bf 384b a1be
00000190: e3f0 a13d 3201 cd3e ab98 b8bd 27a0 9f3e
000001a0: 74cb 1e3d 198b 3f3f 1565 8dbe dd81 563d
000001b0: 0001 49be a43c 233e e942 d6bd 4142 213d
000001c0: a4dc acbd 2fea 07bf 8543 d6be 3512 3ebf
000001d0: 0491 1b3d 3b51 003f 25c4 80bc 1010 5c3c
000001e0: 2ae4 a33e 42d6 343e 0079 463d 75ed 16be
000001f0: bb44 733d 2f8e 8b3e bf95 81bd 11fe cebc
00000200: 55fd 77be 1873 fdbe d348 9a3e 3389 b5bc
00000210: d8b4 fabe 2bd6 c33d 61db eebc 7729 cb3e
00000220: 8d1b 103e 2209 53be 4e00 4bbe 12f0 573b
00000230: 091b dc3e d80f 1ebe e2f4 95be c9cd ffbd
00000240: ae96 133e 1156 c63e 9249 43be dd49 82be
00000250: c6de 443f 43c2 dd3e 069f 943d b2ed 69bd
00000260: 3fdd 7bbe 45f8 b93d cb0a 403d 0aff e13d
00000270: a510 19be 15c0 84bd edc9 a23d ab02 2f3e
00000280: 4d7d 1f3e 44e3 a43e b7e7 a0be cf2f 253e
00000290: 2c4f c6bd d050 a6be 8a88 e13e 2587 883e
000002a0: ded6 643e 2a91 20bc f9b3 0b3e a5cd 743e
000002b0: edd4 08bf b1f5 c93d c6ea bfbc 6e56 7a3e
000002c0: d8a2 4bbd 4005 d43e b673 873e 8393 e6bc
000002d0: 5d52 103f ca49 8a3e 5104 223e d58a 49be
000002e0: 9350 73be e11c 88bc f166 b4bd 7abe 8dbe
000002f0: b3eb a13d 9c54 2d3f c01b 05be 670c b9bd
00000300: dad5 c03e bee1 95bc 80f5 8d3e 95c3 d73e
00000310: fcd8 46bf 81cd 953d ce99 55be 8126 eabd
00000320: de4b 5dbd 92d0 8bbd a40a 953e 6cfb 34be
00000330: a427 c9bb c899 30be 0d37 b53e e379 0ebd
00000340: f742 fe3d e01a 0f3e 1380 81be 3ab3 c1bd
00000350: 7925 033f 3851 9a3d a76c 78bd 62e3 b3be
00000360: 2c20 dcbd 1b8f 9b3d cd8f 113e 3203 d9be
00000370: 3b9c 9abe 9f0f aebe f988 1fbd 1921 033e
00000380: 6419 80be 69e3 82be 41ee 623d 2358 95be
00000390: bd8f 463f a261 8f3e cfd5 28be cca9 0a3d
000003a0: b5db 1fbe c3f6 ef3c d0ae 52be bfc0 0ebf
000003b0: 0f67 323e 6154 093e 0d5d 1abe ee65 113e
000003c0: f0f9 983d ec02 b63e 28a2 e33e 1641 ff3e
000003d0: 72b4 50bf eceb f33d 4968 973e 6dc8 afbc
000003e0: 47c5 313e 01fc 36bd 744d 053e 8842 ca3d
000003f0: 98e7 9a3e 4bb9 c6be e4e4 b13d a2a4 77bd
-0.081706695 0.07205627 0.019127894 0.38181347 0.30582884 0.02863062 0.18516928 0.06827481
0.1340575 -0.07845708 0.121360324 -0.110312045 0.42614806 2.6314907e-05 -0.2991643 -0.19073625
0.21029943 0.13843946 0.12354401 0.44713676 0.019246472 0.0067091775 -0.06292922 0.07040491
-0.18053952 -0.35432273 0.0026992676 0.17479011 -0.11154969 0.090120435 0.12060311 -0.19351739
0.039743688 0.1690359 -0.08480975 -0.19184548 -0.28619263 -0.20803617 -0.041223533 0.05829328
-0.27563956 0.29628128 0.100627795 -0.0026061595 -0.30496797 0.26809525 0.30078176 0.0068523153
-0.2646633 0.08760735 0.30979258 0.36113775 0.017041368 -0.5622005 0.03321785 -0.0059524938
-0.17738816 0.40857512 -0.0483435 0.17269498 0.024368128 -0.5087031 0.14679845 -0.27681896
0.017202089 -0.13842711 -0.20013805 0.08339997 0.06619489 -0.0055399016 -0.27651283 0.36508504
-0.13569526 0.42358306 0.04542505 0.017262576 -0.09641418 0.23295572 0.09023753 -0.3176518
-0.027986811 -0.34314063 -0.069480725 -0.18063082 -0.048229445 0.41586086 -0.11017669 -0.17858092
-0.0068869437 -0.06649631 -0.061602745 -0.5152694 -0.080962576 0.054806888 0.028666202 0.27583098
0.0506205 -0.058526848 -0.51893765 -0.315027 0.079072736 0.40039974 -0.09013494 0.31176874
0.038768247 0.7482162 -0.27616182 0.05236994 -0.19629288 0.15941101 -0.10461981 0.039369825
-0.08440521 -0.5309171 -0.41848388 -0.7424653 0.037980095 0.5012395 -0.015718529 0.013431564
0.32010013 0.17659858 0.04845524 -0.1473902 0.05939172 0.27256915 -0.0632739 -0.025267633
-0.24217732 -0.49501872 0.30133685 -0.022160148 -0.48966098 0.09562334 -0.029157342 0.39680073
0.1407301 -0.20608953 -0.19824335 0.003294949 0.42989376 -0.15435731 -0.29288393 -0.12490422
0.14412948 0.38737538 -0.19071034 -0.25446978 0.76902425 0.43312272 0.07256894 -0.05711145
-0.24596117 0.09080557 0.046885293 0.11034973 -0.14947756 -0.06481949 0.079486705 0.17090861
0.15575142 0.3220464 -0.31426784 0.16131519 -0.096830696 -0.3248353 0.44049484 0.26665607
0.2234759 -0.009800235 0.13642873 0.23906572 -0.534499 0.09861315 -0.023427378 0.24447033
-0.049715847 0.41410255 0.26455468 -0.028146511 0.56375676 0.27009422 0.15821959 -0.19681866
-0.23761205 -0.016615333 -0.08808697 -0.27684385 0.07906284 0.6770723 -0.12998867 -0.09035569
0.37663156 -0.018296119 0.27726364 0.42141405 -0.7767484 0.073145874 -0.20859453 -0.11433125
-0.05402743 -0.06826891 0.2910968 -0.17674035 -0.0061387587 -0.17246163 0.35393563 -0.03478421
0.12415116 0.13975096 -0.25293025 -0.09458013 0.51229054 0.075350225 -0.060650494 -0.35134417
-0.10748324 0.075956546 0.14215012 -0.4238525 -0.3019732 -0.33996293 -0.038948987 0.12805595
-0.25019372 -0.25564125 0.055402998 -0.29168805 0.7756308 0.28004175 -0.16487812 0.033853337
-0.15611155 0.02929247 -0.20574498 -0.5576286 0.17422126 0.13411094 -0.15074559 0.1419904
0.07469547 0.35549104 0.44459653 0.49854344 -0.8152534 0.11910233 0.2957175 -0.021457875
0.17360412 -0.044673923 0.13017827 0.09875971 0.30254817 -0.38813242 0.086862355 -0.06045974

encoder.layers.1.self_attn.in_proj_bias f4 [48]
00000000: 3693 533c 8553 76be f08a a53e 03be 5d3e
00000010: 525e 0abd 2a88 25be b72a 40be d448 80bd
00000020: 88c0 38bd e89e 8d3d c54a 9cbd 24d7 b6bd
00000030: 036e de3d 26f8 4e3d 0604 3bbe 118c 723e
00000040: d2c0 0fbb 2d6e 51bb ebd7 493a fafb e938
00000050: 724e 6dbb 7263 e7ba b322 b63b f5a7 df38
00000060: 0bfc c33a b477 b03a 8e9d ae3a 526b 22bb
00000070: aca2 e739 96ac 4e3a cb37 21bb 6277 313b
00000080: c934 0d3e 91b5 ac3d 8ded d63d bee5 37bd
00000090: 81e8 f6bd 0e44 a9bd 665c f43d ac87 56bd
000000a0: 050d 92bd ba43 5ebe fc1d 10be de7e 803d
000000b0: b9f6 c0bd 4e8d 8d3d 2556 4a3c cb37 48bd
0.012913516 -0.24055298 0.32332563 0.21654515 -0.033781357 -0.16165224 -0.18766294 -0.06263891
-0.045105487 0.069150746 -0.07631449 -0.089277536 0.10860827 0.05052962 -0.18263254 0.23686244
-0.0021934998 -0.003195654 0.0007699716 0.0001115724 -0.0036210087 -0.0017653538 0.0055583357 0.00010664753
0.0014952434 0.0013463409 0.0013322101 -0.0024783206 0.00044180953 0.00078839937 -0.0024599906 0.0027079214
0.13789667 0.084330685 0.10494528 -0.044896834 -0.12056065 -0.082649335 0.11931686 -0.05237548
-0.071313895 -0.21705523 -0.14073938 0.06274198 -0.094220586 0.06911717 0.01234964 -0.048881333

encoder.layers.1.self_attn.out_proj.weight f4 [16, 16]
00000000: 018f 20bc 508f a53d 486c 883d 90e5 503d
00000010: bb57 98bd c59b 82bd 37fa 893d 9529 c63c
00000020: cab8 563c 8935 29bd a380 efbd cefb 343d
00000030: ea96 a0bc e5f9 c73d 3a5c 683b 66d1 9dbd
00000040: 1cf1 50be 9693 f33d 9e3b 10be 511e d73d
00000050: 4df6 18bd 5d05 a83d fa5e 32be 8f33 2cbe
00000060: d9cb 88be 8c92 063c b6ad da3b e3d7 273e
00000070: 1316 8cbd c338 403d 2191 8b3e 674d f6bd
00000080: 030e af3e 0615 7c3e 06fc 033e eee5 a83c
00000090: 6dc4 7cbe d1ca a5bd 5d78 183d f4f1 983d
000000a0: f198 513e 666c 623e e3d2 e4bc 0257 83be
000000b0: 5e70 bf3d 4cbd 8c3d b10c 743d 8f7d ebbd
000000c0: 8aee e1bc 16e3 3dbd 30b3 37be 62fd a83e
000000d0: cbc0 5cbd 2003 203e 8e99 363e 25f2 de3d
000000e0: 8602 4ebe a7b3 553e 92b3 aebd 5318 163e
000000f0: 0070 d33e 59b2 6ebd f5bd d13e d778 38be
00000100: 1b87 83bd 8159 2abe 5bb5 89be a9bc 0bbe
00000110: 4968 653d 818f 393e 0388 033e a57b 873e
00000120: c390 aebd 37e3 c63d fd56 f93d b233 0b3d
00000130: d35d 463e e15b 82be 23f9 e23d a31d 1a3e
00000140: 333f 733e 6b66 c63d c827 623d 2f1d 14be
00000150: bb3e 7f3e 71a1 9b3e fa06 0b3d c4ae 4e3e
00000160: e408 9f3e 3e05 243e c069 71bc ed05 443e
00000170: ebd2 e0bc 7d03 69be 33f3 b43d 974d 223e
00000180: 409a 81bc be48 0bbe b616 34be 552a 393e
00000190: f9f3 babd d6dc 973e 0fe4 e9bc 227a 10be
000001a0: 7bb2 af3d eb3e 8d3e 7e10 85be 4061 5b3e
000001b0: cf22 5e3e 165d 7dbe 42bc 543c c2da 3cbc
000001c0: 17bc 65bd e850 cabe 89f4 7ebe 0eba 103e
000001d0: fd28 d8bc c991 723e bdee c03d 3986 683e
000001e0: b2fc f6bd 1430 223e 5bf1 923d 9bfa 9d3d
000001f0: de06 273e 93d3 13bd 9c8c 423e 1832 86be
00000200: 6d96 213d b4d9 a53b a6db 943b 07e7 8e3d
00000210: 03d6 ce3b 7a4f 3f3d 101c b63d 60f1 62bd
00000220: 5f1b 073c 0238 dcbb 9684 b63c 7529 86bc
00000230: 46b3 42bd 83c1 70bd 6c6d 923d 1adf d03c
00000240: a901 be3c 894c 10bc b158 8c3d 9d03 2d3e
00000250: aaea a73d c4cb 733d 514f 0a3c b2ce e1bc
00000260: 3aee bd3d 8960 043d 61dd 12bd 9e08 163d
00000270: 6208 9b3d 52f3 28be a7ff 0cbd 33d1 50be
00000280: 9b5e 21bd 4fbd 30bd 4b05 673c 3902 32bb
00000290: 3e11 11bc 5878 01bd 284a 90bc e3a8 e9bc
000002a0: 1959 4e3d 2c73 c53c cb91 71bc ee5d 7c3a
000002b0: da26 15bc 05af b2bc d864 acbb c391 f13c
000002c0: 40e7 5e3b 4638 c23d 2787 d5ba 4ea1 7ebd
000002d0: 0b51 1bbe 7dfe 643e c45c 0e3e 473e 863d
000002e0: 3048 153e fcb9 a0bc 5a31 6fbe f03b 3cbe
000002f0: b4a4 ac3d 5f14 943d 6a1b 783e 52db 21be
00000300: d15f 21be 3e26 f6bd 67d7 fb3d 5a81 7b3e
00000310: 0b48 49be 5df9 8e3e 0a90 2fbe 9d73 10be
00000320: 3d48 753d 0766 a43e a574 173e 5440 3c3e
00000330: 2c1d 553d 8b4b 03bf 8df5 2e3d 8375 9cbd
00000340: 94ee 473d a27b 90be 7698 fd3c 69a3 c6bd
00000350: f89d 62be 7097 7c3e 1a9c a0be c3f3 11bd
00000360: fb69 17bc 0318 19bd 5644 ab3d 041c a03e
00000370: 7039 24bc bc24 63be 8490 433e be5b 5b3e
00000380: 1fda 38be 1443 d6bd 14f2 113e f9c3 e8bd
00000390: 2dc0 233e 6bf2 e23d 2bcd 063b cd5e a3bd
000003a0: 20cc 323e b345 02bd 7b15 153e 89ed b73e
000003b0: 2265 0a3e 539f dcbd eec8 89bd fece ab3d
000003c0: a54c 02be da55 4ebe 90bb 91bd fc51 423e
000003d0: db8f d8bd bdde d93d d589 f33d 3b51 603d
000003e0: ce40 663c 4eeb c7bd 2751 013e 5e59 d73c
000003f0: f1ab 89be f9f3 c1bd 6b00 2d3e 176a 3e3e
-0.00979972 0.08083975 0.06661278 0.051000178 -0.07438608 -0.06377367 0.06737178 0.02418975
0.013105581 -0.04131082 -0.116944574 0.044185452 -0.019603211 0.097644605 0.0035455362 -0.07705955
-0.20404476 0.11893384 -0.14085242 0.10503829 -0.037344266 0.08204148 -0.17419043 -0.16816543
-0.26718023 0.00821365 0.00667354 0.16390948 -0.06840148 0.046929132 0.27259162 -0.12026482
0.34190378 0.24617395 0.12889108 0.020617452 -0.24684305 -0.08095325 0.037224162 0.07468024
0.20468499 0.22111663 -0.02793259 -0.2565232 0.09347604 0.06872043 0.059582416 -0.11498558
-0.027579565 -0.046359144 -0.17939448 0.33005816 -0.0538948 0.15626192 0.17832014 0.10886029
-0.2011815 0.20869313 -0.08530344 0.14657716 0.41296387 -0.058275554 0.40965238 -0.18014847
-0.06422254 -0.16635706 -0.26896176 -0.13646187 0.056007657 0.18121149 0.12844853 0.2646152
-0.08523705 0.097113065 0.12174795 0.033984847 0.19371729 -0.25460723 0.11082675 0.15050368
0.23754577 0.096875034 0.05521372 -0.14464258 0.24926274 0.30396608 0.0339422 0.20183855
0.3106147 0.16017625 -0.014734685 0.19142886 -0.027444324 -0.22755237 0.08835449 0.1584991
-0.015820622 -0.13601968 -0.17586789 0.18082555 -0.09128565 0.29660672 -0.02855113 -0.1410909
0.08578964 0.27587065 -0.25989145 0.21423817 0.21692966 -0.2474254 0.012984337 -0.011526765
-0.05608758 -0.39514852 -0.2489797 0.14133474 -0.026386732 0.23688425 0.09420536 0.22707452
-0.120599166 0.15838653 0.07174941 0.07713815 0.16311213 -0.036090445 0.1899895 -0.26210093
0.039450098 0.0050613526 0.0045427857 0.06977659 0.0063121333 0.046706654 0.08892071 -0.055405974
0.008246272 -0.006720544 0.022280019 -0.01637719 -0.04753425 -0.058778297 0.07149777 0.025497008
0.023194151 -0.00880731 0.06852854 0.1689591 0.081990555 0.059520498 0.008441762 -0.02756438
0.09273954 0.032318626 -0.035855655 0.03662931 0.07569958 -0.1649907 -0.034423497 -0.20392303
-0.039396863 -0.04314929 0.014100383 -0.002716197 -0.0088542085 -0.03160891 -0.017613485 -0.028522914
0.05037794 0.02410277 -0.014744232 0.0009627034 -0.009103501 -0.021811971 -0.005261045 0.02948845
0.0034012347 0.094833896 -0.0016290889 -0.06216555 -0.15167634 0.22362705 0.13902575 0.06554847
0.14578319 -0.019619934 -0.2335867 -0.1838224 0.08429852 0.07230448 0.24229208 -0.1580632
-0.15759207 -0.12019013 0.12296944 0.24561062 -0.19656388 0.27924624 -0.1714479 -0.14106603
0.059883345 0.3210909 0.1479059 0.18383914 0.052029774 -0.51287144 0.042714644 -0.07639601
0.04881151 -0.28219324 0.030956488 -0.09699137 -0.22130573 0.24667144 -0.31369096 -0.03563286
-0.009241576 -0.037376415 0.083626434 0.31271374 -0.01002346 -0.22181982 0.19098097 0.21421716
-0.18051957 -0.10462013 0.14252502 -0.11365504 0.15991278 0.11081394 0.0020569067 -0.07977066
0.1746068 -0.03180475 0.14558975 0.35923412 0.13515142 -0.10772576 -0.067277774 0.0838909
-0.1272455 -0.20149937 -0.07115853 0.18976587 -0.10574313 0.10638187 0.11891524 0.054764967
0.014053537 -0.09761678 0.12628613 0.02628773 -0.26888993 -0.09470362 0.1689469 0.18595158

encoder.layers.1.self_attn.out_proj.bias f4 [16]
00000000: 792b 313e 424e f1bd fda2 aabd 0387 67be
00000010: 153e 34be 992f 7fbd a187 7ebd 5510 56be
00000020: 95f5 183c 2908 13be 3d33 963c 0258 3a3e
00000030: 3b7d cabe efd7 bcbe fe51 523e cae5 b4be
0.1730174 -0.117825046 -0.08331869 -0.22610097 -0.17601807 -0.062301252 -0.062141065 -0.20904668
0.009335895 -0.14358582 0.01833498 0.18197635 -0.39548668 -0.36883494 0.2053909 -0.35331565

encoder.layers.1.linear1.weight f4 [64, 16]
00000000: 110a 04be 87dd 8c3e e94e efbb e813 b63d
00000010: 14e2 bb3d 94f1 663d b712 dd3e 2553 863e
00000020: f9d0 07be d1fd c2bd 3f3d 95bc e0de 543d
00000030: 6db3 093f 7c41 9c3e 5b56 95be 8341 193e
00000040: 6b46 07bf e31e 55be ccb1 693e b9e4 1c3e
00000050: 4230 b63d 1599 963e 301f a3be eefa 41bd
00000060: 4de3 0bbe 07d4 ba3e 2055 c13d 020f d03e
00000070: 6d04 9cbe 37c5 5b3e e9ac 6dbe a38b 45be
00000080: 489f bfbd 7e5b 6f3e 3488 843d abdf 6a3e
00000090: 924a 803d 2f9a 8cbd 573c 8c3e d70c 593e
000000a0: 23ba a73c 2884 6ebd 8caf 5c3d 89b6 da3d
000000b0: c687 80bd 02b0 8b3e 71c8 4bbe db91 e23c
000000c0: db2f 0fbf 8446 1ebd 1d4c b93e ed8e b33d
000000d0: eefe 7bbd efe9 e4be d265 343d 66be dc3e
000000e0: c16f 53bd 6c65 5d3c 983d b13d ca8a 8cbe
000000f0: b86d ca3d 856b f33d 6263 a2bd 4093 5d3e
00000100: 6685 02be 46af 4cbe d0de 403e 5101 8a3e
00000110: eaef 93be 0aef 21bf fb42 b23e 345a 4a3e
00000120: 5df1 553e 3c87 a93e f890 cc3d 3318 dfbe
00000130: 0db4 9f3d e8ac 043e a443 6abe 5141 813d
00000140: b65e 45be 42d0 eebd 7b48 f5bd f08d 63be
00000150: 1f13 1a3e 949b 943d 5edc b43e 1112 063f
00000160: 83d9 313d 4a90 bdbe ac3c 3bbe a238 ae3c
00000170: ed77 9abd 2ccb abbd b0cb 76be e6a2 06bd
00000180: 23ff 4bbe 8bef 8b3e d02b 5839 2d9b 0b3e
00000190: 9850 53be 5962 84be 06d1 9d3d 035b 663e
000001a0: af79 103e 06b0 3c3e 31d0 2a3d c9cf aa3e
000001b0: 9f65 e0bc 3cef 03be c985 96be cd49 76be
000001c0: f603 98be 68f9 933d 0864 983d 949e 693d
000001d0: b47e 9cbe d625 f4bb 1b32 ba3e 101c 7bbd
000001e0: f846 43bb 9751 363e 0a15 f43d 4021 1d3f
000001f0: bca5 aabd c722 75b9 8565 bb3c 15a7 1c3e
00000200: 52b6 213d 9f43 c8bd a7f4 c3be dae8 33be
00000210: e0d5 94bd cf21 823c 6828 c53e 93f5 f33b
00000220: 92ea 2a3e e174 fb3d bfed 0a3d 7073 8b3e
00000230: ab6d 1b3c a97e b13e c0e2 27bf e9f1 603e
00000240: 5e52 fabd 9359 1dbc 49f5 85bd e107 183e
00000250: 061d 273f 1145 27be c414 94bc 480a d73d
00000260: 26df dc3b f82f 86bd 0a05 153d 62e1 5abe
00000270: ef71 25bc e545 4fbe dff9 13bf 4a0c f73e
00000280: 7bed d4be d01e 80bd 4b50 693e e0ea c7bd
00000290: aa50 8b3d 305b 48bd 5cd8 4a3e fd10 963e
000002a0: beef d9bd 01c5 863e 36de 063c 3441 a33e
000002b0: 7ae8 a63e c2a9 cc3b aed5 8bbe b3d2 343d
000002c0: 7bb2 9ebe 47a3 363e 9751 80be ebc6 973d
000002d0: 3509 e8bd a7de 81be 5958 993e f022 1c3e
000002e0: b3d3 d1bd 15f5 9cbd 4af9 d8bd d037 383e
000002f0: d00b 7e3e 64e9 143e 49c6 97be 663d 95be
00000300: b7c5 a0be 3952 cd3c a222 2b3e 1ba1 8f3e
00000310: 490f f33d e5f1 14be 5c24 a83b d251 4e3e
00000320: 6f07 64bb 3a07 08ba 1eac 2abd dd36 23be
00000330: c048 903d ad53 153f 790f edbe ae91 603d
00000340: 1600 c4be b0ce b73d fd79 93be 2b40 133e
00000350: b7b0 82bd 6814 b4bd 9f9f 163e 2b03 ac3d
00000360: 6a85 11be 2431 6f3e 0594 013d a0cf 28bd
00000370: a162 e63c 4fff ac3e dd71 45be e1c9 f7bd
00000380: 2c14 27be deaf 09be 0d73 42bd 4fb3 be3e
00000390: 7869 eb3d ca75 05bf e060 033e d896 823d
000003a0: d700 ffbc 35a4 813d 04bc dc3d 30f0 e8bc
000003b0: c91b 453e 8c36 e73e 1a42 96be 5de8 9d3e
000003c0: 3598 febd 4d0a 5ebe 232d c5bd ed91 183e
000003d0: e6e6 1abe 9424 833e 1ec3 c43e 1220 7e3e
000003e0: 7baa 51be b3ff 0d3f 0f47 763d 7081 8ebd
000003f0: 6045 4c3e ce47 f23c 2bbd 583e 81df 2cbe
-0.12894465 0.27512762 -0.007303108 0.088905156 0.0917398 0.05638273 0.4317834 0.2623531
-0.1326331 -0.09521068 -0.018217681 0.051970363 0.53789407 0.3051871 -0.29167446 0.14966397
-0.52841824 -0.20812564 0.2282173 0.15321626 0.08895923 0.29413667 -0.31859732 -0.047358446
-0.13660927 0.3648989 0.094400644 0.4063645 -0.30472127 0.2146195 -0.23210491 -0.19291548
-0.09356552 0.23374745 0.06471291 0.22936885 0.06264223 -0.06865346 0.27389786 0.21196304
0.0204745 -0.058231503 0.053878352 0.10679347 -0.06275897 0.2728272 -0.19900681 0.02765744
-0.55932397 -0.038641468 0.36190882 0.08767495 -0.061522417 -0.44709727 0.044042416 0.43114012
-0.05162025 0.01351295 0.08654326 -0.27449638 0.098842084 0.11885742 -0.07929112 0.21638203
-0.127462 -0.19988737 0.18834996 0.2695413 -0.28893977 -0.6325537 0.34816727 0.19760972
0.20892854 0.33110988 0.09988588 -0.4357315 0.07798014 0.12956583 -0.22877365 0.06311286
-0.1927441 -0.11660816 -0.11976715 -0.22222114 0.15046357 0.07256237 0.35324377 0.5237132
0.043420326 -0.37024146 -0.18284863 0.021267239 -0.07542405 -0.08388361 -0.24101138 -0.032870196
-0.19921546 0.27331194 0.00020615687 0.13633414 -0.20636213 -0.25856283 0.07705884 0.22495656
0.14108919 0.18426523 0.041702453 0.33361652 -0.027392207 -0.1288423 -0.29398945 -0.2405159
-0.29690522 0.07225305 0.074409544 0.057035998 -0.30565417 -0.0074507995 0.36366352 -0.06130606
-0.002979694 0.17804562 0.119180754 0.6137886 -0.083323926 -0.00023377976 0.022875557 0.15298112
0.039480515 -0.09778523 -0.38272592 -0.17569295 -0.07267356 0.015885262 0.3850739 0.007445046
0.16691044 0.12278152 0.03391814 0.2723651 0.009486596 0.34666947 -0.6558037 0.21967281
-0.122227415 -0.009603876 -0.06540925 0.14846756 0.6527866 -0.1633494 -0.018076308 0.10500008
0.0067404686 -0.06552118 0.03638176 -0.21375039 -0.010097965 -0.20241506 -0.5780315 0.48251563
-0.41587433 -0.06255877 0.22784536 -0.09761596 0.06802495 -0.04891509 0.19809097 0.29309836
-0.1064143 0.26322177 0.00823169 0.31885684 0.3259924 0.0062458226 -0.27311462 0.04414625
-0.30995545 0.17835723 -0.25062248 0.074109875 -0.11329881 -0.25365183 0.29950216 0.15247703
-0.102454565 -0.07663933 -0.10594423 0.17990041 0.24809194 0.14542156 -0.29643467 -0.29148406
-0.31400844 0.02506362 0.1671243 0.280526 0.1186815 -0.145454 0.0051312875 0.201484
-0.003479447 -0.0005189065 -0.04166805 -0.15938897 0.07045126 0.58330804 -0.46300867 0.05482643
-0.38281316 0.089749694 -0.28804007 0.14379947 -0.06381362 -0.08792955 0.14709328 0.08399042
-0.1421105 0.2335859 0.031635303 -0.04121363 0.028123202 0.33788535 -0.19281717 -0.12099052
-0.16316289 -0.13445994 -0.047473002 0.37246177 0.11494726 -0.52132857 0.12829924 0.063764274
-0.03112833 0.06330148 0.10778049 -0.028434843 0.1924888 0.45158803 -0.29347306 0.30841342
-0.12431375 -0.21683617 -0.0962775 0.14899416 -0.15127143 0.25613844 0.38430113 0.24816921
-0.2047519 0.5546829 0.06012636 -0.06958282 0.1994834 0.029575255 0.21165912 -0.16882135
