log/20231223_130200/best_loss.pth (torch, 53303 bytes, 38 tensors)

encoder.layers.0.self_attn.in_proj_weight f4 [48, 16]
000000 a5 e3 46 3f 97 29 52 3e 58 09 a4 3d a8 f1 6a 3e
       0.7769111 0.20523678 0.08009595 0.22943747
000010 a2 7b 3b bf 35 b5 fc bd 87 b7 e9 3b 25 8f 84 3d
       -0.73235524 -0.1233925 0.007132474 0.06472615
000020 9b 54 f0 3d 9f 72 9f be 2d da a5 3e 3b f4 75 be
       0.11734887 -0.31142136 0.32393017 -0.24018948
000030 de c6 16 3e 0a e7 9f 3e 08 b9 a1 3e d6 1e f8 3d
       0.147243 0.31230956 0.3158648 0.121152565
000040 95 cc 20 3f 65 1b de bd 2e 69 ce 3e 5e db 2d 3d
       0.6281217 -0.10845069 0.4031462 0.042445533
000050 d4 c2 8a bf a0 c3 41 be 1a 78 aa be de 87 e3 3e
       -1.0840707 -0.18922281 -0.33294755 0.44439596
000060 8a 46 45 3d 21 42 ac 3d 27 f5 a8 3e e0 87 4e 3d
       0.048162974 0.084110506 0.32999536 0.05042255
000070 7f 31 07 be a8 d6 92 3e 60 88 2f 3f d1 d7 12 3e
       -0.13202475 0.28679395 0.68567467 0.1434014
000080 d3 ab ba 3d 0a 78 8b 3d 8f 15 00 bf 7f a9 c7 bd
       0.09114804 0.06810005 -0.50032896 -0.09749126
000090 84 b0 62 bf 54 b1 f3 be 39 68 8d be b5 70 3a 3f
       -0.8855059 -0.47596228 -0.27618578 0.7282823
0000a0 fa 7f 68 bd fd 8c 86 be a6 ab 1a 3f 37 a2 19 bf
       -0.056762673 -0.2627944 0.60418165 -0.60013145
0000b0 1e 30 bd be 62 7a 1b 3e 07 22 2f 3e 2a 1d 4e 3f
       -0.36950773 0.15183404 0.17102824 0.8051325
0000c0 b1 4d 65 bf 0d 05 97 be 06 18 16 bf 93 0a 7d 3b
       -0.8957167 -0.2949604 -0.58630407 0.003861104
0000d0 44 77 98 3e 94 eb 29 bf f6 ff d7 bd f7 3e 45 3f
       0.29778492 -0.6637509 -0.105468675 0.770492
0000e0 27 57 ce 3d 96 c1 93 bd 7e 1c 17 3e 98 a1 19 bf
       0.10075217 -0.07214658 0.14756963 -0.600122
0000f0 65 53 82 3d 3c 34 02 bf 97 00 96 be 85 05 3a 3e
       0.063635625 -0.50860953 -0.29297325 0.18166168
000100 9d 92 1d 3f 7f ae 67 be 0e 3d 04 3f 7a 00 cf 3e
       0.6155184 -0.22625159 0.5165566 0.4043005
000110 95 d2 d5 be 25 bf 66 3e b8 46 ba bd b3 c4 59 be
       -0.41762224 0.22533853 -0.0909552 -0.21266441
000120 4a 4e 42 be 05 a7 9c be 98 b0 42 be ea 29 a9 be
       -0.18975177 -0.30596176 -0.19012678 -0.3303979
000130 1a 26 46 be 26 33 46 3f 41 da 18 3f 9d a2 69 be
       -0.19350472 0.77421796 0.5970803 -0.22815938
000140 13 56 f2 be 21 b5 ae be 61 f4 54 be 71 e2 fe bd
       -0.47331294 -0.34122565 -0.20796348 -0.12445534
000150 c8 02 95 be ef 99 99 be 87 80 e0 be c6 3d 17 3f
       -0.29103684 -0.30000255 -0.4384806 0.59078634
000160 ac 26 23 3e d1 4b c0 be 4d b9 ac 3e a3 7b f4 be
       0.15932721 -0.37557843 0.33735123 -0.47750577
000170 7c 36 ea 3c 09 45 08 bf 8b f3 20 be 25 47 55 3f
       0.028590433 -0.5323034 -0.15717904 0.8331168
000180 9f 76 be be 3a 22 27 3e 90 ea 7b bd 3e e3 c9 be
       -0.37199876 0.1632165 -0.061502993 -0.39431185
000190 08 5a 5c 3f 7d 98 27 3d 49 1b 95 bd 02 16 97 3d
       0.86074877 0.04091691 -0.07280595 0.073772445
0001a0 ba b2 6c 3b 4b 4a 5f 3f 1c 0a 9d be 64 ec 8b 3e
       0.0036117272 0.8722274 -0.30671775 0.2732879
0001b0 e4 a6 2b be 32 1a e0 bc c5 95 28 be af 9f da be
       -0.16762882 -0.02735624 -0.16463383 -0.42699954
0001c0 60 a2 86 3e 4b 2e 08 be c0 04 84 3e 60 56 47 3d
       0.26295757 -0.1329891 0.25784874 0.048666358
0001d0 6d c2 7b bf 3a 06 0f be 78 56 06 be 5d f9 52 bd
       -0.98343545 -0.13967219 -0.13118923 -0.051507343
0001e0 91 e7 9c 3b 5d 4c dd 3d ef d0 40 3f fd ed 18 3e
       0.004788347 0.10805581 0.7531881 0.14934535
0001f0 48 c1 b0 3d de c4 af 3e dd b4 ce 3e 31 8e c5 3d
       0.086306155 0.34329885 0.40372363 0.096462615
000200 91 77 9a be 72 b5 b9 3c d6 f8 5b be 22 6a 59 be
       -0.30169347 0.022669528 -0.21481642 -0.21231893
000210 c9 c0 a2 3f b2 b4 4e 3f 6b 5f 53 3e 73 dc 64 3f
       1.2715083 0.8074447 0.20641868 0.8939888
000220 0c c5 2c 3e 68 fb 1b be be d7 93 bf 33 c6 27 3f
       0.16872042 -0.15232623 -1.1550214 0.65536803
000230 2b 74 e9 be ba ee 80 be f7 d7 da be 0a a2 8c be
       -0.45596442 -0.25182134 -0.42742893 -0.27467376
000240 50 82 a1 3d f4 9c c4 bd 02 c5 b7 3e a4 4f 92 3c
       0.07886183 -0.09600249 0.35892493 0.017860241
000250 70 78 d0 bf 52 fc 31 bf 2c 1c 2c bd a5 cb a8 be
       -1.6286755 -0.69525635 -0.042019054 -0.32967868
000260 5e 14 e5 bd 0a ed 15 3e 27 0b 97 3f 22 cc f8 be
       -0.11185525 0.14641204 1.1800278 -0.4859324
000270 02 d0 72 3e 9a 95 8e 39 6a a9 c6 3e 2b 52 05 bd
       0.23712161 0.00027195812 0.38801128 -0.032549065
000280 6b 73 00 3f 70 ff 76 3d 5d 4f c3 3e af d4 b3 3e
       0.50176114 0.060302198 0.38146487 0.35123202
000290 35 a0 a8 bf 19 1e 7e bd 3a 65 ad bd c1 96 41 be
       -1.3173891 -0.062040422 -0.08466573 -0.18905164
0002a0 15 07 b0 bd 0f 17 b2 bd cb 76 2a 3f 52 4f a3 be
       -0.08595101 -0.08695804 0.66587514 -0.31896454
0002b0 e6 16 22 3e 67 20 96 3e 63 8e c7 3e 91 e0 05 be
       0.15829048 0.29321596 0.3897582 -0.13073947
0002c0 26 94 9a 3d ae 03 84 3e e2 da 63 3e d1 b8 b1 3d
       0.07547788 0.25784057 0.22251466 0.08677829
0002d0 88 a3 8b bf ec 4e 29 3f a7 94 0f 3f 75 98 09 bf
       -1.0909281 0.6613605 0.560862 -0.53748256
0002e0 e6 e1 32 be d1 3e 85 3d 52 5d 2e 3e 9c ca 85 be
       -0.17468986 0.06506122 0.17027786 -0.2613114
0002f0 89 f0 53 3e b6 6b 07 3f dc 9e 9d 3e a6 32 02 3d
       0.20697226 0.5289873 0.30785263 0.031786583
000300 42 f2 81 3d 91 0c 8f be fc 5a 05 3f 5e 78 dc 3d
       0.06345035 -0.27939275 0.52091956 0.10765146
000310 cb 4c e8 bf 78 25 95 bf 30 e1 a7 be 4a 1a fa bd
       -1.8148435 -1.165206 -0.32788992 -0.122120455
000320 ee f8 81 3a 9f 9e 73 be e6 d5 a4 3f 4f 05 01 bf
       0.0009916106 -0.23790978 1.2877777 -0.50398725
000330 31 9c 9f 3e 6e 5a 1c bd 40 a5 d6 3e 95 2e 2e bd
       0.31173852 -0.038172178 0.4192295 -0.042524893
000340 ba ab cb be 51 05 22 be c8 b9 0b bf 3f 0c dc be
       -0.39779454 -0.1582234 -0.54580355 -0.42978093
000350 31 12 c2 3f 73 4f 5e be cb 82 ec bd fc cb 0b 3f
       1.5161802 -0.21709995 -0.11548384 0.5460813
000360 10 3e a1 3e 2c 63 44 be 42 52 b6 be 05 6a f2 bd
       0.31492662 -0.19178456 -0.35609633 -0.11836628
000370 e9 87 4b be 40 34 31 bf fc 84 d9 be 6c 83 34 3e
       -0.19876064 -0.6922035 -0.42484272 0.17628258
000380 31 24 85 be 7f ab 0d be ae 7d be 3e bc fa 7f be
       -0.26004174 -0.13834952 0.3720526 -0.24997991
000390 47 d6 8b bf 4f 5b 77 bf db 39 b2 be 1c da 09 be
       -1.0924767 -0.966237 -0.34809765 -0.13462108
0003a0 3e c9 0c 3d c8 1f 98 3d c6 c6 91 3f a0 ed 53 bf
       0.034371607 0.07427937 1.1388786 -0.8278446
0003b0 0b 4a ef 3e 68 08 6d 3e 20 0f 97 3e 2e 80 65 3c
       0.46736178 0.23147738 0.29503727 0.014007611
0003c0 2d d1 21 bf c5 91 06 3e 85 28 94 be 19 0b 54 be
       -0.632098 0.13141544 -0.28937164 -0.20707358
0003d0 6a 73 8a 3f 50 8e 68 bc 2b 93 7e 3e b2 1c 00 3f
       1.0816472 -0.014194086 0.24860828 0.50043786
0003e0 d1 83 16 3e 25 8c f8 bd 79 46 18 bf 47 89 a8 bd
       0.14698721 -0.121361054 -0.5948253 -0.082293086
0003f0 fc 7a 1a be 49 43 2f bf 4a a8 19 bf a2 43 32 3e
       -0.15085977 -0.68462044 -0.60022414 0.17408612

encoder.layers.0.self_attn.in_proj_bias f4 [48]
000000 28 85 c8 be f7 fa 33 be f6 20 ce be c8 de ea 3d
       -0.3916409 -0.17576204 -0.40259522 0.114682734
000010 7a 07 1b bf 97 9f 7e bd e8 8c 32 3f b7 8c 39 3e
       -0.60558283 -0.062163915 0.69746256 0.18120085
000020 99 8d 0e 3e 99 b8 02 be 28 35 8c be 2c 15 06 bf
       0.13921203 -0.12765731 -0.27384305 -0.52376056
000030 d8 8b 75 be 5d 90 9f 3e 62 94 1b be bd 26 05 be
       -0.23979127 0.31164828 -0.15193322 -0.13003059
000040 d0 ce 84 ba eb 80 62 bb 5a 2f 05 3b 86 78 33 bb
       -0.0010132436 -0.0034561704 0.0020322413 -0.002738507
000050 39 25 36 ba 8a 3e bb bb 6b 7a 52 bb 50 ec 57 ba
       -0.00069482956 -0.0057142423 -0.0032116424 -0.00082368124
000060 79 03 04 3a f5 a0 ab ba 56 b2 93 bb d5 67 90 ba
       0.0005035918 -0.0013094234 -0.0045073433 -0.0011017272
000070 76 16 15 3a 77 25 26 3c ae ba cf bb ce f6 25 3b
       0.0005687246 0.010140768 -0.0063393926 0.002532411
000080 52 b1 b5 bd e5 40 6a bd 65 e4 aa bc 21 b6 02 be
       -0.08871712 -0.057190794 -0.02086086 -0.12764789
000090 96 c4 ab 3d aa 94 29 bb 12 00 92 bc fc f3 f6 ba
       0.08387105 -0.0025875964 -0.0178223 -0.0018841024
0000a0 43 4d ee bc e2 40 41 bd a7 7c 18 bc 09 9e 04 3e
       -0.029089576 -0.047181018 -0.009307063 0.1295091
0000b0 64 97 1f 3c c8 c5 3e be 40 db 68 bd 6f d1 62 bd
       0.009740684 -0.18630135 -0.056849718 -0.055375513

encoder.layers.0.self_attn.out_proj.weight f4 [16, 16]
000000 7b 51 41 bd d6 9b f5 bc 43 b7 06 3e c4 a4 30 be
       -0.047196846 -0.029981535 0.13155846 -0.17250353
000010 74 18 0c 3e b1 43 f5 bd 09 36 aa 3d fa 2e cf 3c
       0.13681203 -0.11975802 0.08311088 0.025290955
000020 a2 fd cf 3d f1 1c 08 bd 4c 5a 3e bd 42 3c 4e bc
       0.101557985 -0.033230726 -0.046472833 -0.012587609
000030 a4 a0 56 bd a9 aa 09 be bd e3 85 bd 9f 99 9f bd
       -0.052399293 -0.13444008 -0.06537578 -0.07792973
000040 58 51 9c be b7 3e fb 3c 3b 73 42 3e 4b 07 f1 bb
       -0.3053081 0.030669553 0.1898927 -0.0073556057
000050 02 0b 05 3d 0c 76 11 bd ac 34 36 be 27 05 29 be
       0.0324812 -0.03551297 -0.1779353 -0.16505872
000060 57 18 87 3c 80 0e da bd 0e a2 b6 bd 58 fa 41 3d
       0.016491098 -0.10647297 -0.08917628 0.047357887
000070 bd ca 20 3e 99 8a 61 be f0 4c 90 bc 63 27 14 be
       0.15702339 -0.22025527 -0.017614812 -0.1446815
000080 0e 8c 60 be 51 c7 8a 3d b1 88 20 3d e5 2a 40 be
       -0.21928427 0.06776298 0.03919286 -0.18766363
000090 0c 89 28 bc 97 f7 cf bc 39 0c 85 3c 95 27 46 3d
       -0.010286581 -0.025386615 0.01624118 0.048377592
0000a0 c5 09 a2 3d fa 57 0e bd 86 fd c9 3d 9d dd 31 3c
       0.0791202 -0.03475187 0.09862809 0.010856059
0000b0 0e 89 ae 3d ad a2 8a be d0 26 13 3c 62 ef 1f be
       0.08522235 -0.27077237 0.008981422 -0.15618661
0000c0 bd 49 15 be ce 91 86 3d cd 23 9e 3d 5d ca 09 be
       -0.1457891 0.06570779 0.07721672 -0.13456102
0000d0 f9 8b 79 3d a0 23 3d 3d e1 41 0b bc bc 62 72 3d
       0.060924504 0.046176553 -0.0084995935 0.05917619
0000e0 20 1f c5 bd d0 af 78 bd 2c d3 8e bc dc 0b ff 3d
       -0.09625077 -0.060714543 -0.017434679 0.12453434
0000f0 86 6c 4d bd e8 89 95 bd 78 a4 e7 bd c4 56 1d bd
       -0.050152324 -0.07301694 -0.11310667 -0.038412824
000100 de c2 06 bd d8 05 05 bd 14 fc 70 bd 63 11 19 be
       -0.032900684 -0.032476276 -0.05883415 -0.14948039
000110 a6 a1 25 bd 7a 6a e1 bc 80 1e 58 bb 49 87 c8 bd
       -0.040437363 -0.027516592 -0.0032977164 -0.097914286
000120 c4 5c 14 bd 88 42 11 bd bc 1d ee 3b 4c b2 1e 3d
       -0.03622128 -0.03546384 0.007266728 0.038744256
000130 97 ea 2b bd eb 7f 2f be 3a 15 86 bc e1 81 56 bd
       -0.04197177 -0.1713864 -0.016367543 -0.052369956
000140 96 15 35 be e7 07 ec 3c 91 12 6d 3e 60 77 39 bd
       -0.17684016 0.028812362 0.23151614 -0.04527986
000150 17 b0 2e bd 31 28 89 3b 01 cb 5e bd 48 37 cf 3d
       -0.0426484 0.0041856994 -0.05439282 0.10117966
000160 01 ba b9 bb 6f ff 24 bb 66 3c 65 3b 74 38 8c 3d
       -0.0056679253 -0.0025176664 0.0034978627 0.06846705
000170 5d 1a 29 bc e3 c1 fd bd c5 03 b0 bc c3 d9 ef bc
       -0.010321227 -0.123904966 -0.021486172 -0.029278642
000180 1d b5 33 be d3 d6 3b be f0 e5 20 3e 67 51 4f be
       -0.17549558 -0.18343668 0.15712714 -0.20245896
000190 6c 2e ea bd 0c 1a a7 3d e7 2a 24 be 22 fd be bb
       -0.114346355 0.08159265 -0.16031991 -0.0058285156
0001a0 9b 94 1c 3e f8 1c 4d be 5c b5 0b be 56 80 cb 3d
       0.15291063 -0.20030582 -0.13643402 0.099365875
0001b0 6f 1a 03 bd 1d 0d d4 be 04 be d6 3c 3d 4a 1d bd
       -0.03200763 -0.41416255 0.026213653 -0.038400877
0001c0 1a 5f 05 be 56 98 85 bd 1d 54 72 bb a3 f0 b0 be
       -0.1302456 -0.065231964 -0.0036976405 -0.3455859
0001d0 ef d4 a8 bd 78 14 94 3d e0 4f 12 3d 20 cb cb 3b
       -0.08243739 0.072304666 0.035720706 0.0062192827
0001e0 67 04 05 bd 5d 5f 87 bd f4 2e e3 3d 05 79 7b bc
       -0.0324749 -0.06609986 0.1109294 -0.0153486775
0001f0 eb 73 c1 bd f8 f2 d4 be 3b 83 c5 bd ae f4 2a 3d
       -0.09445938 -0.4159162 -0.09644171 0.04173725
000200 bc 1e a1 bc 74 59 cc bd 84 cd 3d bd 75 e0 fb bd
       -0.019667976 -0.09977999 -0.046338573 -0.12298671
000210 50 30 c6 bc 23 71 06 3d 63 46 b2 bd 61 de c0 be
       -0.02419296 0.03282274 -0.087048315 -0.37669662
000220 45 48 4a 3d 8a 6c 1b 3c 28 91 1b bd fa 63 a1 bc
       0.049385328 0.009486327 -0.03798023 -0.019700993
000230 cf a2 42 bd d0 e4 9f be 58 19 ab 3b 24 9c 01 3d
       -0.047518548 -0.31229258 0.005221527 0.031643048
000240 12 61 12 3c 07 95 b2 bd de 60 ba bd fa e9 95 bd
       0.008934276 -0.08719831 -0.09100507 -0.07320018
000250 11 84 9f 3d df 39 d0 3c d7 f6 99 bd d0 a5 c3 bc
       0.077888615 0.02541822 -0.07517784 -0.023882776
000260 55 67 a6 3d bc bb 1e bd 28 d2 51 3c 8f 3e 1c bd
       0.08125178 -0.038753256 0.012806453 -0.038145598
000270 da e5 aa 39 10 fd 3f bd 49 fc 1a 3d e8 b7 75 3c
       0.0003259618 -0.0468722 0.037838254 0.01499746
000280 89 27 fc 3c 34 09 c2 bc bd 72 f4 bc d9 c0 90 3c
       0.03078057 -0.023686029 -0.029839868 0.017670082
000290 57 bf 89 bc cd 07 cc 3c 54 d7 b6 bc 74 dc b7 bc
       -0.01681487 0.024906063 -0.022319473 -0.022443987
0002a0 35 a1 8c bb ca 6e 0a 3d b5 c5 6e 3c 08 eb a0 bc
       -0.0042916783 0.033797063 0.014573504 -0.019643322
0002b0 bc be d6 3b 33 25 8c 3d 40 53 ff bb fc f2 69 3c
       0.006553499 0.06843033 -0.0077919066 0.014279123
0002c0 53 b8 53 bd 80 77 e1 bb 6f 4a 9b bc dc ef d7 bc
       -0.051689457 -0.0068807006 -0.018956391 -0.026359491
0002d0 fa 3c a8 3c 8d ea 16 3c f4 ec 95 bc fc 2a fc bd
       0.020536888 0.009211195 -0.018301465 -0.12312886
0002e0 6b 66 ee bd 5e 78 b9 3a 6a 09 83 3c 68 5d 9a 3d
       -0.116406284 0.0014150252 0.0159957 0.07537347
0002f0 29 54 62 bd 7d 93 e7 bd 2d c8 c7 bd 41 a2 36 bb
       -0.055256043 -0.11307428 -0.097549774 -0.0027867707
000300 66 67 d5 bd 96 cc 62 ba ab 1b 09 3e 55 9d 57 be
       -0.10420112 -0.00086517015 0.1338946 -0.21056111
000310 4a 05 f3 bd 80 11 b6 3d 48 9f a2 bd cd 10 b7 3c
       -0.11866243 0.088900566 -0.07940537 0.022346878
000320 61 71 ff bb bc eb 6e 3c 83 a4 39 bd fe 02 87 3d
       -0.0077954982 0.014582571 -0.045322906 0.065923676
000330 a9 3f 9e 3d c7 34 51 be b4 c9 1e 3d e3 1a 54 be
       0.07726986 -0.20430289 0.038766578 -0.20713381
000340 3d c8 a3 3c 94 4d 68 bc 27 5c 3a be 8c 03 0c bc
       0.019992942 -0.014178652 -0.18199216 -0.0085457675
000350 f3 e6 87 bd 61 60 00 bb 91 6d a5 3d 09 91 bd 3d
       -0.06635847 -0.0019588696 0.08077539 0.09256179
000360 17 dd fa 3d 0b 36 41 bd d0 33 fb 3c cf 1a e0 bd
       0.12249201 -0.04717068 0.030664355 -0.10942613
000370 0e 04 6c bd 3c 32 78 3c a8 68 e5 3d b0 4d 9e 3d
       -0.057621054 0.015148696 0.11201602 0.077296615
000380 30 b6 54 be 48 b3 3e bb 06 dd e6 3d 4c bd 57 be
       -0.20772624 -0.002909856 0.112726256 -0.21068305
000390 ad 94 6a bd 66 4a b3 bd 60 53 b8 3c 4b 1f d2 bd
       -0.057270695 -0.08754425 0.022500694 -0.10259875
0003a0 04 4e 9d bd b0 2e 69 3d 18 f8 58 3d d7 2a ef 3c
       -0.07680896 0.05692929 0.052970976 0.029195232
0003b0 eb 3e 29 3e 0c ca bd be 42 a5 bc bd cc ad 88 3b
       0.16527908 -0.37068212 -0.09211208 0.004171109
0003c0 e1 9c 10 be 44 98 4b 3d c4 db 85 3e a3 d9 90 bd
       -0.14122345 0.04970576 0.2614423 -0.07072761
0003d0 19 ac 72 be 63 53 1c be 3b c5 8d 3d 66 68 30 bd
       -0.23698463 -0.15266185 0.06922384 -0.043068312
0003e0 ca fd e8 3b b7 9a 91 bd 61 a0 84 bd 8f 45 fc 3d
       0.007110332 -0.07109588 -0.06475902 0.12317955
0003f0 ea d8 c5 bb db ef 2a be a4 3d ee 3d 43 10 62 bc
       -0.006037821 -0.1669306 0.11632851 -0.013797822

encoder.layers.0.self_attn.out_proj.bias f4 [16]
000000 82 98 0a 3e dc e4 90 3e 7c c8 75 3e f6 55 50 3e
       0.1353474 0.28299606 0.2400226 0.20345291
000010 51 ca 31 3d c6 87 0b 3e 69 19 53 3e db 75 2b 3e
       0.043405835 0.13626012 0.20615162 0.16744177
000020 93 e1 68 3d 60 91 63 bd 65 95 b0 bc 88 f1 91 bb
       0.05685575 -0.055558562 -0.021555612 -0.0044538416
000030 35 c4 9a 3e ec cb 62 be c4 b2 11 3e c8 51 73 3e
       0.3022782 -0.22148103 0.1422835 0.23761666

encoder.layers.0.linear1.weight f4 [64, 16]
000000 fb 72 0b bf 6d 97 e7 3e 82 8a cb 3d 2d 51 70 be
       -0.5447232 0.45232716 0.09938528 -0.23468466
000010 ee e0 56 bd d2 e8 77 3e 1b 07 db 3d 6a f3 8f 3e
       -0.052460603 0.24209908 0.10694715 0.28115398
000020 df 02 8a 3d 54 c1 2a 3d ba 4f 94 bc 42 62 55 3e
       0.06738829 0.04168828 -0.018104423 0.20838264
000030 e8 50 8b bd b1 de f1 3d b8 e1 d6 be 6c 94 96 bd
       -0.06802541 0.11810053 -0.41969085 -0.07352528
000040 be 3e cd be df 72 b2 bd 3f 4f 5e bd c0 b7 7b be
       -0.4008693 -0.08713316 -0.054274794 -0.24581814
000050 6a 58 88 3e b3 9d 40 3d c0 80 7b bd 25 09 b2 3e
       0.26629955 0.047025394 -0.061402082 0.34772602
000060 cf bd 82 be c3 44 b2 bc 79 78 e5 bd 39 63 d2 3e
       -0.25535437 -0.021761304 -0.11204619 0.41091326
000070 74 3f 91 be b7 0b 89 3e ef a9 fa be 4e d9 30 3d
       -0.28368723 0.2676675 -0.48957774 0.043175988
000080 44 0d 20 bf cc cc 5e 3e 42 cc 0d 3f 64 03 6f 3b
       -0.6252024 0.21757811 0.553898 0.0036470527
000090 cd bb 8a be 0c 01 ec bd 30 da 2e 3e 05 48 c2 3e
       -0.27096406 -0.11523637 0.1707542 0.37945572
0000a0 01 c1 67 3d 6b e9 31 bd 12 78 a6 3d bb e8 31 bd
       0.056580547 -0.043435495 0.0812837 -0.04343484
0000b0 6b fe 83 bd 7e 61 81 3d 2b aa dd bd 82 f3 a7 3d
       -0.06445011 0.06317423 -0.108234726 0.08200742
0000c0 e1 75 d4 be aa b3 99 bd c7 b5 94 bc ab 4d 21 be
       -0.41496184 -0.07504971 -0.018153084 -0.15752284
0000d0 65 47 36 be 5c 81 a7 3d a8 a3 0f 3e 26 ed 21 3e
       -0.17800672 0.0817897 0.14027274 0.15813121
0000e0 b6 8a 6f be fc d4 5d 3d 78 1e 0f bc eb 42 8d be
       -0.23392758 0.054158196 -0.008735292 -0.27590117
0000f0 e4 9e 13 be 20 c1 15 3f 3f 35 21 bc c0 e7 f1 3b
       -0.1441608 0.5849781 -0.009839355 0.007382363
000100 ac 8b 2d be 35 5b 9d be 8b 70 8c 3d 24 df 23 be
       -0.16947812 -0.30733648 0.06857403 -0.1600309
000110 fb ac e2 bd f8 55 bc bd aa 44 92 3c e7 0e 32 3e
       -0.1106815 -0.09196085 0.017855007 0.17388497
000120 41 2b 99 3d 63 4c 56 3b 11 f7 8a 3d 4a a7 64 3d
       0.07478953 0.0032699339 0.067854054 0.0558236
000130 ce 68 9a be aa 8c 0a 3d 9c 84 e4 be 1f 50 20 3c
       -0.30158085 0.033825554 -0.44632423 0.009784727
000140 93 31 68 be fd 6d e8 bc c9 c8 43 3d 90 07 03 3e
       -0.22675161 -0.028372759 0.047798906 0.12795854
000150 35 15 52 3e c2 4c 6f 3c 13 50 4c 3c 4d 67 17 3e
       0.20515902 0.014605703 0.012470263 0.147855
000160 fd 25 78 3d 2b 00 aa be 75 e4 c2 3d 1c bf 4a bc
       0.060583103 -0.33203253 0.09516231 -0.012374666
000170 91 12 b1 be d3 ad 8f 3e f0 f2 a9 be 3b 39 4d 3e
       -0.34584478 0.28062305 -0.3319316 0.20041363
000180 a8 24 3f be 19 61 a1 be 1e 7d 2b 3e 43 0e ce be
       -0.18666327 -0.31519392 0.16746947 -0.40245256
000190 56 0b 56 bd 5f 26 ad be 59 37 96 3e 30 8d 39 3e
       -0.052256905 -0.33818337 0.29339102 0.18120265
0001a0 f8 f6 61 3c f4 15 f0 bc a7 10 89 3e de 0f de 3e
       0.013791792 -0.029307343 0.26770517 0.4337148
0001b0 d4 75 f4 be d8 5d 13 be 58 37 30 be 85 3b 53 be
       -0.47746146 -0.14391267 -0.17208612 -0.20628174
0001c0 f5 7a 9e be 4e 6d da 3d 5e 2e a7 3e 2f 59 ca 3c
       -0.30953184 0.106653795 0.32652563 0.02470073
0001d0 ef fb 02 3d ab dc 8e 3e 31 c4 9f ba a6 d8 3a bd
       0.031978544 0.2790273 -0.0012189207 -0.04561677
0001e0 49 6e bb bc 3f 92 c9 3d af f9 ef 3c 36 5f 71 3e
       -0.022879736 0.09842347 0.029293863 0.23571476
0001f0 df 29 80 be 67 b8 0a 3f 1d e2 e8 bd 3d 44 aa 3e
       -0.25031945 0.54187626 -0.11371253 0.33255187
000200 59 6c 66 be 71 c2 a3 3d f9 50 cf 3d 15 92 8b be
       -0.22502269 0.07996071 0.10122866 -0.2725989
000210 3f 23 2a be 94 f8 6a 3d 1e 8e e6 bc dd a6 8a 3e
       -0.16615008 0.05736597 -0.028143939 0.27080432
000220 0e cf 3b 3e 8e ed 20 be 73 4d 86 3c 08 5f a5 3e
       0.18340704 -0.1571562 0.016394353 0.32299066
000230 84 2c fd bd ea 70 b8 3e dc be d0 be ad d7 7c 3e
       -0.12362006 0.36023647 -0.40770614 0.24691649
000240 54 56 7b be dd c9 32 3d 2e d6 c7 3d 90 0b 39 bc
       -0.2454465 0.043649543 0.097576484 -0.011294261
000250 94 11 bf 3e 9f 4c 24 bd 65 8f 16 be de bb e2 3e
       0.373181 -0.040112134 -0.14703138 0.44283956
000260 06 27 42 3b 5a cd 92 3d e1 bb 63 3d 43 25 14 3f
       0.002962531 0.07168074 0.055599097 0.57869357
000270 d6 8d df bd 36 b8 66 be 6d 06 b0 be ee 9a ce bd
       -0.10915725 -0.22531208 -0.34379902 -0.10088144
000280 9b 61 ca bd 86 70 ef bd 01 dd 13 3e 2e 75 42 be
       -0.09881898 -0.11691384 0.14439775 -0.18990013
000290 8f 0f 99 3e 1a 7e 1e bd 15 d0 9a 3e bf 42 61 bd
       0.29894683 -0.03869448 0.3023688 -0.054995295
0002a0 a5 90 93 bc 45 aa cb bd 94 49 aa be df 98 5a 3e
       -0.018013308 -0.09944586 -0.3325926 0.21347378
0002b0 cd 0b 99 3d 12 dd 22 3e 72 5d 9f be 3e b5 3c 3e
       0.07472954 0.15904644 -0.3112598 0.18428513
0002c0 a5 b9 f3 be 33 c4 66 3d 58 f0 95 be 6d 60 ce bd
       -0.47602573 0.056339454 -0.2928493 -0.100769855
0002d0 32 95 5b bd ae 15 de be 33 5e b9 3c f8 2c de 3d
       -0.05360908 -0.43375915 0.022627926 0.10848421
0002e0 59 bb a8 bd 99 16 1b 3e 57 4d 16 be b7 7e c0 bd
       -0.08238859 0.15145339 -0.1467794 -0.09399169
0002f0 a8 17 73 be 2f e3 9c 3e 0a 75 61 be 9d 7f 3d be
       -0.23739493 0.30642077 -0.22017303 -0.18505712
000300 15 dd b3 be f1 9c 8d bd e1 8e 8a 3d 49 d5 20 be
       -0.3512961 -0.069147 0.06765533 -0.15706362
000310 c1 98 c9 3d 82 a3 c7 3b 44 f5 56 3d 48 d2 40 3a
       0.098435886 0.0060924897 0.052479997 0.0007355553
000320 1d cd 9d 3c 40 c3 92 3d 44 71 8a bd 9b 48 8a 3d
       0.019262845 0.07166147 -0.06759885 0.0675213
000330 94 cd 9b bd 1c 23 41 3e e7 0a e0 be c2 57 11 3e
       -0.0760757 0.1886105 -0.43758318 0.14193633
000340 32 60 5c be bf 8f 37 3e 47 b1 ac bb 4a f8 b7 be
       -0.2152107 0.17925929 -0.0052701565 -0.35931617
000350 11 5b 76 bd 32 b6 92 3e de 0a d6 3b 43 04 f7 3d
       -0.06014544 0.2865463 0.006532057 0.1206136
000360 f7 ac 5b be 81 61 c2 bd 92 2e 8c be 05 1a 79 bc
       -0.214527 -0.09491254 -0.2737928 -0.015203957
000370 d0 ca af be 1b e8 39 3e e7 79 a2 be 67 ad 6c 3e
       -0.3433442 0.18154947 -0.3173363 0.23113023
000380 b9 d5 77 be 9f 7b 55 be 00 7d 0e be 99 cd 89 be
       -0.24202622 -0.20847939 -0.13914871 -0.2691467
000390 0b b8 05 3e be d2 73 be e9 63 a7 3e 95 bf b4 3e
       0.13058488 -0.2381086 0.32693413 0.35302415
0003a0 20 8a 1d bb b8 7a c4 bd ff 69 0d be 06 a1 a4 3d
       -0.0024038628 -0.09593719 -0.13809966 0.08038525
0003b0 b9 89 12 be 88 d7 11 3f 75 d2 6b 3b 07 3c 79 3c
       -0.1431035 0.569695 0.0035983596 0.015212066
0003c0 96 ab a0 be 90 84 0a be b6 e0 40 3e 8a 37 ab be
       -0.3138091 -0.13527131 0.1883572 -0.3344081
0003d0 12 a1 81 bd ff 54 0c bf 17 22 2a 3e 3b 2c 90 3d
       -0.0632955 -0.54817194 0.16614567 0.07039686
0003e0 19 69 c6 3e 24 83 82 3d c2 ed 94 3e be a4 1c 3e
       0.38752058 0.06372669 0.29087645 0.15297219
0003f0 b3 cc aa be e9 36 cb 3e 64 95 34 be 92 12 37 3d
       -0.33359298 0.3969033 -0.17635113 0.044695444

encoder.layers.0.linear1.bias f4 [64]
000000 de ad 6c be a5 11 e3 be fc ab 08 bf 54 7b 97 be
       -0.231132 -0.443494 -0.5338743 -0.2958628
000010 af 0f ef be 53 37 1b bf ff 7c 04 bf c1 1f d8 be
       -0.46691653 -0.60631293 -0.5175323 -0.42211726
000020 b3 10 34 bf f0 51 b8 be 8d a6 b8 be cd 84 96 be
       -0.7033798 -0.36000013 -0.36064568 -0.29398194
000030 1f ea ac be 81 aa 5d be 04 68 92 be 20 56 8a be
       -0.3377237 -0.21647073 -0.28594983 -0.27018833
000040 75 e2 12 bf de df cb be 83 31 bd be 2d 6a c9 bd
       -0.57376796 -0.39819235 -0.36951837 -0.098347045
000050 10 38 b9 be 45 7f ec be 9f 3f fb be 9d 8e 69 be
       -0.36175585 -0.4619085 -0.49071977 -0.22808309
000060 38 2c 62 be 06 6a ee be 76 42 e5 be a5 78 ab be
       -0.2208718 -0.46565264 -0.44777268 -0.33490482
000070 ee f9 f1 be 12 f4 23 bf 19 d0 97 be 57 82 e8 be
       -0.47260994 -0.64044297 -0.29650953 -0.4541194
000080 e9 56 ba be 89 fb 12 bf 97 60 f5 be 5c 53 ba be
       -0.36394432 -0.5741506 -0.47925255 -0.36391723
000090 38 85 c9 be 33 6d 63 be 6a de 97 be fe 99 d5 be
       -0.3935945 -0.22209625 -0.29661876 -0.4171905
0000a0 3d 2b 74 be 30 1f 13 bf b8 8a 08 bf 08 92 c7 be
       -0.23844619 -0.57469463 -0.5333667 -0.389786
0000b0 76 36 5b be 90 0b 5c be 12 49 0d bf b8 b3 9a be
       -0.21407494 -0.21488786 -0.5518962 -0.3021524
0000c0 05 84 d8 be 91 5b 41 be ee e9 99 be 31 cf cc be
       -0.42288223 -0.18882586 -0.30061287 -0.40001824
0000d0 27 cd a2 be 7d 2e a9 be d6 5d 00 bf 92 42 9b be
       -0.31797144 -0.3304328 -0.5014318 -0.30324227
0000e0 b0 5f 1e bf 9e 8f ee be 45 03 b3 be 6b fa bc be
       -0.6186476 -0.46593946 -0.34963432 -0.36909804
0000f0 55 de 1e be ed cf b7 be de dd c8 be 38 42 ed be
       -0.155145 -0.35900822 -0.3923177 -0.46339583

encoder.layers.0.linear2.weight f4 [16, 64]
000000 24 e0 31 3e 7d b4 38 be a7 13 63 3e 32 13 30 3e
       0.17370659 -0.18037601 0.22175466 0.17194822
000010 98 1e 79 bd dd 40 fd bc 37 32 f4 3d 58 9a 73 be
       -0.060820192 -0.030914718 0.1192364 -0.23789346
000020 16 49 54 bd 99 c3 bd bd 5e 14 d3 3c 16 ce bc be
       -0.051827513 -0.09265823 0.025766548 -0.3687598
000030 fe d1 74 3c 9e d4 38 bd dc 1c 17 be 8d c4 20 3e
       0.014942644 -0.045124643 -0.14757103 0.15699978
000040 8e 66 1e bc ee b5 36 be 53 f6 bc 3e 79 17 37 3e
       -0.009668006 -0.17842838 0.3690668 0.17880048
000050 29 a5 32 3e 88 ce 67 3d a8 fd d5 bc b6 45 81 be
       0.17445816 0.056593448 -0.02612193 -0.25248498
000060 cd 0e 34 be 7d 58 3e bd 49 20 25 bd b7 f8 5b 3e
       -0.17583771 -0.046471108 -0.040313993 0.21481596
000070 c2 56 0e be 96 41 ab 3d a2 bc 95 3d ea de d9 3b
       -0.13900283 0.08362119 0.073113695 0.006648888
000080 ab 31 82 be 78 e3 21 3d 3e c7 36 3d 58 a2 be bd
       -0.2542852 0.03952357 0.044623606 -0.09308308
000090 9a 41 4f 3e f4 1c c4 bd 61 0b 0d 3f fb b4 50 3e
       0.20239869 -0.09575835 0.5509549 0.20381539
0000a0 e0 ec 91 3d 5b f9 ab bd 36 b0 a0 be 61 06 86 bd
       0.071252584 -0.0839717 -0.31384438 -0.065441854
0000b0 ef 1a a5 bd 1d aa 98 3e 5d 31 0f 3d 98 98 11 3e
       -0.08061778 0.29817286 0.034959186 0.14218366
0000c0 50 56 e5 3c cc 60 c9 bc df 47 ab 3e 98 54 13 3e
       0.027995259 -0.02458229 0.3345327 0.14387739
0000d0 ae d5 1c be 13 34 d2 3e f3 d0 b6 bc 8c 61 fd 3d
       -0.15315887 0.41055354 -0.022316432 0.12372121
0000e0 fe 5d 6f 3e 38 ca 36 be 17 b6 9d 3e b1 2b 29 3e
       0.23375699 -0.17850578 0.30802986 0.16520573
0000f0 68 52 90 3e 70 7f 0a 3e e4 60 0e be 61 53 58 be
       0.2818787 0.13525176 -0.13904148 -0.21125557
000100 fb 81 b0 3d 31 d2 cf 3d 6f bb 3a 3e 47 d3 35 be
       0.08618542 0.10147513 0.18235563 -0.17756377
000110 a9 fe cd 3d 0c 12 3e 3e 69 03 10 be d8 db 71 be
       0.10058338 0.18561572 -0.14063801 -0.2361902
000120 74 36 9b bc db 67 9f 3e 98 94 5b bd 5a 3f 85 bc
       -0.018946864 0.31133923 -0.053608507 -0.01626556
000130 e6 0b 2c bd 9d fe 1d 3e 65 4d 11 be d2 eb ff be
       -0.042003535 0.15429159 -0.1418968 -0.49984604
000140 bc 1c e5 be bc d4 61 3e 6f 32 87 bd 5c b0 f8 bd
       -0.44748485 0.22053808 -0.06601416 -0.12143013
000150 80 5f 4f be 87 d9 bf bd 75 e0 b3 bd 52 ed e8 3a
       -0.20251274 -0.09367662 -0.08783046 0.0017770922
000160 51 6a 6a 3e 23 e4 d4 3c 55 0d 91 3e bd 2a 90 3e
       0.22892119 0.02598769 0.28330484 0.28157607
000170 2c 2f 8b 3d 55 2c 10 3e 69 a3 d4 bc 30 25 80 3e
       0.06796107 0.14079411 -0.025956826 0.25028372
000180 eb 90 85 3d a1 9e 92 bc 89 22 a7 bc e2 62 aa 3e
       0.065217815 -0.017897906 -0.02040221 0.33278567
000190 ab d9 f5 3d ab c5 56 3d d5 9e 8c 3e 5d a2 c7 3d
       0.120044075 0.052434605 0.2746493 0.09747765
0001a0 f0 66 3d be ce 3d 0e bd 67 ed 88 be 84 28 a1 3e
       -0.18496299 -0.03472691 -0.26743624 0.31476223
0001b0 be 3f dd bd 47 c3 6e 3c d5 21 9d 3e 42 27 41 3d
       -0.108031735 0.014572925 0.30689874 0.04715658
0001c0 57 05 bb 3d 13 c2 86 3e f7 5d aa be 89 bd 91 3e
       0.09131878 0.26319942 -0.33274814 0.28464916
0001d0 df 27 3d 3e 94 3f 32 bc 88 bf 30 3e 44 97 2a bd
       0.18472241 -0.010879416 0.17260563 -0.041648164
0001e0 d4 ba 50 3e 1c 95 8a bd f5 c4 98 ba 33 5f 93 3e
       0.2038377 -0.067667216 -0.0011655377 0.2878357
0001f0 5d 14 ca 3e c8 38 9c 3e 08 53 67 3e ee be d5 3c
       0.3946866 0.3051207 0.22590268 0.026092019
000200 e8 13 b4 be 88 b7 62 3c 88 8c 13 be b7 90 5d 3d
       -0.35171437 0.013837703 -0.14409077 0.05409309
000210 91 5a b7 3d fe b6 e3 3d ec 5f c9 3e d4 81 5f be
       0.08952821 0.11118887 0.39330995 -0.21826869
000220 c6 a4 95 bc d9 68 87 3e a5 5a 15 3f a8 08 83 be
       -0.018267047 0.2644718 0.5834144 -0.25592542
000230 82 b4 89 3c 59 2f 8c 3e 4a 30 bc bc 72 ac 96 3e
       0.016809706 0.27379873 -0.022972245 0.2942844
000240 10 ba 7e 3e 96 22 18 3e 7f 19 08 3e 80 4e 8f 3e
       0.24875665 0.14856943 0.13290976 0.27989578
000250 80 00 51 3d f3 3c cb 3d a7 f0 3b be 83 29 03 3e
       0.051025867 0.099237345 -0.1835352 0.12808804
000260 5d 4c 73 be 8c 3b 54 3e 3c f9 55 3e 49 5f 95 bd
       -0.23759599 0.2072584 0.20895857 -0.07293565
000270 8e f8 67 3e 64 ed 9d 3d e6 97 0a be 67 c5 7a be
       0.2265341 0.07711294 -0.13534507 -0.24489366
000280 af ce d0 bd df a8 a0 3d f3 eb 71 bd 7a e7 87 3e
       -0.10195672 0.078447096 -0.05906291 0.2654379
000290 15 44 d2 3d e4 23 55 3e 75 66 2d 3e 4f 37 98 bd
       0.10266892 0.20814472 0.16933616 -0.07432424
0002a0 ce 05 c3 bd 55 69 8a 3e 73 8a a1 bd 42 35 d0 3d
       -0.095225915 0.27033487 -0.07887735 0.10166408
0002b0 37 c7 7a 3e d0 26 46 3e 22 10 29 3e 40 cd a6 bd
       0.24490057 0.19350743 0.1651006 -0.08144617
0002c0 9b 6c 86 bd 91 f9 b7 bd 5e 6a 55 3e f0 8c 8c 3e
       -0.065636836 -0.08983148 0.20841357 0.27451277
0002d0 04 28 83 3d 37 a6 a5 3e 8d 0e ba bc 59 05 6f 3e
       0.06404117 0.32353374 -0.022712016 0.23341884
0002e0 2e 91 2b 3d d1 9b a1 3d ff 3b e6 3e 64 41 9f 3e
       0.0418865 0.07891048 0.44967648 0.31104577
0002f0 83 0f fc 3e 5a 97 93 3d 5b ca ec 3d 11 26 de 3d
       0.49230585 0.072066024 0.11562034 0.10847104
000300 10 7d 61 be 3b 0a 8a 3e f6 e2 67 3e 82 b0 70 be
       -0.22020364 0.2696093 0.22645172 -0.23504832
000310 10 4f 65 3b 24 ca e9 bc d6 15 ff 3e e7 04 aa bd
       0.0034989752 -0.028538771 0.49821347 -0.08301716
000320 bf 06 19 be d5 aa 8d 3e 91 e1 0c be d3 60 13 3e
       -0.1494398 0.27669397 -0.13757922 0.14392404
000330 ab 9e 23 3d 14 53 81 3e fc b6 52 3d 9e 7d 87 be
       0.03994624 0.25258696 0.05144404 -0.26463026
000340 c5 a5 ea be 39 a9 d6 be 46 af 93 bc d4 2c 21 bd
       -0.45829597 -0.41925982 -0.018027913 -0.039349392
000350 6e 55 91 3d 39 47 52 be 5b 39 85 3d ef 02 a0 be
       0.070963725 -0.20534982 0.0650508 -0.31252238
000360 84 db 8d be 9a 01 12 bd 37 a3 46 be bc 5a 2e be
       -0.2770654 -0.03564606 -0.19398199 -0.170268
000370 a0 7c 20 3e e1 54 6e bc 1d 9b a5 bd 56 2c 6a 3d
       0.1567254 -0.014546604 -0.08086226 0.05717119
000380 c8 51 89 bb f0 2b 01 3d 88 61 3a 3b d7 56 c2 be
       -0.0041906573 0.031536043 0.002843948 -0.3795688
000390 92 05 a5 3e 58 61 a6 be d9 4a 59 3e be 26 c4 be
       0.32230812 -0.32496142 0.21219958 -0.38310808
0003a0 4c 28 d7 bd 52 40 44 bd b4 62 a6 bd 7d b2 ce bb
       -0.10505733 -0.047912903 -0.08124295 -0.0063078986
0003b0 29 4e b2 3b 9c 26 63 3e 97 9c 0f 3d 33 57 87 bc
       0.0054414463 0.22182697 0.035061445 -0.016521072
0003c0 52 65 51 3d 41 59 d9 bd 45 89 d5 3d d6 49 04 3f
       0.051122017 -0.10612727 0.10426573 0.51675165
0003d0 f5 0d 19 3d b4 97 2e 3f b4 50 36 be b2 ad 84 be
       0.037366826 0.6820023 -0.17804223 -0.2591377
0003e0 e3 10 ec be 1c fd e9 3e 86 b5 28 3e 48 96 d7 3e
       -0.46106634 0.4570092 0.16475496 0.42106843
0003f0 48 0a e4 3e 12 b2 21 be a7 7a 58 be 23 01 f4 bd
       0.44539094 -0.15790585 -0.21140538 -0.11914279

encoder.layers.0.linear2.bias f4 [16]
000000 93 22 b1 3b fc 47 19 bc 08 78 62 bd fe d5 80 bd
       0.005405733 -0.009355541 -0.055290252 -0.06290816
000010 45 07 f4 bb 6f 2c 37 bd 2e c3 1a 3c 78 6f b2 3d
       -0.0074471557 -0.04472011 0.0094459485 0.08712667
000020 c0 f6 68 3b 1e 9d 0b 3d 41 71 2b 3c e9 c5 a5 3d
       0.0035547465 0.034085386 0.010464014 0.08094389
000030 cc 28 8f bd 0a aa 27 bd 0b cd 9c bd 3f 48 2f bd
       -0.06990203 -0.040933646 -0.07656296 -0.04279351

encoder.layers.0.norm1.weight f4 [16]
000000 9d 03 e7 3e ec 3e 0b 3f bc 62 0a 3f c7 dc 2c 3f
       0.45119944 0.54392886 0.54056907 0.6752438
000010 cf 72 9e 3f 91 05 46 3f a2 02 0e 3a 35 ad 04 3f
       1.2378787 0.77352244 0.00054172624 0.5182679
000020 bb a7 70 3e 79 37 b0 3f 00 17 19 40 f8 4a 94 3f
       0.23501484 1.3766929 2.3920288 1.1585379
000030 19 70 35 3f b5 18 9d 3f b9 73 3e 3e 3e b0 14 3f
       0.7087417 1.2273165 0.18598832 0.58081424

encoder.layers.0.norm1.bias f4 [16]
000000 70 f4 56 3f 3f 45 53 3c e3 e3 7a be c8 57 e4 3d
       0.8396673 0.0128949275 -0.24500994 0.111495554
000010 e9 07 a5 3d 7b 4e 83 3d e3 03 da bd e1 f7 04 bf
       0.08058149 0.06411453 -0.106452726 -0.51940733
000020 c4 4f 02 3e 70 b8 a7 3e 1a fe 0c be aa 86 c4 be
       0.1272574 0.32757902 -0.13768807 -0.3838399
000030 49 3a ba 3e ee e3 09 bf ca 4b 5e 3f 9f 1b 49 3d
       0.36372593 -0.5386342 0.86834395 0.049098607

encoder.layers.0.norm2.weight f4 [16]
000000 aa 35 1e 3f 0a bb 16 3f 10 3b 67 3f 15 ac 21 3f
       0.61800635 0.5887915 0.903245 0.631532
000010 26 b7 af 3f da 40 69 3f a6 69 75 3e cd 45 b9 3e
       1.3727767 0.9111458 0.23966083 0.36186066
000020 17 5f 77 3f f4 8b bf 3f 29 62 d9 3f 58 d4 55 3f
       0.9662947 1.4964585 1.6983081 0.83527136
000030 ba 55 ed 3e 10 40 5a 3f 67 8e 2e 3f 3f ef b0 3e
       0.46354467 0.85254 0.6818604 0.3455753

encoder.layers.0.norm2.bias f4 [16]
000000 cd 73 5d 3f 76 ae 00 3e 7e 6b 2f 3e 91 9b b7 3d
       0.8650482 0.12566552 0.17130849 0.08965219
000010 9d 71 48 3e 6f ff de 3d b3 68 8b bd 4c df 99 3d
       0.1957459 0.10888564 -0.06807079 0.075132936
000020 b5 e5 69 be e9 87 4d bf 8e a8 8d be da c1 8f 3e
       -0.22841533 -0.8028551 -0.2766766 0.28077585
000030 c6 e3 06 be 2d 97 6b 3d ff 0f 3a 3e 08 00 4d 3d
       -0.13172826 0.05751722 0.18170165 0.050048858

encoder.layers.1.self_attn.in_proj_weight f4 [48, 16]
000000 f1 be 24 3e c9 f3 93 be 04 09 90 bd ad 9c 33 3e
       0.16088463 -0.2889693 -0.070329696 0.17540236
000010 a0 6b 8d be 78 74 58 be 94 66 c8 3e 23 07 d8 3d
       -0.27621174 -0.2113818 0.3914076 0.10548236
000020 71 91 14 3e 95 fb f8 3d e6 b1 92 be ea d3 04 be
       0.14508606 0.121573605 -0.2865135 -0.12971464
000030 41 04 15 3f 9c 87 c0 bd 62 1f fa bd 52 91 7c 3d
       0.58209616 -0.094008654 -0.12213017 0.061662026
000040 cc 7a 73 3e 6b c5 f5 be 0a d1 55 bc e5 ce 3c 3c
       0.23777312 -0.4800218 -0.013050327 0.011523937
000050 34 d3 a3 bd d4 2e b2 3d 7c 34 6f be de 07 82 3e
       -0.07999268 0.08700338 -0.23359865 0.25396627
000060 ac a9 3f 3e 74 f3 2d be c2 d2 f4 3d ae cc 53 3e
       0.18717068 -0.16987401 0.11954261 0.20683548
000070 16 fd 20 bf 2c ce a8 3d ca 21 de 3d 5c ed e9 bd
       -0.6288618 0.08242449 0.108462885 -0.11422226
000080 9e ae a1 be 70 f5 a8 3d 8c c4 c4 bd 82 08 05 be
       -0.31578535 0.082499385 -0.09607801 -0.12991527
000090 62 33 10 3e f0 d9 48 be 9d 73 df 3d 57 aa 1c 3e
       0.14082101 -0.19614387 0.10910723 0.15299354
0000a0 11 51 0e 3e ca c5 0d 3e b3 4f c9 3e fa 52 da be
       0.13898112 0.13844982 0.39318618 -0.4264143
0000b0 71 9d b8 bd a5 76 9a 3c a8 8c 9c bd 4d eb 14 be
       -0.090144046 0.018855402 -0.076440156 -0.14542885
0000c0 fa 14 c3 bd ee 18 c6 bd 57 37 61 3a d8 d8 0b 3e
       -0.09525485 -0.09672724 0.0008591315 0.13656938
0000d0 6c 27 c9 3d 2a 65 e3 bd 8f b2 e1 bd 4b dc 23 3d
       0.09821972 -0.1110328 -0.110203855 0.04000501
0000e0 74 86 c0 3d a6 82 15 3e 1a f5 50 be c8 e5 16 3d
       0.09400645 0.1460062 -0.20405999 0.03684023
0000f0 03 3f 43 3e 70 36 28 bd e2 98 9f 3e 40 0b b4 bd
       0.19067006 -0.04106754 0.31171328 -0.08791208
000100 4e 04 10 be 8d f6 ad 3e df 8f ab 3c 33 3d 8b 3e
       -0.14064142 0.33977166 0.020942627 0.2719513
000110 4d 57 24 3e dc 4b eb 3d c1 4d f3 be d1 4c 52 3e
       0.16048928 0.114890784 -0.4752026 0.20537116
000120 dd 2e 44 be 50 f6 1a be 38 3d 2f 3e 59 41 b0 be
       -0.19158502 -0.15133023 0.17113197 -0.34424856
000130 43 40 73 bd ba 6e 40 3e e1 8b 2a 3e 09 58 7c 3c
       -0.059387457 0.18792239 0.16654922 0.015401849
000140 7f e7 b1 bd 8d 13 f2 be ad 5e 82 3e 0c a7 88 bd
       -0.086867325 -0.4728054 0.25462857 -0.06672487
000150 32 53 9c be 8b c5 ae 3e ba 22 27 be 9f b6 4c be
       -0.30532223 0.34135088 -0.16321841 -0.1999154
000160 c2 20 f4 3d b0 11 9b be 0c 61 73 3e b2 01 ae be
       0.119203106 -0.30286932 0.23767489 -0.33985668
000170 bd 2a 43 3e b4 79 03 be 22 2d d4 bd c7 4a 89 3d
       0.19059272 -0.12839395 -0.10360171 0.06703716
000180 b9 f2 86 bd 23 31 0d 3e 23 63 37 3d 5f 10 6c be
       -0.065892644 0.13788275 0.04477228 -0.2305312
000190 a8 e3 af 3e 25 29 4b 3d ae 05 82 3d b1 b1 35 3e
       0.34353375 0.049599785 0.063487396 0.17743565
0001a0 98 87 c0 3d 9b 01 91 3e 5c ef ac be cb 9e 6b 3e
       0.094008625 0.28321537 -0.33776367 0.23009793
0001b0 1d 2b 42 be f4 cb 36 3e 98 26 92 bd 51 f3 8c bc
       -0.18961759 0.1785124 -0.071362674 -0.017205866
0001c0 e5 cc c0 bd 7f 43 01 be 74 bc fb bc fa 60 46 3e
       -0.094140805 -0.12623404 -0.03072951 0.19372931
0001d0 9e 7d e1 be 09 c3 e2 3c 78 19 bc 3d 2b 27 0a 3d
       -0.4404115 0.02768089 0.09184545 0.03372876
0001e0 94 68 aa bd 80 52 66 3c c3 3f 44 bd dc 7f 95 bd
       -0.08320728 0.0140577555 -0.04791237 -0.07299778
0001f0 46 c6 b3 3e 84 48 3a 3d d9 4d 17 be 4a 38 f6 3d
       0.35112208 0.045479313 -0.1477579 0.12022455
000200 0b 70 bf bd d1 18 8a be d2 e3 9b 3d 50 97 2f be
       -0.093475424 -0.26972058 0.07611813 -0.17147565
000210 0f 05 2c be f4 33 40 3e 13 3f 55 be 67 9c 38 3e
       -0.16798805 0.18769819 -0.20824842 0.18028413
000220 73 c1 a8 3e 58 ae bd bd 9b 9d 1f 3c 01 56 b6 be
       0.3296009 -0.09261769 0.009742166 -0.3561249
000230 16 e7 91 3c da d5 8a be b2 ef 2e be e1 b4 a4 3c
       0.017810386 -0.2711628 -0.17083624 0.020105781
000240 b7 c3 12 3e f0 c9 23 bd aa fc 3c be 92 27 5d bd
       0.14332472 -0.039987504 -0.18455759 -0.053992815
000250 6b 93 15 be 2d c4 9a 3d ea 05 d4 3e fb c9 ae 3c
       -0.14607017 0.07556949 0.41410762 0.021336546
000260 87 c0 65 3e d8 78 62 3e d4 32 c8 3c b5 b4 52 be
       0.22436725 0.2211641 0.0244383 -0.20576747
000270 75 be a1 3e a9 d8 17 bd 51 11 fa bc c8 0e a8 3d
       0.3159062 -0.037071858 -0.030525835 0.08205944
000280 95 b7 ed 3d 60 68 e4 3e 50 98 09 bd 2f e2 84 be
       0.11607281 0.44610882 -0.033592522 -0.25953814
000290 39 57 89 3e 17 ac 09 be 2e be 8e 3e f3 3a e2 3e
       0.26824358 -0.13444553 0.2787947 0.441856
0002a0 0a b2 4e 3e 02 01 d9 bc af 90 0b 3d 57 ca 88 3d
       0.20185104 -0.026489738 0.034073528 0.06679218
0002b0 bd 32 8f bd ca 89 92 3d 25 0a 18 3d a8 38 0f be
       -0.069920994 0.071551874 0.03711905 -0.13986456
0002c0 f1 54 c4 bd ed 67 da 3e fe 41 f3 bd 2e 43 ad 3e
       -0.09586514 0.42657414 -0.118778214 0.33840317
0002d0 de 81 53 3e 77 de df bd 8f d4 dd 3e c0 20 af be
       0.20655009 -0.10931104 0.43326232 -0.34204674
0002e0 71 3e 39 be 18 ca 9f 3e e4 c5 15 be bf 79 a2 3e
       -0.18090226 0.31208873 -0.1462627 0.3173351
0002f0 db 9a 10 be fb 9d 6c bc 0f b0 00 3e 12 7c 5f 3e
       -0.14121573 -0.014441962 0.12567161 0.21824673
000300 de a7 56 3e 37 d0 ae be 62 c3 cc 3e 34 67 b2 3d
       0.20962474 -0.3414323 0.39992815 0.08711091
000310 33 7d bf be 52 7d da 3c f3 53 c4 be 30 46 97 3e
       -0.37400207 0.026671086 -0.38345298 0.29545736
000320 eb 59 2f bd 51 e0 80 be 8f f8 99 3e fd a5 f2 bd
       -0.04281036 -0.2517114 0.30072448 -0.11848066
000330 30 04 bf be db 0f f1 bd 4e 3b f9 3e 4e 51 96 3d
       -0.37307882 -0.11770602 0.48678058 0.073397264
000340 22 aa 0c bd d7 bd 93 be 6d 82 50 3c 9d 44 8b 3c
       -0.03434194 -0.28855774 0.012726408 0.01700049
000350 ef 91 a5 3e 9b be b9 3d 42 f8 31 bd 7c 0a c1 be
       0.323379 0.09069558 -0.043449648 -0.3770331
000360 9d 20 5e 3e 26 5d f4 bd 2d 32 a6 3d ce 4e fa be
       0.21692128 -0.11931829 0.08115039 -0.48888248
000370 45 89 84 3e 94 cd 0c be 7d 93 50 be 3a 0a 32 3d
       0.25885978 -0.13750297 -0.20368762 0.043466784
000380 28 87 55 be 3d bf 91 3d f1 41 75 3d 0e 95 73 be
       -0.2085234 0.07116554 0.05987734 -0.23787329
000390 80 ac 11 3f 1b 73 50 3d 94 1d 30 3d 30 1b a8 3e
       0.5690384 0.050891023 0.042996958 0.32833242
0003a0 05 85 ea bd 6c 79 8a be d4 62 fe 3d 9a 7c 29 be
       -0.11451153 -0.27045763 0.12421194 -0.16551438
0003b0 58 7e 18 bd 31 17 0a 3e 73 41 2b 3d 67 7e 61 be
       -0.037229866 0.1348541 0.041810464 -0.22020875
0003c0 d0 d6 1f be 1e bc ae 3e 12 eb 40 3d 1c c7 55 3e
       -0.15609288 0.34127897 0.04709918 0.20876735
0003d0 33 2f 81 3e 27 e4 87 3d 6f e8 5c 3e c0 16 29 be
       0.25231323 0.066353135 0.21573041 -0.16512585
0003e0 01 08 07 3d 0e c4 be 3d 4b bf 93 bd 0a 51 53 3d
       0.032966617 0.09314738 -0.072142206 0.051590957
0003f0 99 ac e7 3e fc 73 ae be ef 77 68 be 5c 95 d9 3e
       0.4524887 -0.34072864 -0.22702001 0.42496765

encoder.layers.1.self_attn.in_proj_bias f4 [48]
000000 1c b3 2d 3e 44 e0 2f be fe 82 9f be 62 5d b5 3e
       0.16962856 -0.17175394 -0.31154627 0.35422808
000010 2b 3b 89 3e 0b 55 7e bd 33 69 5e be 0f 75 ed bd
       0.26802954 -0.062092822 -0.21719818 -0.11594593
000020 34 9e f5 3d 21 ac 51 bd ce 1a 3b be ca 85 56 3e
       0.119930655 -0.051189546 -0.18271944 0.20949474
000030 ce cc 91 3d 42 9d 0e 3c e4 e4 6f be b5 0b f5 bd
       0.071191415 0.008704485 -0.23427159 -0.119651236
000040 ee 29 08 b9 d6 43 9b ba af 8b ec 3b 65 46 e6 3a
       -0.00012985591 -0.0011845778 0.0072188 0.0017568587
000050 ce 49 57 3a 1b 06 8d 39 b2 1a fa ba 0a 42 9c 39
       0.0008212597 0.00026898165 -0.0019081442 0.00029803842
000060 ec 47 19 ba e0 1b 52 39 d8 b5 ee ba 3c c2 58 ba
       -0.0005847204 0.00020037545 -0.0018212153 -0.0008268689
000070 02 7e 06 bb 95 f8 4a ba 3f b8 4d ba c0 70 83 39
       -0.0020521884 -0.000774273 -0.0007847584 0.00025070272
000080 a5 98 17 be 7e c4 0b be 53 ee 01 3c ed 29 55 3d
       -0.14804323 -0.13649175 0.007930356 0.052041937
000090 0c 28 f9 bc 53 ac 40 be 7a 2a 97 3c 3f b3 ef 3b
       -0.030414604 -0.18815736 0.018452872 0.007315069
0000a0 d4 8f fe 3d b2 2b f8 3d 6c 25 34 3e f3 5a 6a 3d
       0.12429777 0.12117709 0.175924 0.057215642
0000b0 87 9c 0b bb ba 02 16 be 0e 99 0f bc 94 60 1e be
       -0.0021303014 -0.14649478 -0.008764518 -0.15466529

encoder.layers.1.self_attn.out_proj.weight f4 [16, 16]
000000 9a 27 1c bd 2c b9 17 bd 5e 2b be 3d e9 dd 86 bc
       -0.038123704 -0.037041828 0.092856154 -0.016463237
000010 73 5a ba 3d 86 78 3c be 53 6e be bd d5 0c fb 3c
       0.09099283 -0.18405351 -0.092983864 0.030645767
000020 51 ef 47 bd f3 6c eb 3d 98 8a 47 3c 9e d6 1f be
       -0.048812214 0.1149539 0.012179039 -0.15609214
000030 98 3f a7 bd 7d 7d b6 3d 57 b9 9a bc 59 53 3b bd
       -0.081664264 0.08910654 -0.018887205 -0.045733783
000040 c6 58 5a bd b6 70 83 bd 7e dd 09 3e 6b dd e3 bd
       -0.053307317 -0.06417982 0.13463399 -0.111262165
000050 c1 6e 24 be 00 3c 81 be c9 93 63 be bf 3f 87 bd
       -0.16057874 -0.2524109 -0.22224344 -0.066039555
000060 32 2d b9 3d 56 60 a9 3e 7c 2b 6f be a7 b5 ae 3c
       0.090418234 0.3308131 -0.23356432 0.021326853
000070 f3 4f 6b be b2 f3 ff bd 95 33 e1 3a 43 24 50 be
       -0.22979717 -0.12497653 0.001718151 -0.20326333
000080 0d ef b6 3d 26 bf c3 bc 3c 0d 36 be 2d 29 7c be
       0.08932314 -0.023894858 -0.17778486 -0.24625082
000090 68 6f 3b bc bb ca b7 be a8 29 5e 3d 9f 13 5d bd
       -0.011440136 -0.3589686 0.054238945 -0.05397379
0000a0 91 85 9b 3e f6 fe d4 bc 73 5c af 3d 6f c8 c8 bd
       0.3037534 -0.026000481 0.08562555 -0.09803855
0000b0 2f 65 70 be aa 99 8b bd 19 8a 0d bc c1 fc 8e be
       -0.23476098 -0.068164185 -0.008638882 -0.2792721
0000c0 4b fe 45 be 96 d4 f8 bd a6 62 66 3e c1 3a 8f 3c
       -0.19335286 -0.121499225 0.22498569 0.01748407
0000d0 4c a7 75 3e cb 85 9a be 4d b9 55 be ab b1 d1 3d
       0.239896 -0.301802 -0.20871468 0.102389656
0000e0 dc 39 ea 3c 92 91 dd 3e b8 79 24 3e b2 c6 9b be
       0.028592043 0.43275124 0.16062057 -0.3042503
0000f0 e1 f0 9d 3a b2 f8 ae bc cb 13 53 be 82 ed 29 be
       0.0012049937 -0.021358822 -0.20613019 -0.16594508
000100 e0 7b ab bc d0 84 cc 3c 00 9b 57 3b 11 06 b9 bd
       -0.020933092 0.024965674 0.0032898784 -0.0903436
000110 3b 87 8a 3d d0 01 20 3d 34 1d 45 3d c8 8e 00 be
       0.067640744 0.03906423 0.048123553 -0.12554467
000120 e9 ff bc ba 63 43 00 be a4 27 7a 3d a8 85 01 3e
       -0.0014419529 -0.12525706 0.06107296 0.12648642
000130 ce 6f 60 bd 47 96 01 3d c3 c0 22 be 42 7c 08 be
       -0.054794125 0.031637456 -0.15893845 -0.1332865
000140 8d 08 ba bd 83 f4 2d be 6a d1 97 bd 3a 08 36 be
       -0.09083662 -0.16987805 -0.074129894 -0.17776576
000150 33 5b 0d 3e 5c d6 6b 3e 0f 48 35 bd b6 c4 6a bd
       0.13804321 0.2303099 -0.044258174 -0.057316504
000160 8f b0 4c 3e 40 7d 81 bd 3b 97 66 bb 35 f7 ce 3d
       0.19989227 -0.06322718 -0.0035185355 0.10105745
000170 d0 be 77 3e 70 4a e3 bd ab 6f cf bd d8 98 22 3b
       0.24193883 -0.11098182 -0.10128721 0.002481034
000180 9f 7d a4 bc 64 29 d0 bd f5 10 22 be 0b c4 5c 3d
       -0.020079432 -0.10164145 -0.15826781 0.0538979
000190 27 b2 4c be 86 fb 84 3e ba 51 76 3d f9 75 3c bb
       -0.19989835 0.25973147 0.060136534 -0.002875684
0001a0 3c 88 94 be 0e 87 8b bd 3e 4f 8d 3d 65 f8 f1 ba
       -0.2901019 -0.06812869 0.0689988 -0.0018460868
0001b0 a8 5a 4c 3d 1e 21 58 3d 04 06 34 3e c2 f4 15 3e
       0.049891144 0.052765958 0.1758042 0.14644149
0001c0 d1 64 fa bd 47 cd 53 3d d6 94 81 be 96 fc 8c bd
       -0.122262605 0.05170944 -0.25308865 -0.068841144
0001d0 85 b5 27 3d e0 e7 b5 3e 1a 37 c4 3d e8 df 67 bc
       0.040944595 0.3552847 0.09580822 -0.0141525045
0001e0 f7 d7 95 bc 7c fc a2 be 8f 89 0e 3e d5 6b 60 bd
       -0.018291457 -0.31833255 0.13919662 -0.054790337
0001f0 fe f4 2b 3d 5f de 50 3d ab 8a 3a 3e 8d a3 75 bd
       0.04198169 0.05099332 0.1821696 -0.059970427
000200 e7 7a 30 bc 52 32 e4 3c da 9d dd 3c c9 7c fd 3a
       -0.01077149 0.027856026 0.027052809 0.0019339557
000210 49 c2 d3 bc 29 e5 c4 bc 8d a6 d7 3c 4e a4 25 3c
       -0.025849478 -0.024035053 0.026324535 0.010109974
000220 1f eb 32 bc 0d 74 92 3a 78 a6 01 bc 67 6a 83 3d
       -0.010920315 0.0011173502 -0.007913224 0.06416779
000230 17 0f 9a bc 8f 7d 73 bb 7c c2 40 ba 90 f8 7b bc
       -0.018806024 -0.0037153696 -0.0007353199 -0.015379086
000240 4c c1 3f 3d 64 7a fc 3c e4 81 85 bc de 51 f3 3c
       0.0468152 0.03082008 -0.016297288 0.029702123
000250 86 49 d1 3b ef 89 e3 3d 92 4e 30 3d 1c b7 4d 3c
       0.0063869385 0.11110293 0.04304368 0.012555864
000260 35 f0 92 bd cb 7d 85 3b 1e 7f 5e bd 83 73 a8 3d
       -0.07174722 0.0040738336 -0.054320447 0.08225157
000270 df 09 ab bc 88 f8 ac bc c4 a0 a9 3d 23 b5 b1 3d
       -0.02087873 -0.021114603 0.08282617 0.08677127
000280 82 50 0e 3d 4c 41 ce 3c ed 14 14 bd 7c 0f 3a bd
       0.034744747 0.02517762 -0.03615277 -0.045424923
000290 30 da 0d 3b c7 89 b5 bc ef 90 28 bc b0 f0 93 3c
       0.0021644942 -0.022160424 -0.010288461 0.018059105
0002a0 82 99 fa ba ec a4 7c 3d e8 a3 d0 bc a6 02 a8 3b
       -0.0019119235 0.06168072 -0.025468782 0.005127269
0002b0 7d 30 74 bc 30 27 1e bc c0 58 83 3c 69 d8 ea 3c
       -0.014904139 -0.009652898 0.01603353 0.028667646
0002c0 86 0f 60 3c d6 26 86 3c ed 4c 53 3d b9 b8 b4 bd
       0.013675576 0.01637594 0.051587034 -0.088242956
0002d0 6a 89 ab 3d ae b5 3d 3e ef 20 57 3e 74 e3 85 bd
       0.08375819 0.18526337 0.21008657 -0.06537524
0002e0 ec a8 c8 3d 22 d8 1f 3c c4 1a 2a bd 77 a8 c8 bd
       0.09797844 0.00975612 -0.041529432 -0.09797757
0002f0 13 18 50 3e c6 c4 b9 bd 54 a8 d7 3d 12 9a 53 3d
       0.20321684 -0.09070735 0.10530153 0.051660605
000300 7d 7a 81 3c 17 87 3c 3c 14 2b d5 bc 35 b0 46 be
       0.015805477 0.011506817 -0.026021518 -0.19403155
000310 0b ca d9 3d 0d 28 70 be 9a 04 d7 bd d3 06 6f bd
       0.1063424 -0.23452778 -0.104989246 -0.058356117
000320 d1 7d 36 bd da 78 65 3e 99 21 33 3d 5b c0 cc bd
       -0.04455358 0.22409382 0.043733213 -0.099976264
000330 ca ae 72 be f5 27 53 3e 68 92 70 be 42 a0 7e be
       -0.23699489 0.20620711 -0.2349335 -0.24865821
000340 bb be 4d bd 17 c0 fa 3d e5 8b 9f bd bb 81 5b 3d
       -0.050230723 0.122436695 -0.07790355 0.053590517
000350 a1 56 12 be c7 d6 0a 3e 86 a8 3d be d9 31 2c 3e
       -0.14290859 0.13558494 -0.18521318 0.1681589
000360 cd f5 b0 bd 8d 5c 6d b9 8b 94 a8 bd 28 b2 98 bc
       -0.08640633 -0.00022636559 -0.08231457 -0.018639639
000370 29 03 08 3d 08 60 89 bd 5f 60 48 3d d8 a2 97 3e
       0.03320614 -0.0670777 0.04892003 0.29616427
000380 9c 4f 66 be ef ca 49 3d 08 0d 4c 3c 45 06 64 be
       -0.22491306 0.0492658 0.012454279 -0.22268017
000390 f5 9e 32 be a5 a4 b6 be 56 72 d4 bc 47 16 72 bd
       -0.1744345 -0.3567249 -0.025933426 -0.059103277
0003a0 a9 f5 35 3d 1e ee fd 3d 0b ee 06 3e d8 f1 3e be
       0.044423733 0.12398933 0.13176744 -0.18646944
0003b0 1e a3 35 bc 4e 43 fd bc 4f 79 a4 3d 41 c1 84 be
       -0.011086253 -0.030915882 0.0803095 -0.2592869
0003c0 06 d4 6c be 4c 3a 6b 3e e4 f5 3e 3e cd 69 2c 3e
       -0.23127756 0.22971457 0.18648487 0.16837235
0003d0 47 6b 05 bd 02 ec a6 be 49 d4 a9 bd 06 3a 91 bb
       -0.03257301 -0.32601935 -0.08292443 -0.0044319658
0003e0 54 6f 2d 3e 96 29 68 3e 4a c5 23 be 68 c4 f9 bd
       0.16937 0.22672114 -0.15993229 -0.12195665
0003f0 01 96 90 be 31 e2 31 be f9 b8 25 bd 7b cd 0c be
       -0.28239444 -0.17371441 -0.040459607 -0.1375026

encoder.layers.1.self_attn.out_proj.bias f4 [16]
000000 ff 47 aa 3d 08 aa ad 3e 78 81 62 3e 55 24 9a 3e
       0.083145134 0.33918786 0.22119701 0.30105844
000010 cd 5f 3e 3d 88 d3 fb bd 28 51 b3 be d7 07 f2 be
       0.04647808 -0.12296206 -0.35022855 -0.47271606
000020 c0 88 58 bd 28 3b aa bd 30 cd d7 bc 2a 4f fd bd
       -0.05286479 -0.083120644 -0.026342958 -0.12368615
000030 3c d5 f8 3d 4f 67 06 be 35 af 63 3d 1d ff 81 3e
       0.12150046 -0.13125347 0.055587012 0.25389948
