log/20231223_130200/best_acc.pth (torch, 53260 bytes, 38 tensors)

encoder.layers.0.self_attn.in_proj_weight f4 [48, 16]
00000000: fef1 9e3e eb8a 4c3e 4b16 10bd 6b9b 4c3e
00000010: 50b7 4fbd c77b 0abd b57c 5a3e f598 c83e
00000020: e628 a73d c226 f6be 0df5 203e 1cbd c9bd
00000030: 2834 0b3e 949a 683d 1e40 ec3d b697 31be
00000040: 9eeb 543e dd9e 3ebe 2d13 b13e 476d 83bc
00000050: 0831 acbe e1e5 8c3e c2ff f4bd 737d f03e
00000060: 5c84 dc3d 2cd0 31be da52 073d 2636 573e
00000070: 5d4c 08be 8119 b93d 0b11 fa3e 08fa c8be
00000080: 66a2 5f3c ed41 2d3e 34c9 b9be f909 16be
00000090: a5cc 2bbe 1d4d 503d 3d05 483e b0fc b83e
000000a0: f626 78bd add4 8fbd 71c7 d63e 808e a5be
000000b0: aa7d aebe c099 833d af0f a23c 8361 4c3e
000000c0: 75a2 c2be d79b 23be b4f1 afbe c597 0b3e
000000d0: 69b9 943e 8c00 fdbe f602 523e 57bd b13b
000000e0: c47e 833d d95a 723e c056 553c 317f 21bf
000000f0: 3ef3 df3d 15b8 b2be 5c6a 66be 129e 06bc
00000100: 19ba aebc 67cb 67be 4e67 cd3e 394a 363e
00000110: 4a0e b9bd aabf 473e a5ab 2fbe 7ed4 c13e
00000120: 0bc2 ecbd cb05 8ebe 8845 f43c 41fc 43ba
00000130: 191b 34be d2d3 073f 8359 ea3e d4ec e0be
00000140: be3d 46be 705e 7dbe 4c71 4d3d 387d 243d
00000150: 87ba bb3b 2828 a73d e83e 1bbd 315f bfbd
00000160: 3d53 303e 49ed 2ebe 8c8d 1b3e ce9f cfbe
00000170: 67a7 153e 14a4 e6be 38a7 23be cd47 e33e
00000180: 7429 683c e24f af3d 57eb 85bd 60ef 5bbe
00000190: f8cf 893e 14ab 4b3c 6088 a9be 2be4 20bd
000001a0: 5665 443d adef 3b3f d84e b0be 4e6a 86bd
000001b0: c69c 2ebe 8ea6 6c3e eb17 483d 323a 92bd
000001c0: 7cfb d4bd 35cf a1bd ffea 323e ce21 e7bd
000001d0: bb04 80be abe5 a53e 7ffb 90be cd78 533d
000001e0: c7a3 6ebd 3ac3 2abd 04c6 893c 4cf8 313d
000001f0: 6388 503d 4e17 143e a977 463e 3845 9fbe
00000200: f39b a9be 52e6 a3bb 2861 9a3d eec5 adbd
00000210: e397 2d3e 4710 c53e 5ce0 083c a5aa ba3e
00000220: aec9 2d3e 8668 7bbd d858 7ebf a16c af3e
00000230: 3842 99bd 8327 53be 6457 cebe bbdb 88be
00000240: bab3 703e 13b3 763d f1a6 233e 9612 5a3d
00000250: bf72 04bf e366 dfbd 16de 383e 39b3 f23d
00000260: e527 b6bd c359 bb3c 6028 7d3f 8ae4 a4bd
00000270: d160 f4bc 36fc 5f3d 6313 dd3e b275 8e3d
00000280: ee59 e53e 94f4 0d3e 760c bd3d b9aa 7e3e
00000290: 2e99 3abe f023 0f3d 834f 1d3c 84c2 5a3e
000002a0: 3ce6 bdbc de3b 49be 0423 303f ba12 09be
000002b0: bc61 04be f5ff 6a3e 0498 af3e 0634 eb3b
000002c0: 9315 f83b 55a9 9a3e 3539 e13d 1ad8 dc3c
000002d0: bfc8 2dbe 4a62 d43d 86e3 d33e 3d9b a8bd
000002e0: eb92 9bbd ef88 3a3d d850 cc3e 9d8d 01be
000002f0: 65f1 ca3d d690 c73e b3da 163e 1059 823e
00000300: 9e8d a13e b885 c6bd 762f b73e 0677 683e
00000310: 722c 48bf 0b1d b3be 14ac f2bd 10c7 043e
00000320: e5d8 bbbc d379 abbe 7b68 843f d9c8 97bd
00000330: 6c86 ca3d 3784 973d 71c2 033f ef0c 4c3d
00000340: 1347 40be 97b2 0abe 8931 aabe 002f 72be
00000350: c8cb 0e3f c89c 163e 5fc6 31be 7300 67bd
00000360: a9b9 833e e777 06be cce8 f6be f38b adbd
00000370: 7c8f e13c e091 f9be e865 7cbe a1b3 6ebd
00000380: cfa6 a23c ad22 923a 6ea3 713e c2e0 13be
00000390: 127b c7bd 4f34 9fbd 8406 23be 9d63 f23d
000003a0: 9815 34bc 5e50 05be b01a 503f 9f57 87be
000003b0: 63e5 7e3e 28f8 b03e daae bf3e fbdc 27bd
000003c0: ecec abbe a21f 9d3e ce23 5a3d 381a 843d
000003d0: e5a3 9d3e a32b 4d3e 372d 433e a403 83bd
000003e0: 920d 233e 80c2 853d 68b3 1dbf 33f4 cf3c
000003f0: d559 413e b9c9 c4be d7e0 aabe e190 b13d
0.31044 0.19974868 -0.03517751 0.19981162 -0.05071193 -0.03380945 0.21336634 0.39179197
0.08162098 -0.48076445 0.1571848 -0.09850523 0.13594115 0.056788042 0.11535667 -0.1734303
0.20793006 -0.18615289 0.34584942 -0.016043318 -0.33631158 0.27519134 -0.119628444 0.4697071
0.10767433 -0.17364568 0.033037998 0.2101675 -0.1331038 0.090380676 0.48841128 -0.3925326
0.013649559 0.1691968 -0.36286318 -0.14652242 -0.16777284 0.05085479 0.19533248 0.36130285
-0.06058403 -0.070229866 0.41949037 -0.3233528 -0.3408025 0.0642581 0.01978287 0.19959073
-0.3801457 -0.15977417 -0.34364092 0.13632114 0.29047707 -0.4941448 0.20508942 0.0054241824
0.06420663 0.23667468 0.013021171 -0.63084704 0.10935067 -0.34906068 -0.2250151 -0.008216398
-0.021328973 -0.22636186 0.40117878 0.17801751 -0.090359285 0.19506708 -0.17155321 0.3785743
-0.11560448 -0.27738795 0.029818311 -0.00074762484 -0.17588462 0.5305759 0.45771417 -0.43930686
-0.1935949 -0.24743056 0.050156876 0.04015848 0.005729023 0.08161956 -0.03790179 -0.09344328
0.17219253 -0.17082705 0.15190715 -0.4055161 0.1461464 -0.45047057 -0.15981758 0.44390717
0.014170039 0.08560158 -0.06539028 -0.21478033 0.2691648 0.012430925 -0.33111858 -0.039280098
0.047948204 0.7341259 -0.34435153 -0.06563245 -0.17051992 0.2311041 0.048850935 -0.07140006
-0.10399529 -0.0790085 0.17472456 -0.112857446 -0.2500361 0.32401785 -0.28316876 0.051628876
-0.05826166 -0.04169009 0.016818054 0.043449685 0.05091132 0.14462015 0.19381584 -0.31107497
-0.33126792 -0.0050018216 0.07538062 -0.08485018 0.16952471 0.3848898 0.008354273 0.36458316
0.16971466 -0.06137898 -0.99354315 0.34262565 -0.07483333 -0.20620541 -0.4030105 -0.2673014
0.2350606 0.060229372 0.15981652 0.05324038 -0.5173759 -0.10908296 0.18053469 0.1185059
-0.08894328 0.02286995 0.9888973 -0.08051403 -0.029831322 0.054683886 0.43178853 0.06956042
0.44795173 0.1386283 0.09230892 0.24869813 -0.18222496 0.034946382 0.009601477 0.21363264
-0.023181073 -0.19651744 0.6880343 -0.1338605 -0.12927908 0.22949202 0.34295666 0.0071778325
0.007570931 0.30207315 0.109972395 0.026958514 -0.1697111 0.1037031 0.41384524 -0.08232734
-0.07596382 0.045540746 0.3990543 -0.12651677 0.099093236 0.3897769 0.14731865 0.25458574
0.31553358 -0.096934736 0.35778397 0.22701654 -0.7819282 -0.34983096 -0.118492275 0.12966561
-0.022930572 -0.33491382 1.0344385 -0.074113555 0.0988892 0.07398265 0.5146857 0.049817022
-0.18777113 -0.13544689 -0.33240917 -0.23650742 0.55779696 0.14708245 -0.17360829 -0.056396913
0.25727585 -0.13131677 -0.48224485 -0.08473959 0.027534239 -0.48744106 -0.24648249 -0.058276776
0.019854931 0.001114925 0.235975 -0.14441207 -0.09740271 -0.07773649 -0.15920454 0.11835406
-0.0109914765 -0.13018939 0.8129072 -0.26434037 0.24892192 0.34564328 0.3743809 -0.040982228
-0.33579195 0.30688196 0.053256802 0.06450313 0.30789104 0.20036177 0.19060217 -0.06397179
0.15923145 0.065312386 -0.6160188 0.025384998 0.18881924 -0.38435152 -0.33374664 0.086702116

encoder.layers.0.self_attn.in_proj_bias f4 [48]
00000000: 4cc5 55be 7490 10be b23e aabe e423 85bb
00000010: 7e0c afbe 4ae9 71bd 3557 d83e 2962 193d
00000020: 803b e53d 0763 cdbd 5de4 10be 6129 57be
00000030: 18e3 3fbe d5c8 2f3e 4809 13be b123 80bd
00000040: 78dd 00bb 162c e539 86e3 903a 7fb1 b5ba
00000050: 6c7c 29bb 0718 06bb 024c 163b e5c6 f0ba
00000060: 4ff6 87bb a725 0e3a 970f 09bb 7239 63bb
00000070: 2a55 10bb 0b20 8e3a a219 92bb 2ed0 c739
00000080: d6a2 efbc 9487 f3bd 79fb 933c 1b23 753c
00000090: 3d02 433d 0420 483d 53e3 af3d a4ee c43d
000000a0: b301 dbbd 9b2d 463c 44cd c6bc 2c14 fb3d
000000b0: 69e1 dc3d 3037 1bbe 34fd 9fbd 7d05 55bd
-0.20876044 -0.14117604 -0.33250958 -0.0040631164 -0.34189218 -0.059060372 0.42254034 0.03744713
0.11192989 -0.100286536 -0.14149614 -0.21011879 -0.18738973 0.17166455 -0.1435901 -0.062568076
-0.0019663256 0.0004371113 0.0011054135 -0.0013862102 -0.0025861515 -0.0020461099 0.0022933488 -0.0018369822
-0.0041492353 0.0005422481 -0.0020913833 -0.0034671691 -0.0022023418 0.001084329 -0.004458622 0.00038111344
-0.02925245 -0.11891094 0.018064247 0.014961983 0.047609556 0.048858657 0.085882805 0.096158296
-0.106936835 0.012095834 -0.0242678 0.12259707 0.10785181 -0.15157771 -0.078119665 -0.052007187

encoder.layers.0.self_attn.out_proj.weight f4 [16, 16]
00000000: e3ca 403d bb85 433c 38f0 813e 2c2a 9fbd
00000010: ea9c 30be 8dfe 283c 17b5 2dbe 0006 073d
00000020: cb1c 393d 9bde eabd 6a1b 873d ee51 ad3d
00000030: 99e4 5e3d 8787 55be a7b3 8abd e87b 80be
00000040: 8f57 23be ce02 f5bd f586 093e 7859 aa3d
00000050: 9729 9abd 9615 8cbd 4b6d f8bc 8bb3 cbbd
00000060: e60f 29be 93c7 62bd 710e 39be 5d4e 1f3e
00000070: 8c9c 9abd aca5 a1bc 9db3 ff3d 3c07 443d
00000080: d214 bfbd 2d37 103d 4a9d c23d 7455 00be
00000090: 60cf 753d fff3 4c3d f81b 1cbb 228b e13c
000000a0: cb94 fc3d b8df a0bc 503d 51bd 28bb bd3c
000000b0: 16b0 8e3d 3d6a 51be 9572 7cbd 87de 91bb
000000c0: b68a 9ebc bb08 ba3d 5d88 b03d a046 97bd
000000d0: 671e 1f3e cc3d ddbc 8eb9 c8bc 7226 f2bc
000000e0: a04c 173c 778a c9bd 3908 363e 8e02 14be
000000f0: 91d6 533d 75cc eabd caff 9e3d 9c9e 333d
00000100: 7871 3a3d 71b6 633c 4ac2 a73d d1b9 0fbc
00000110: b645 893d 77b4 6e3d 1dac 2c3d d265 113d
00000120: 3e28 273e ebbf f7bc dc73 07bd 83de 2a3d
00000130: 9ea7 003e 8343 debd 8af4 823c afc4 7c3d
00000140: fbaa 03be 8f6a bcbd 9224 d03d fdcb d63a
00000150: 7185 003d c6cb 253d 89b4 d9bd 2249 0bbd
00000160: 5708 bb3d 262a 95bc 8802 fabd f279 34bb
00000170: 5cb4 31bd 72b8 e1bd c338 05bd 301a 60bd
00000180: 27b7 08bd 4d80 283d c682 34bd ed5e 79bd
00000190: 7a0e d1bd a50d 283e da74 973c 64d6 77bd
000001a0: 0eeb 773c 878b 57be ba41 47be 4ea5 7b3d
000001b0: 1fd4 2d3d 9a2d e9bd 8ccd cb3c c984 0bbe
000001c0: eed5 36bd 21c9 5dbd 8f9e e6bd e169 bdbd
000001d0: e8e6 f7bd 4050 843d 6b5a 483e 52cc 103d
000001e0: d1b1 babc 2df0 07be d7d2 8d3e b4cc 16bc
000001f0: 1fee bdbd 5d58 81be 3389 af3d bc9f 19be
00000200: dc13 6cbd e7d3 7e3d ca9a 403b ca2e 0a3c
00000210: 1169 1d3e e6a8 91bd 7aa7 bebd de3b 4ebe
00000220: 162c 843d 92fb 93bd 82de df3c 58b6 f4bc
00000230: 6e50 89bc bab1 ddbd d068 b23d 1f75 83bc
00000240: a4b1 bc3c fd6c 423d bf98 30bd c590 d1bc
00000250: d219 7bbd 7218 ea3d 1e43 0bbe 4623 13ba
00000260: af1b adbd 7025 1f3e e32e 363d 7b2c a8bd
00000270: 7d51 b73c d0c9 0fbe d2a6 b83d 1f04 6d3d
00000280: 41f3 fa3b 1ff4 c43a c3ec c3bc d888 c4bc
00000290: f38f 66bc 6af5 84bb 1269 ef3b 4975 3cbc
000002a0: 6093 203d ba75 d63c 9f08 3a3c c58d 853c
000002b0: bcbc cabb 4ee9 ed3b fe2b 0c3c c065 12bd
000002c0: eb05 19be 3d48 6c3d 0180 a73c 2ffb 53be
000002d0: 9420 1fbd 5718 1e3a 2430 f83d 1f90 a8bd
000002e0: 3857 2bbd 7ef7 0ebd 92ce 3bbb 4445 313d
000002f0: bd0f 063e b559 9abd d5a9 983c 9284 b23d
00000300: fb46 28bd 7d7d 153e 9970 e73d 3ef4 ccbd
00000310: 0f57 f73c ec45 b63b 0044 64be dace 20be
00000320: b3fc 6d3d d2a5 7a3b bb20 263b dee1 1c3e
00000330: cff0 f9bd 98c2 31be a791 a0bd 938a 13be
00000340: 7fc4 94bd 441b e1bd a15b 88be c39f e9bd
00000350: e69a 24be a788 233b 7ce9 253d 5d71 ce3c
00000360: fcf1 c43b 5d7d ab3d e4d6 28be 3595 ea3c
00000370: c52e babc b0af 47be 5bfb 08bd 2cb5 f53d
00000380: 8e24 a83c 2711 92bc faef 88bd 9c1d 54bd
00000390: 78d0 b3bc ba49 033e ed0c 9dbd 3919 a9bd
000003a0: 0a51 23be b80d b1bd 9680 533d 6d77 943d
000003b0: ba96 5d3e 6c16 49be 4e9d e53b 7ea4 06be
000003c0: cb07 22bd ca29 373e 370f d7bd f634 8a3d
000003d0: 9dae 25be a3d0 27be b97a bb3c cce1 20bd
000003e0: af29 88bd 478a 69ba a85a c83d fe62 133e
000003f0: 1a1f d9bd 78ec 2ebe f355 093e dc83 bb3d
0.047068488 0.011933739 0.25378585 -0.077717155 -0.17247358 0.010314596 -0.16963612 0.032964706
0.045193475 -0.1146824 0.06597026 0.084628925 0.054417226 -0.20852481 -0.06772547 -0.25094533
-0.1595137 -0.119634256 0.13430388 0.08317846 -0.07527464 -0.06840055 -0.030325552 -0.099463545
-0.16509971 -0.05536611 -0.18071915 0.15557237 -0.0754939 -0.019732319 0.124854304 0.04785846
-0.09330143 0.03520887 0.09502657 -0.12532598 0.06001222 0.05003738 -0.0023820382 0.027532164
0.123330675 -0.019637927 -0.051083863 0.023160532 0.069671795 -0.20450683 -0.06163271 -0.004451576
-0.019353252 0.090836965 0.08619759 -0.073865175 0.15538941 -0.027007006 -0.024502542 -0.029559348
0.009234577 -0.09840863 0.17776574 -0.144541 0.0517183 -0.11464778 0.07763632 0.043852434
0.04551837 0.013898478 0.081913546 -0.008772329 0.067027494 0.058277573 0.042156328 0.035497494
0.16323945 -0.03024288 -0.033069476 0.04171611 0.12563941 -0.108527206 0.015985746 0.06171101
-0.12858193 -0.09200012 0.10163225 0.0016387698 0.03137726 0.040477537 -0.106301375 -0.03400529
0.0913245 -0.018208575 -0.12207514 -0.0027538505 -0.043384895 -0.11021508 -0.032524835 -0.054712474
-0.033377793 0.041137982 -0.044070028 -0.060881544 -0.10207839 0.16411455 0.018488336 -0.060507193
0.015131725 -0.21049319 -0.19458666 0.061436944 0.042438623 -0.11385651 0.024878286 -0.13624872
-0.044637613 -0.05414689 -0.112607114 -0.092487104 -0.12104589 0.06460619 0.19565742 0.035351105
-0.022789868 -0.13275214 0.2769992 -0.0092040785 -0.092739336 -0.25262728 0.085710905 -0.1500234
-0.057636127 0.062213805 0.0029389136 0.008434007 0.15372111 -0.07112293 -0.09309287 -0.20140025
0.06453721 -0.072257176 0.02732778 -0.029872105 -0.016761985 -0.10824914 0.08711398 -0.016047059
0.023033924 0.04746722 -0.04311442 -0.025581727 -0.06130392 0.11430444 -0.13599822 -0.0005612861
-0.08452546 0.15541625 0.04447831 -0.08211609 0.022377724 -0.14041829 0.090161934 0.05786526
0.0076583927 0.0015026367 -0.023916608 -0.023991033 -0.014072406 -0.004057576 0.0073062265 -0.011502572
0.039203048 0.026179183 0.0113545945 0.016302953 -0.0061870497 0.007260478 0.00855541 -0.035741568
-0.14943664 0.05768608 0.02044678 -0.20701288 -0.03884943 0.00060308486 0.12118557 -0.08230614
-0.041831225 -0.034903996 -0.002865706 0.043278947 0.13091941 -0.075366415 0.01863567 0.08716692
-0.041083317 0.14598651 0.11300773 -0.10007523 0.03019288 0.0055625346 -0.22291565 -0.15703908
0.05810232 0.003824581 0.0025349099 0.15320536 -0.12204134 -0.17359388 -0.07840281 -0.1440833
-0.07264041 -0.10991529 -0.26632407 -0.11407425 -0.16074714 0.0024953277 0.04050587 0.02520054
0.006010292 0.083735205 -0.16488224 0.0286356 -0.02272738 -0.19500613 -0.033442836 0.119974464
0.020525243 -0.017830444 -0.06686397 -0.05178605 -0.021949992 0.12821093 -0.07668481 -0.08256764
-0.15948883 -0.08645195 0.0516363 0.07249341 0.21639529 -0.1963746 0.0070072776 -0.13148686
-0.039558213 0.17887035 -0.10500949 0.06748383 -0.16179891 -0.16388182 0.022885667 -0.039277837
-0.066485755 -0.00089088496 0.09782916 0.14393231 -0.10601635 -0.17082393 0.13411693 0.091560096

encoder.layers.0.self_attn.out_proj.bias f4 [16]
00000000: 4ee5 303e fb1c f73d d33c d63d a8e5 b13d
00000010: 92f8 f33d c500 373e ae99 c63d 2f42 c93c
00000020: 22b3 0e3d dcda 30bd dfdf c5bb 0fab 1b3e
00000030: 0bd3 fb3d e689 82bd 777c 0f3e 8cc0 033e
0.17274973 0.120660745 0.1046082 0.086863816 0.119126454 0.17871387 0.09697281 0.024567692
0.034838803 -0.04317747 -0.0060386504 0.15201972 0.122961126 -0.06373958 0.14012323 0.1286642

encoder.layers.0.linear1.weight f4 [64, 16]
00000000: 302a 22be aa93 c43e f8d3 f63d a466 e1bd
00000010: e69a 303e 7efc d43e bdb6 92bd 6e28 433e
00000020: 7321 273d 979f cebd 6dec 32be 2051 cf3d
00000030: 0918 ff3d 5c0f 9dbc c0ff 0dbd 96de 4fbe
00000040: 564b a7be 0534 72be 7b9d 183e 5515 1cbe
00000050: 2e22 813e c8f2 173e a00b 4dbe eac6 cb3c
00000060: 3157 08bd f292 0abd 864a b8be c1af d93d
00000070: b57f 94be f07a b03e 5d40 93be 5654 1cbd
00000080: 7e60 bbbe b6b5 cb3d 59eb f23e 9c64 ae3d
00000090: 1418 09be 04a0 d8b9 b3b2 fd3d 53fc 873e
000000a0: 4bcf a83d ba6a adbc adaf 3c3e f5ec c9bd
000000b0: 4f7e 02be c3ea 0ebd afca d5bc 67e5 ce3d
000000c0: a9d5 c9be 2e61 6cbe 151f b83d 6e65 3bbc
000000d0: 85fa 75bd 4cdd 65be 2233 39be 23a1 473e
000000e0: 4347 22bd eb51 4c3e 145e 18be 9106 9abe
000000f0: 5fd3 4dbe fc89 1b3e 63b7 923d 102b 803e
00000100: 6d4a 1cbd edcd b6be 8bff e83d 17fe 5ebb
00000110: 7c22 0abe c298 adba 8965 b6bb 2f41 403e
00000120: 9e7e b53d c16a 113e bf9b 1f3e d44f 98bb
00000130: d21e 4dbe f042 a5bd b3b2 d1be f0f4 8d3b
00000140: ffa0 58bc f4cc 353e fc38 b2bd adfb cdbd
00000150: 1df4 743e e071 663d 0610 8ebc 07ef 6a3e
00000160: fe47 47bd 8869 c5be 2c79 edbb b16a 5abd
00000170: c62f bdbd 44bb ac3d cc9c 00be fcb3 353e
00000180: 4453 c23d 09bd 833d f597 08be f97e 9cbe
00000190: f7bb 363d d7a8 203d dad2 903e a481 ad3c
000001a0: 8939 00be 5be0 0fbd 8677 1e3c 25f7 403e
000001b0: b430 b9be 471e ecbd 0b8a 843d 242c d33d
000001c0: d492 f3bd 0bc9 3cbe 6089 1d3e 486e 12bd
000001d0: bac8 8ebd 629d dd3d 6bed 273d a172 b9bd
000001e0: daeb 133c 1061 183e c119 e23c b671 1f3e
000001f0: 936f 95bd 257e 083f 4745 ad3d b6d6 bd3d
00000200: 854f 323d aa71 673b c0f0 52be 9612 4bbe
00000210: 7d26 6dbe 23de 003e 9850 cfbd a702 b8bb
00000220: 2d39 1c3e 4ae9 e0bd b8a0 2b3d d085 a23e
00000230: 976f 6bbe c89b 9f3e cc74 5abe 2476 a43e
00000240: 4e9f 7fbd ca0d 243e a9de f1bd 63bc 793d
00000250: 1f77 af3e 27a6 3bbe 5f28 84bd 7521 9e3e
00000260: 8b20 8d3d 0101 003e b988 37bd a0f8 843e
00000270: 94ab cabd 56d0 6ebe ccae 90be 4e13 99bd
00000280: 8fc5 b6bc 9911 3ebd a2bd 72bd 3991 01be
00000290: 1885 f23d 9b6a ed3c cdf6 5f3e de6e 17bd
000002a0: 88a6 95bd 6331 6e3e ffd9 c0be 2d03 903e
000002b0: 96ac b93c b88e debc 1d48 4bbe fb5b 6e3e
000002c0: 034a 79be b7a7 123e c546 55be 7451 b6bd
000002d0: 7e91 443c 84ff 7cbe 03b5 84be 92b6 063e
000002e0: ca3f f9bd 7c6c 133e 9ec5 f8bd e39d f7bd
000002f0: 9a70 6ebe 6086 5b3d 4048 8fbd bb2e 5ebe
00000300: 639f 59be 2c04 9cbd 823d 203e 906b 72be
00000310: 27e2 2f3e db14 043e b2ab 42bd 062d 7abe
00000320: c409 6dbb 3aca 1b3e 9652 97bd d820 2b3d
00000330: 600d 503d 68d5 0a3e 63c9 05be f062 873e
00000340: bde7 e8bd b8a3 28be 7d02 1abe 1e00 cebe
00000350: 42e8 063d 6f21 883e 93f3 e8bd d7bf 7b3c
00000360: 13bd e9bd af8e 093e f381 03be 0e62 c93b
00000370: 8a09 8dbe 0012 223e 9061 19be e828 d2bd
00000380: 8a98 34be 5bf3 a4bd 5a2b 4dbd b393 20bd
00000390: 1ae7 543e 9ff1 27bd d884 973e ec74 083e
000003a0: 5f92 d3bd 36ec 84bd 4bd3 34be a4b4 373d
000003b0: 47b3 c43d 02e2 a93e 8804 593d 2efa 833d
000003c0: 534f 3dbe f436 d7bd e633 a73d f5b4 92bd
000003d0: dfa6 30be be6e 51be dccc d63d 9d55 223e
000003e0: a11c ba3c bb83 14bc 103d 4d3e 55bf 243e
000003f0: 2975 87bd ef3d f03e fcac 653e 6bbd 4d3d
-0.15836406 0.3839391 0.120521486 -0.11005905 0.17246589 0.41598886 -0.07163761 0.19058391
0.040803384 -0.10089033 -0.17473002 0.10122895 0.12455756 -0.019172363 -0.03466773 -0.20299754
-0.32674664 -0.23652656 0.14903824 -0.15242513 0.2522139 0.14838707 -0.20023966 0.024875123
-0.033286277 -0.033831544 -0.35994357 0.106292255 -0.29003683 0.34468794 -0.28760043 -0.038166367
-0.36597055 0.09946768 0.4744518 0.085152835 -0.13388091 -0.0004131795 0.123876 0.26559696
0.08242663 -0.021169055 0.1842639 -0.09859649 -0.12743495 -0.034891855 -0.026097624 0.10102349
-0.39420822 -0.23083946 0.089903034 -0.011437757 -0.060053367 -0.224477 -0.18085912 0.19495063
-0.03961874 0.19953124 -0.14879638 -0.30083135 -0.20100163 0.15189356 0.071638845 0.25032854
-0.038156915 -0.35703984 0.11376866 -0.003402596 -0.13489717 -0.0013244378 -0.005566303 0.18774866
0.08862041 0.1420088 0.15586756 -0.004648188 -0.20031288 -0.08069408 -0.4095665 0.0043321773
-0.013221978 0.17753965 -0.08702275 -0.10057769 0.23921247 0.056260943 -0.017341625 0.22942744
-0.04865264 -0.38557076 -0.007247111 -0.053324405 -0.09237628 0.084341556 -0.12559813 0.1774444
0.09488538 0.0643254 -0.13339217 -0.30565622 0.04461285 0.03922352 0.28285867 0.021179982
-0.12521948 -0.03512607 0.009672051 0.18844278 -0.3616997 -0.115292124 0.06471642 0.103111535
-0.118932396 -0.18436067 0.15384436 -0.035749704 -0.06971879 0.10821034 0.040997904 -0.09055067
0.009028399 0.14880776 0.027600171 0.15570721 -0.07296672 0.5331748 0.08460479 0.092694685
0.043532867 0.0035315552 -0.20599651 -0.19831309 -0.23159213 0.12584738 -0.10122794 -0.0056155506
0.15256186 -0.10981996 0.04190132 0.31742716 -0.22991787 0.3117354 -0.21333617 0.32121384
-0.062407784 0.16020885 -0.11810047 0.060970675 0.3427057 -0.18325101 -0.06453013 0.308849
0.06890973 0.12500383 -0.044808123 0.25970936 -0.09896007 -0.23321661 -0.2825836 -0.07474385
-0.022311 -0.0464035 -0.05926288 -0.12653054 0.11841792 0.028981498 0.21871491 -0.036970966
-0.07307154 0.23261027 -0.37666318 0.28127423 0.022665303 -0.027167663 -0.19851728 0.23277275
-0.2434464 0.1432179 -0.20827778 -0.08902255 0.011997579 -0.24706846 -0.2591935 0.13155583
-0.1217037 0.14396852 -0.121470675 -0.120906614 -0.23285142 0.053594947 -0.069962025 -0.21697514
-0.21252207 -0.07617983 0.15648463 -0.23673844 0.17176114 0.1289858 -0.047527023 -0.24431238
-0.003616915 0.15213862 -0.07388799 0.04177937 0.050794005 0.1355797 -0.13065104 0.2644267
-0.113723256 -0.16468704 -0.15040012 -0.40234464 0.032936342 0.26588008 -0.11374583 0.015365562
-0.11413016 0.13433336 -0.1284254 0.006145722 -0.2754634 0.15827179 -0.14978623 -0.102617085
-0.17636314 -0.08054229 -0.05009017 -0.039203357 0.20791283 -0.041001912 0.2959354 0.13325852
-0.103306524 -0.06490366 -0.17658727 0.044850007 0.09604507 0.33180243 0.052982837 0.06444202
-0.18487291 -0.10508528 0.08164196 -0.07163421 -0.17251156 -0.20452401 0.104882926 0.15852971
0.02271873 -0.00906461 0.20042825 0.16088612 -0.066141434 0.46922252 0.2242927 0.05022947

encoder.layers.0.linear1.bias f4 [64]
00000000: 52a0 e23c 4fd8 7abe 7e40 b4be 934e 37be
00000010: fdb7 9ebe fd79 bfbe 872b c2be d0bd 7ebe
00000020: 7229 f2be a51e 63be 90bd 89be f3f9 1bbe
00000030: 89e7 81bd 7a0f c1bd 1f90 21be 5d5a 88bd
00000040: f192 adbe f069 1abe e2fe 49be a205 b4bd
00000050: c59d aabe 07c6 d5be 6a63 9cbe c3cc 38be
00000060: 2a99 09be e966 bebe 9e6a b6bd 8ecd 17be
00000070: 0ff8 83be 8853 e6be b25c 1fbe da03 29be
00000080: 2253 03be 0993 c9be 4b79 b4be e70c 8cbe
00000090: f512 53be 91df 31be c453 57be 093e 96be
000000a0: 19c4 05be ce1e e2be 5202 ccbe 619a e6bd
000000b0: cd27 51be 8b66 1abe 7446 a1be 90c5 6abe
000000c0: d81b b3be 9533 15be 56a9 8cbd 4a1e a5be
000000d0: c749 a73c bc34 93be a0bd 53be 5571 78be
000000e0: 9740 f8be cd7f aebe 3d7b 94be 8f73 92be
000000f0: bddc 2abe 40db 7cbe 9dfb 82be a0f1 95be
0.027664337 -0.24496578 -0.35205454 -0.17901067 -0.30999747 -0.37397757 -0.37923834 -0.24877095
-0.47297245 -0.22179659 -0.26902437 -0.15232067 -0.0634299 -0.0942678 -0.15777634 -0.066578604
-0.3390117 -0.15079474 -0.19726136 -0.08790137 -0.33323494 -0.41752645 -0.30544597 -0.1804686
-0.13437334 -0.3718789 -0.08907054 -0.14824507 -0.2577519 -0.44985604 -0.15562704 -0.16505376
-0.12824681 -0.3936999 -0.3524879 -0.27353594 -0.206127 -0.1737044 -0.21028048 -0.29344204
-0.13063087 -0.44164127 -0.3984552 -0.11259914 -0.20425339 -0.1507818 -0.31499064 -0.22926927
-0.3498218 -0.14570458 -0.06868236 -0.3224967 0.020420922 -0.2875117 -0.20677805 -0.24261983
-0.48486778 -0.3408188 -0.29000273 -0.2860379 -0.16685767 -0.24693012 -0.2558259 -0.29285908

encoder.layers.0.linear2.weight f4 [16, 64]
00000000: 497b c73d 2d4e 84bd fef3 923e 48ec 09bd
00000010: 37ab b0bd 85fc 9cbd 6dff c23c efdb c0bd
00000020: e0b3 303a a754 b73d 76ce 433e 85fa dabc
00000030: 691c c8bd 7d05 babd be9e 963d 3c0e adbd
00000040: 14cb ba3d b630 7a3d 6327 5f3e d3c6 2fbe
00000050: 2b32 813e 5a02 1f3c 81b7 adbc 6e17 f1bd
00000060: 07ea 96bd 53b4 12be 6a9c a2bb 827f 623e
00000070: f124 d4bd 68a1 6abd dc42 373e abcd 1bbe
00000080: e0fa 15be a585 7d3d 630e bcbc 6226 0d3e
00000090: bc4a ff3d 5e56 19be 913d 823e 3bfb e43d
000000a0: 2375 da3d d4f5 443b d12a 74be 153e 7fbd
000000b0: 37e1 093c 4054 613e 2f5f 0a3c b6ea 583e
000000c0: 96f4 4d3d 36e2 b7bc a49f 113e 0483 aebc
000000d0: bc0d 323c ea2b fb3d 7db5 02be 695d 84bc
000000e0: 7033 543d 7c2b 8ebd a224 633e 6402 4b3e
000000f0: b7a0 673e 62e6 3b3e 0578 39bc a951 97be
00000100: f4ac 773c 0fe1 4a3e 6ce4 643e 320a ba3d
00000110: 7bfd 1e3e 3216 6fbc c410 253e a1d7 793d
00000120: 2a46 98ba 198c 873e 287b 02bc 16a0 a53d
00000130: 4c65 573d 67fb bf3d 31b6 b8bd 73db 5cbe
00000140: 6931 81be bd00 3cbb c440 73bd 5260 9bbd
00000150: 422e 0c3c 3e2e 7abd 2653 f43d 664b 003d
00000160: 3067 ef3d 4410 e9bc 125c 9b3e 4e45 413e
00000170: 5af9 b03d 7055 383c b8fa 5c3e 8c04 743d
00000180: e80f 45bb e5a7 1f3d 2007 a3bd 301a 3c3e
00000190: df7f fb3d c305 723d 010a 433e 7fdc 8c3d
000001a0: b4c0 75bd c929 2fbe 2e79 923d 400b 243e
000001b0: 1c2a 9dbc eb52 34bd 3b61 733e ea25 12bd
000001c0: 5cf9 bd3d a517 ed3d c472 9abd ef15 213e
000001d0: 66f1 033e f1de df3d 4e45 643d 642d 45be
000001e0: 46fc 383e 277b 80bc 2ba4 a0bb 07d8 aa3e
000001f0: eba1 093e 2c1f cb3e 94c0 cf3d 8263 b1bb
00000200: a413 15be 8a17 263d 02df 183e 6151 4ebe
00000210: 4109 d83d be33 c4bd b4b7 293e e78a 50bc
00000220: dd6c 9fbd 1ab7 663d fbc1 ff39 85a4 53bc
00000230: 9320 0fbe b6af 343d 8a68 d83d 4a71 383e
00000240: dcbc de3d 3a3c 683e 2869 18bd f348 403e
00000250: fb8f 0f3e 25ec 033e b87d 75bd b307 7f3e
00000260: e20d 8b3d 1552 e03d 3eb5 1f3e eeae a93d
00000270: 48a3 12bd 18cb e63c 897a 1cbc 674d 80be
00000280: 9cdb a83c 0b79 32bd a44c e7bc 678c 4e3e
00000290: 0969 153d 0c20 6c3d 89c7 8cbd 07e9 fd3d
000002a0: 055a 2b3c 828e a4bc faf1 9bbd b057 35bd
000002b0: ad01 c63d e40f ce3d fd0c babc 7e22 a3bd
000002c0: a7b5 adbd 6221 07bd 1c53 0d3e d03a 2b3e
000002d0: c5f5 a93d 5768 653d dfda 40be 4d35 913e
000002e0: 259c 60bc 6213 223d 18ca 243e 78b6 ee3d
000002f0: 26d7 013e e5a2 013c bda3 d13d ec2a f03d
00000300: 5ac2 51be af20 893e 1819 933d 51fe 6bbe
00000310: 790f 2fbd c951 f2bd d75d ff3c 8429 a4bc
00000320: 9bcb 25be 3fe1 7d3d 9586 ec3d 5eab d93d
00000330: 7779 cd3d 3ebd 3c3e 112e 87bd 6194 e2bd
00000340: 6797 1ebe 2f7f 02be 4c9e 8a3d 6e60 16be
00000350: dc59 d33c 38b7 39be 599c ff3c 3e7c 06be
00000360: 36c8 fabd 3130 11bd b5cd 05bd 507c b63d
00000370: 2bd4 1bbe 0b77 dabd b5aa 793d 8cbc 033d
00000380: 1794 5b3c 0874 2e3d 6c68 dbbd 92aa 52be
00000390: 3584 c13d e77e 77bd 7aa6 2a3e fa12 e5bc
000003a0: a2de 4a3d 0873 b1bd 063f 2e3c 2e56 74be
000003b0: bc51 973d ebba 813d ade2 313b e308 5ebd
000003c0: 38b9 8d3d 8502 f5bd c070 b03d dfd8 9e3e
000003d0: f544 123e c08e 323e d1eb 60be 304b e0bd
000003e0: b4dd 42be a360 783c 425a 0f3c ecc0 a23e
000003f0: d708 873e 00f9 aebd 6c94 65be ba05 43be
0.09740312 -0.06460223 0.28701776 -0.0336726 -0.08626407 -0.07665352 0.023803437 -0.09416949
0.00067406707 0.08951693 0.19121727 -0.026730785 -0.09771044 -0.09083078 0.073544964 -0.084499806
0.09120765 0.06108161 0.21792369 -0.17165689 0.25233588 0.0097051505 -0.021205666 -0.11772047
-0.07368856 -0.143266 -0.0049624937 0.22118953 -0.103586085 -0.057282835 0.17896599 -0.15215175
-0.14646482 0.06189503 -0.022956079 0.13784173 0.12465426 -0.14974353 0.25437596 0.11180731
0.10666873 0.0030053752 -0.23844458 -0.062315065 0.008415512 0.22004795 0.008445545 0.21183285
0.050282083 -0.022446733 0.14221054 -0.021302707 0.010867532 0.12264235 -0.12764545 -0.016157823
0.051806867 -0.06941888 0.22181943 0.1982513 0.22619902 0.18349603 -0.011320119 -0.2955449
0.015116919 0.19812416 0.22352761 0.09083976 0.15526383 -0.014592694 0.16119677 0.060996655
-0.001161759 0.26474074 -0.007963933 0.080871746 0.05258684 0.09374123 -0.09019125 -0.21568088
-0.2523301 -0.0028686963 -0.059387937 -0.07586731 0.008555951 -0.061079256 0.11929922 0.031321906
0.11689603 -0.028450139 0.30343682 0.18874094 0.0864131 0.011250839 0.21580017 0.05957465
-0.0030069295 0.038978476 -0.07960343 0.18369365 0.12280249 0.059087526 0.19046785 0.06877994
-0.05999823 -0.17105784 0.071520194 0.16019917 -0.019185118 -0.04402439 0.23767559 -0.03568069
0.09276077 0.115767755 -0.07541421 0.15731023 0.12885055 0.109311946 0.055730157 -0.19255596
0.18064985 -0.015683724 -0.004902383 0.3336794 0.13440673 0.3967222 0.10144153 -0.0054134736
-0.14558274 0.040549792 0.1492882 -0.20148231 0.1054864 -0.095801815 0.16573983 -0.012728429
-0.07784436 0.056326963 0.00048781917 -0.0129176425 -0.1397727 0.044112884 0.10566814 0.18011966
0.10875866 0.22679225 -0.03720966 0.18777828 0.14019768 0.1288305 -0.059934348 0.24905281
0.06789757 0.10953156 0.15596482 0.08285318 -0.03580025 0.028173015 -0.009550699 -0.25059053
0.02061253 -0.043572467 -0.028234787 0.20170747 0.036477122 0.05764775 -0.06873996 0.12397962
0.010458474 -0.020087484 -0.07614513 -0.04427308 0.096682884 0.10061625 -0.022711271 -0.07965563
-0.08481913 -0.03299082 0.13801235 0.16721654 0.0829883 0.05600771 -0.18833493 0.28360978
-0.013709103 0.039569266 0.16092718 0.11655897 0.12679729 0.007912372 0.10236309 0.11726937
-0.20484295 0.26782748 0.07182521 -0.23046233 -0.042739365 -0.118320055 0.031172676 -0.020039327
-0.1619095 0.06198239 0.11549107 0.10628389 0.10032933 0.18431565 -0.06600583 -0.11063457
-0.15487443 -0.12743829 0.06768474 -0.14685223 0.025799684 -0.18136299 0.031202482 -0.13133332
-0.122452185 -0.03544635 -0.03266688 0.089104295 -0.15217654 -0.10667237 0.060953815 0.032162234
0.013402007 0.042591125 -0.10713276 -0.2057288 0.094490446 -0.060423758 0.16665068 -0.02796315
0.049528725 -0.086645186 0.010635143 -0.23861 0.073886365 0.0633448 0.0027143166 -0.054207694
0.06920093 -0.11963371 0.08615255 0.31024835 0.14284118 0.17437267 -0.21964957 -0.10951841
-0.19029886 0.015159759 0.0087495465 0.31787813 0.26373932 -0.08543587 -0.224199 -0.19045153

encoder.layers.0.linear2.bias f4 [16]
00000000: b151 ae3c 926c 37bb bba5 7a3d f3b5 723d
00000010: 8ce8 9f3d ca6c 93bd 13e1 b73d 2083 f1bb
00000020: e1d4 103d d7aa e03c c2b3 93bb c9c3 ff3c
00000030: 8907 e9bb 2ccc 2abc f0ee 37bc 78ac c43d
0.021279188 -0.0027988297 0.06119321 0.05925555 0.07808027 -0.07198484 0.089784764 -0.0073703676
0.035359267 0.027425213 -0.004507513 0.031221287 -0.007111494 -0.010424655 -0.011226401 0.09603208

encoder.layers.0.norm1.weight f4 [16]
00000000: cb1f 323f 9170 133f b699 2d3f 8c4a 193f
00000010: 4ec9 7c3f 15c5 293f 79a1 eb3e 4428 5c3f
00000020: 7f94 b13e ca9c 9d3f 1cfa 2340 8de8 853f
00000030: a70a 183f cf78 3f3f 7fac eb3e 7bfa 4e3f
0.6957976 0.5759364 0.6781267 0.59879375 0.98744667 0.6631635 0.4602163 0.8599894
0.34683606 1.2313473 2.5621405 1.0461594 0.59391254 0.74793714 0.46030042 0.8085095

encoder.layers.0.norm1.bias f4 [16]
00000000: 48d6 1a3f f3da 923d a84a 9cbd 0035 d03d
00000010: 0e7e b73d f3fd fbba 3f62 d0bd f058 98be
00000020: 515c 243e 5b0d 45bd bbb1 19be 9d70 38be
00000030: 1c03 773e f9cf e4be 9b59 193f 2283 43bc
0.6048322 0.071706675 -0.07631427 0.10166359 0.0895959 -0.0019225463 -0.10174989 -0.29755354
0.16050841 -0.04810844 -0.15009205 -0.18011709 0.2412228 -0.4468992 0.5990235 -0.01193312

encoder.layers.0.norm2.weight f4 [16]
00000000: afa4 6e3f 389e 4e3f f09b 563f 78e9 ed3e
00000010: 10fb 643f ae90 4f3f d366 373f 4467 223f
00000020: 1bed 813f 19c9 9e3f f6eb ea3f 1dd5 613f
00000030: fcc9 283f 1ad0 543f 30d6 503f 6a60 303f
0.9322004 0.8071017 0.8383169 0.46467185 0.8944559 0.8108014 0.7164127 0.6343882
1.0150484 1.240512 1.835326 0.8821581 0.65933204 0.8313004 0.81576824 0.68897116

encoder.layers.0.norm2.bias f4 [16]
00000000: 7612 0f3f 264c 583d eaf6 793d 7cc4 883d
00000010: 2d54 af3d 0d17 613d b08f 00be 699f 39be
00000020: c147 21be d1ed b1be b3f0 1ebe fe1b f53d
00000030: 5044 083e 4804 b33c 3a1b 8a3e f765 0b3e
0.55887544 0.052806996 0.06102649 0.066781014 0.08560977 0.054953624 -0.12554812 -0.18127216
-0.15750028 -0.34751752 -0.15521507 0.1196823 0.13307309 0.021852627 0.26973897 0.13613115

encoder.layers.1.self_attn.in_proj_weight f4 [48, 16]
00000000: c1a2 043e c543 ae3d caf6 9cbd aabd 953e
00000010: 476b 4e3d fd6f ecbd 5e16 313e 4d14 333e
00000020: e482 593e 072b 2dbe 435d bbbe f089 0fbe
00000030: e86a 7b3e 949c a2bd bdf1 2ebe 1dd6 0b3e
00000040: 562a 143e 775d 89be cf04 6f3e a088 e7bc
00000050: 910b 6cbe 3c16 0c3e a3b8 67bd 5f20 323e
00000060: f3fb ad3e 04f8 5dbd 04eb 013e b83c d4bb
00000070: f961 07bf 5dc1 05bd fc91 0f3e 78c4 84be
00000080: e5dc 3bbe 4756 563d 75f1 9cbe 5c4f b9bd
00000090: deca bcbd 3da6 2bbe 9492 363e ce41 713e
000000a0: 730b a3be 03f9 963e 2b96 023f 17f6 a8be
000000b0: 1461 2d3d 6bb7 f73c 2764 3dbd 87d2 7f3e
000000c0: 125f c4bd e888 15be c345 823e 742f 963e
000000d0: 9c20 973e 7528 71be 1376 aabd a28c 6f3c
000000e0: 914d 67bd 1009 3cbd 3e5a 65be 4ce4 483d
000000f0: 0142 913e 989a 91ba e48d 5e3e 5537 a6bd
00000100: 37d0 c9bd 9426 33bd 02ae 2d3e 9013 b73e
00000110: ceb6 643e 0430 b93c ac17 02be 5430 1b3e
00000120: 582b 7fbe adf2 1dbe 1efb 0e3e cfd6 11be
00000130: 0701 c33c 8baf 1c3e 4320 ea3d 9cfe 26be
00000140: 10ad 87be b9d1 09bf 3315 423e b00a f7bd
00000150: 9ae8 8ebd 5805 073f 2dce e33c 9e5e 41be
00000160: ce70 413e 6f97 86be 085d 3f3e 4e06 10be
00000170: e834 2b3d df85 91be 5e5f 37be fa7c 183e
00000180: a4cf b23d 87d7 733e 59cf 98be 1f6c b5be
00000190: 7447 1e3d 91db 01be 1299 67bd 8742 143e
000001a0: 2c6b e33d a721 e63e 3497 86be f534 d2bd
000001b0: 1b7e 1fbe 56fb c13e 20ad e03d f076 d8bd
000001c0: c217 3fbe 507d ebbd 5c9e a1be 3e19 30bd
000001d0: 7f55 eebe 03ae e13d 61ba 463d d1b7 e83d
000001e0: ae30 203e 08bf 393e 17d6 bdbd 45cb b8bd
000001f0: 1b31 b9bd ebda 2f3e e3b4 d8bd b94c b33c
00000200: 6a86 94bd 4b92 1abe e7e8 333e 13a2 03be
00000210: 5a7a fbbd d15c 503e 50f8 22be 13fe ba3e
00000220: ce11 843d bc00 62be f35a 90be 2a3b f1bc
00000230: c65a 0a3d c39b 9dba 2ae4 50be c973 98bd
00000240: 4574 323e 14da 2bb9 9c66 59be 7351 fc3d
00000250: b5ed 8a3d c7ff 583e bc3e ef3e 616b 6f3e
00000260: bddf ab3d 55f7 b3bd d577 843d b5a5 90bd
00000270: d022 de3c 3db1 df3c 8a27 64bd 2c54 0d3d
00000280: 3073 933e 7616 823e 6e6d 43be 26db 693d
00000290: d968 343e 2018 07be 68ab 3b3d 0a74 e23e
000002a0: e38d e43d 7866 5bbd 00fc 33bd 4458 18bd
000002b0: a1fd 25be 7601 cb3d e67a 1e3e a5aa 7d3d
000002c0: 3927 78be 61b9 c33e 955a b6bd 5363 1b3e
000002d0: 9f41 8a3d 5760 a53c ca80 d63e 388c 98be
000002e0: 7385 a9bd 3148 e93e 99b8 f23d e9f3 2b3e
000002f0: d051 5bbe 5708 b1bd c89b b23d 52a5 3c3e
00000300: 8061 a23e 1b18 20be 39d4 f53e 7f74 e7ba
00000310: bde3 a8be 87eb bfbd 3f82 88be 384a a63d
00000320: 2508 a3bd 83dd 6abe d5cf 473e aa38 d83b
00000330: 280f 13be 62bf 9ebe 873a 083f bd5a f53d
00000340: 1f31 c3bd bc03 a0be 3a0a 20be c219 eb3d
00000350: 3cc0 723d 1b84 f03d b520 16be 9bd5 e0bd
00000360: 47da 563e 8e37 75be b604 133e fb56 72be
00000370: 47b1 833e 608a b6bd d65c 84be 8297 e3bc
00000380: 8329 0fbe f2ab efbd d755 0e3c e84a 1fbe
00000390: cac4 a13e 506c 11be cf68 1f3c 35c7 863d
000003a0: dea3 c73d f911 843c 3b7f 753e 1e28 94be
000003b0: 82e0 a4bd df5e b4bd 79c8 0c3e 7d0e 18bd
000003c0: 0ace 62be ba3e d23d f942 823e 6793 dd3d
000003d0: 2314 843d 1c0d 483e 0d06 103e ca8e 80be
000003e0: 8f8b 083e 62a0 233e 5cf9 82bb be6e e83d
000003f0: f3ac c73e 5486 efbd 3feb 9fbe bd7b 703e
0.1295271 0.0850902 -0.07664259 0.29246265 0.050395276 -0.115447976 0.17293689 0.17488213
0.21241337 -0.16910945 -0.3659459 -0.14017463 0.245525 -0.07940021 -0.17084403 0.13655896
0.14469275 -0.2682912 0.23341678 -0.02826339 -0.23051287 0.13680357 -0.056572568 0.17395161
0.33981284 -0.054191604 0.12687308 -0.006476965 -0.5288387 -0.03265511 0.14020532 -0.25931144
-0.18345983 0.052328374 -0.30652967 -0.0904834 -0.09218381 -0.16762634 0.17829353 0.23560259
-0.31844673 0.29486856 0.5101039 -0.33000252 0.04232891 0.030238828 -0.04623809 0.24982654
-0.09588446 -0.14603007 0.2544385 0.2933308 0.29517066 -0.2355059 -0.08323302 0.014620932
-0.056470457 -0.04590708 -0.22397706 0.049045846 0.2837067 -0.0011108695 0.21733814 -0.081160225
-0.09854167 -0.043737963 0.1696091 0.35757113 0.2233536 0.022605903 -0.12704343 0.15155154
-0.24918878 -0.15424605 0.13962981 -0.14242099 0.0238042 0.1530134 0.11431935 -0.16308063
-0.26499224 -0.53835636 0.189534 -0.12062585 -0.06977959 0.5274253 0.027808273 -0.1888375
0.18890688 -0.2628741 0.18687832 -0.14064905 0.041798502 -0.28422448 -0.17907473 0.14891425
0.087310106 0.23812686 -0.29845694 -0.35434052 0.03864236 -0.12681414 -0.056542464 0.14478503
0.11104426 0.4494755 -0.26287234 -0.10264007 -0.15575449 0.37887067 0.10970521 -0.105695605
-0.18661407 -0.11498511 -0.3156613 -0.042992823 -0.46549603 0.11019518 0.04851759 0.11363185
0.1564357 0.18139279 -0.0926935 -0.090231456 -0.09042569 0.17173354 -0.105813764 0.02188717
-0.072522 -0.15094869 0.17569314 -0.12854795 -0.12279196 0.20347907 -0.15915036 0.36521968
0.064487085 -0.22070593 -0.2819439 -0.029447157 0.033777975 -0.001202457 -0.20399538 -0.07443959
0.17427166 -0.00016389071 -0.21230549 0.12320223 0.0678362 0.21191321 0.4672755 0.23380806
0.08392284 -0.08787409 0.06468169 -0.07062856 0.02711621 0.027306193 -0.05570177 0.0345041
0.2879882 0.2540776 -0.19084713 0.05709376 0.17618121 -0.13192797 0.045817763 0.44229156
0.11159875 -0.05356452 -0.043941498 -0.03719355 -0.16210033 0.09912388 0.1547657 0.061930317
-0.24233712 0.3822737 -0.08903996 0.15174608 0.067507975 0.02018754 0.41895133 -0.29794478
-0.082774065 0.4556289 0.118516155 0.16792263 -0.21417928 -0.08644169 0.08721119 0.1842244
0.31715012 -0.15634196 0.48013476 -0.001765862 -0.3298625 -0.09371095 -0.2666187 0.08119625
-0.07960538 -0.22936063 0.19512875 0.0065985518 -0.1436125 -0.31005388 0.53214306 0.119801976
-0.095308535 -0.3125285 -0.15628901 0.11479522 0.05926536 0.11743947 -0.14660914 -0.10978242
0.20981704 -0.23946974 0.14357266 -0.23665993 0.2572119 -0.08913112 -0.25852078 -0.027782205
-0.13980679 -0.11702718 0.008687458 -0.15555918 0.3159545 -0.14201474 0.009729578 0.065809645
0.09748052 0.016121851 0.23974316 -0.28936857 -0.08050634 -0.08807158 0.13748349 -0.037123192
-0.2214891 0.102658704 0.2544172 0.108191304 0.06449153 0.19536251 0.14064808 -0.2510894
0.13334487 0.1597915 -0.003997011 0.113492474 0.38999137 -0.11695543 -0.31234166 0.23484702

encoder.layers.1.self_attn.in_proj_bias f4 [48]
00000000: 00bf 383e f8be aabd 8819 5bbe d2b1 833e
00000010: 05e7 573e 305c 9bbd d1f5 0dbe 6f9a 37be
00000020: c985 1e3d 1253 7bbd db1b cbbd cafe 223e
00000030: c0ce a43d 30f3 0abc 7ac2 29bc face 19be
00000040: d577 36ba 9568 95ba a023 0e3c 9ff4 913a
00000050: 1f36 ffb8 db9e 3339 1840 f9ba d4e1 8d3a
00000060: 6f34 683a 5565 80ba 166d b3b9 7855 95ba
00000070: 571c 43ba 2ea3 60bb e329 deba 3fd8 deb9
00000080: 68e7 19be 8e69 bbbd d82e 013c a110 6d3d
00000090: 2846 d43c b8fa 27be 4e2d 84bc 689d e53a
000000a0: bba0 6abc b3af 193d 3f1e b33d 58eb 7a3d
000000b0: 821b 5f3d 8663 d4bd 2e4b ad3c 02ea 39bd
0.1804161 -0.08337206 -0.21396458 0.25721604 0.2108422 -0.07585943 -0.13863303 -0.17930005
0.038701806 -0.06135852 -0.099174224 0.15917507 0.08047247 -0.008480832 -0.010361308 -0.15020362
-0.00069606054 -0.0011398966 0.008675486 0.0011135525 -0.000121694284 0.00017129949 -0.0019016294 0.0010824748
0.0008857911 -0.0009795824 -0.00034222816 -0.001139327 -0.00074428826 -0.003427695 -0.0016949739 -0.00042504256
-0.1502968 -0.09150992 0.007884704 0.057877187 0.02591236 -0.16404235 -0.016134884 0.0017518224
-0.014320548 0.037521075 0.08746003 0.061259598 0.054469593 -0.10370545 0.021154013 -0.045389183

encoder.layers.1.self_attn.out_proj.weight f4 [16, 16]
00000000: 4ffe 14bd 111d 3f3d 00d2 913c 29e3 fe3c
00000010: 7c6d 37be 5306 17be 7126 43bd 3ab4 5f3b
00000020: e47e 013e 6015 063d 0c0a ac3d b2a6 953d
00000030: 3a04 9cbd 9f58 71bc 6f78 423d 18ce 0bbd
00000040: 8c5c e03d a0b4 7dbd 2922 303e 20ef a13d
00000050: 3ed2 dfbd 2c01 49bd 4c32 e93b fdc0 8bbd
00000060: 3a4f f5bc 74ae 463e f1a4 9ebe 06ed b23c
00000070: 4ca8 0bbe dfbf 8a3e 61a9 003b 632a 2abe
00000080: bb14 253d ea22 eabd 8448 e7bd f02c fd3d
00000090: 06a1 163e ad31 d3bc 3281 84bc 82e0 413e
000000a0: f054 da3d 2bc1 c83d 8160 4f3d 1d81 a4bd
000000b0: b567 25be 8102 d4bc eb97 d03a 429c 62be
000000c0: 9bf8 21bd 7775 163e 5a39 b33e f5f8 333e
000000d0: 67a8 673e 36e7 f9bc 5fae 05bd 0014 2fbd
000000e0: bd95 f23d 36af 573e 855e d33d ff07 67bd
000000f0: 3651 343e b4f0 f2bd 06ed 38be 7a44 383e
00000100: 390c eb3d bacf 193e 00e6 cdbd a5fc c83d
00000110: 30cf adbd c544 bcbd 4a18 c33d 93a0 2d3e
00000120: 1d17 4a3e 4f29 2eba f85d ed3c 5752 b5bd
00000130: 5ae3 0f3e 10a0 42be be74 8dbc f47d 89bd
00000140: fb3b 14be 2e31 1cbd 57e4 b2bb 6836 0cbe
00000150: f56f 22be ef63 a73e 05ef 9ebd 92a9 34bd
00000160: 408d 81bc dced 99bd 7256 a0bd 713d 4ebd
00000170: e11a 233e c1f8 b7bd e369 103d aaf1 85bd
00000180: 25a7 72be fd20 62bd bcf2 f1bd 659b 063d
00000190: ac1f 79be 1cbe f83d 63be 883d c290 cdbd
000001a0: 115f 2d3d 4666 123d 8072 cfbd de01 07be
000001b0: 7ceb 163c e9ff 3a3d 361a 473e 032e 95bd
000001c0: e860 bf3d eb9e 83bd 758f e6bd c75b 71bd
000001d0: d2b2 743e b23e 7f3e 8758 d13d 8d5a 493e
000001e0: b150 60bd cc9b e4bd 268e cd3c c5cd 00be
000001f0: 8ee8 bb3d 9bec f33a 657a 583e af63 61be
00000200: de35 94bd 0922 1fbd eb83 fa3c 49c5 7cbc
00000210: e139 1dbc cbac bebc ed4e aa3d ef02 5a3c
00000220: c04f ea3c 694e 4ebc d20b ad3c 948e eb3d
00000230: fd1c 6f3d eecc efbb 8d4e c73c ff01 35bd
00000240: a2c2 01bd 5102 26bd ab61 1cbd 2528 163e
00000250: 12dc 32be ca71 11bc 9ace 1c3c 41c2 88bc
00000260: 3fcb 18be e9da b63d 2263 ea3d 2f34 6e3e
00000270: 3897 193e 4cca 2cbe 1d2a 14bd dcf1 853c
00000280: 6e32 593c 6dd8 673c 7293 aebd 7c28 52bc
00000290: 4a8e e53c 52a9 f0bc f35a e8bc d05c 973d
000002a0: 16c7 8fbc 96b3 91bc 4465 b63c 5442 48bc
000002b0: e302 5638 4d03 163d cb62 c93c 4582 fc3b
000002c0: 5ae5 593e cf10 b7bc 228f a8bd 7bdd c7ba
000002d0: 62c8 c9bd a2ac 953d d8ce 393e d935 4fbd
000002e0: cad8 183a 3eae cabd 5801 04be c128 e6bb
000002f0: 9b8e 873e 69cf 3bbd 159b db3d b2dd 053e
00000300: b81f b03d d1b0 e03c d9a1 173e 85ca e0bd
00000310: c965 b03e ddfa dbbd 8d9c ddbd 8afe b4bd
00000320: e62d f8bd 2ae8 e33d 1464 26be 23d3 34be
00000330: 2426 08be e519 8d3c 8f7b f3bd 46cb babd
00000340: 05b9 763e a353 123e 3411 49bd fd78 d2bc
00000350: 3fd0 59be d3a2 463e 628d 173e f248 513d
00000360: 1f3a 0bbe e6a5 973d 1fb2 f2bd fed3 0a3e
00000370: f15e 80bd 2a05 d8bd 30eb 863d 98e1 043e
00000380: 1754 2abd b5ea ed3c 81ff 213e 5007 46be
00000390: 6707 b4bd 8787 86bd ca56 c53d 5f29 333d
000003a0: 3281 673c cd43 2d3e 7e52 073e 5dd5 6bbd
000003b0: 9ba7 433d 502a f83a 4197 0b3e 4a11 10be
000003c0: cde5 67be c74a 0a3e dfc3 d33d bfda 153e
000003d0: a1dd 29bc b5f7 0dbe 34f6 8a3e c7c5 77be
000003e0: dc1b afbd 23f6 003e e408 173d 8624 6d3d
000003f0: be00 dcbc 7df9 a3bd a7e7 463e 94a1 893e
-0.03637534 0.04665858 0.017800331 0.031114178 -0.17912859 -0.14748506 -0.047644082 0.0034134523
0.12646061 0.03273523 0.08400354 0.07307185 -0.07617994 -0.014730602 0.047478136 -0.034132093
0.10955152 -0.061939836 0.17200531 0.079069376 -0.109287724 -0.049073383 0.0071165916 -0.06823919
-0.029945005 0.19402486 -0.30985215 0.021841537 -0.13638419 0.2709951 0.0019632208 -0.16617732
0.040302973 -0.114324406 -0.11293128 0.12362087 0.14709863 -0.025780523 -0.016174886 0.18933299
0.10660732 0.09802469 0.050629143 -0.08032439 -0.16152842 -0.0258801 0.0015914416 -0.2212992
-0.03954373 0.14693247 0.35004693 0.17575438 0.22622834 -0.030505758 -0.032636996 -0.042743683
0.118449666 0.21062931 0.103207625 -0.05640411 0.17609105 -0.11862317 -0.18059167 0.17994872
0.11476941 0.15020648 -0.10053635 0.09813813 -0.084867835 -0.09192804 0.09526117 0.16955785
0.1973538 -0.00066437287 0.028975472 -0.08853596 0.14051571 -0.19006371 -0.017267581 -0.06713477
-0.14476006 -0.03813284 -0.005459349 -0.1369263 -0.1586302 0.3269343 -0.07760433 -0.044107027
-0.015814424 -0.07516071 -0.07828988 -0.050351564 0.15928222 -0.08982993 0.03525723 -0.065402344
-0.23696573 -0.05520724 -0.11813876 0.03286304 -0.24328488 0.121456355 0.066769384 -0.10037376
0.04232699 0.035742067 -0.10129261 -0.13184306 0.009211417 0.04565421 0.19443592 -0.07284167
0.09344655 -0.064267956 -0.11257831 -0.058925416 0.2389634 0.2492626 0.102219634 0.19663449
-0.054764453 -0.111625284 0.025092196 -0.12578495 0.09175216 0.0018609943 0.2114044 -0.22010683
-0.07236837 -0.038850818 0.030580482 -0.015427896 -0.009596319 -0.023275753 0.08315835 0.0133063635
0.02860248 -0.012591937 0.0211238 0.11501804 0.058377255 -0.0073181307 0.024329448 -0.044191357
-0.031679757 -0.040529553 -0.03817908 0.14663751 -0.17466763 -0.008877227 0.009570742 -0.01669419
-0.14921282 0.089284725 0.11444689 0.23262094 0.14999092 -0.16874045 -0.036172975 0.01635068
0.013256652 0.014150721 -0.08524217 -0.012827035 0.02802195 -0.029377613 -0.02836368 0.073907495
-0.017550986 -0.017785829 0.022265084 -0.012222845 5.1024264e-05 0.03662424 0.024583241 0.007705959
0.21278897 -0.022346882 -0.082304254 -0.0015248501 -0.09852673 0.07308318 0.18145311 -0.050588463
0.0005830644 -0.09896515 -0.12891138 -0.007023901 0.26475987 -0.0458521 0.10722939 0.13072851
0.085998 0.027428063 0.14807834 -0.109761275 0.34452656 -0.10741208 -0.10820875 -0.08837612
-0.121181294 0.11128266 -0.16249114 -0.17658667 -0.132958 0.017224262 -0.11888801 -0.091208026
0.24094017 0.14289717 -0.04908867 -0.025692457 -0.21270846 0.1939805 0.14800027 0.051094957
-0.1359639 0.074046895 -0.1185038 0.13557431 -0.06268109 -0.1054786 0.06587827 0.12976682
-0.0415841 0.029042581 0.15820123 -0.19338727 -0.087904744 -0.065688185 0.09635694 0.043740626
0.014129924 0.16920395 0.13215062 -0.057576526 0.047767263 0.0018933509 0.13631918 -0.14069095
-0.22646256 0.13505088 0.10340094 0.14634226 -0.010367782 -0.13864024 0.27140963 -0.2419654
-0.08550236 0.12593894 0.036873713 0.05789616 -0.026855823 -0.080065705 0.19424306 0.26881087

encoder.layers.1.self_attn.out_proj.bias f4 [16]
00000000: 9bed eb3d 4bae 103e 088b b13d 266d 933d
00000010: ac56 6c3d 11fe 28be b6d7 c13b 8148 3bbe
00000020: 9d42 223d 6311 21bc 390b 0cbc 2def 5dbd
00000030: 3b0c 6b3e 590d 21be 483c 873e 017c 563d
0.11519929 0.14128987 0.08669096 0.07198553 0.057699844 -0.16503169 0.0059156073 -0.18289377
0.03961431 -0.0098308055 -0.008547598 -0.054183174 0.22953884 -0.15727748 0.26413178 0.052364353
