log/20231223_130200/best_recall.pth (torch, 53389 bytes, 38 tensors)

encoder.layers.0.self_attn.in_proj_weight f4 [48, 16]
000000 31 e8 25 3e 85 7c 50 3e b8 f1 eb bd c7 06 89 3e
       0.16201855 0.2036 -0.115207136 0.26762983
000010 fc e8 fa 3d 64 bb 48 be 03 73 79 3e ef e2 35 3e
       0.122514695 -0.19602734 0.2436028 0.1776235
000020 28 ea 58 3d 0c 3c 18 be 3f c8 87 3d 6c f2 09 be
       0.052957684 -0.14866656 0.06629991 -0.13471383
000030 cc 3c 31 3e 26 21 17 be be 04 1d be 4d aa 9d bc
       0.17308348 -0.14758739 -0.1533384 -0.019246245
000040 fd 23 55 3e b4 c2 6e be 6e 5b fe 3c e3 cb 32 bd
       0.2081451 -0.23316461 0.031049456 -0.043651473
000050 69 f9 33 be 1a 3b 47 3e 75 bd 99 bd 64 40 3a 3e
       -0.17575611 0.19456139 -0.07506839 0.18188626
000060 c2 dd c1 3d 8f 08 8e bc 0b a1 b9 bd 0a 75 ed 3d
       0.09466125 -0.017338065 -0.0906392 0.11594589
000070 d2 6f a3 be 3e 62 eb bd 4e 19 80 3e 61 78 5e be
       -0.3192125 -0.114933476 0.25019306 -0.21725608
000080 0c 40 ee bc 4e 27 99 3d 65 95 90 be ae 20 42 be
       -0.029083274 0.074782 -0.2823898 -0.18957779
000090 97 16 0d be 03 bb 6c 3d ad 1b 87 3d 01 40 96 3e
       -0.13778149 0.057795536 0.065970756 0.29345706
0000a0 00 5b 5c be 15 b2 31 3e 1e 89 7c 3e 76 32 51 be
       -0.21519089 0.17353089 0.24661681 -0.20429406
0000b0 6c c8 99 be 83 c3 63 3d c4 e3 26 bd 9c cc d1 3d
       -0.30035722 0.055606376 -0.040744558 0.10244104
0000c0 17 82 b0 be 61 e2 aa bd 6f b9 d1 3b b8 4a ff 3d
       -0.3447425 -0.083439596 0.0064002792 0.12465423
0000d0 41 46 21 3e 2b 1b 57 be 22 f0 6a 3e dc c8 21 3e
       0.15749456 -0.21006458 0.22943166 0.15799278
0000e0 c7 da 34 3d 4a 63 de 3c 68 6f ea bd ef 2c 9e be
       0.044153955 0.027146954 -0.1144703 -0.30893657
0000f0 0b 9a 9a 3e 2b 27 b7 bd d4 fd de 3c 4f f1 81 be
       0.3019565 -0.089430176 0.027220644 -0.25379416
000100 35 ff bb bd d5 4d 83 be c7 c1 09 3e 5a a9 4a 3e
       -0.09179536 -0.2564532 0.13452826 0.19791165
000110 5e de 38 3d 53 1e 43 3d 86 6d 18 be e8 26 54 3e
       0.04513394 0.04763634 -0.1488553 0.20717967
000120 f2 d8 8e bd 4e 65 81 3d 08 54 02 3d 4f a7 2e be
       -0.06974973 0.063181505 0.03181842 -0.1705601
000130 6e 46 98 be c5 46 9f 3e 1e ef 77 3e 09 22 61 be
       -0.29741234 0.3110868 0.2421231 -0.2198564
000140 3a 0c 4f be c0 40 95 be 14 84 98 3e aa f3 a0 bc
       -0.20219508 -0.29150963 0.29788268 -0.019647438
000150 c3 8d e2 bd 3b 46 a0 3e 59 bf 20 be e3 66 59 bd
       -0.11062195 0.31303582 -0.15697993 -0.053076636
000160 4c 40 26 3d de a6 a9 be fc 1e c0 bd 38 29 52 be
       0.040588662 -0.33135122 -0.0938091 -0.20523536
000170 b2 3c 83 3e 1a ac 9d be 49 ac 20 bd 8c d6 56 3e
       0.25632244 -0.30795366 -0.039226804 0.2098028
000180 81 19 cd 3d b3 6b e7 3d 9e fa bd bd bf 5d 67 be
       0.1001463 0.11299839 -0.09276317 -0.22594355
000190 d6 17 25 3e f9 dd 69 3d b5 d7 17 be f9 ce 44 3c
       0.16122374 0.057096455 -0.1482838 0.012012237
0001a0 69 c8 36 3e 30 b4 b6 3e 48 98 39 be 1c f5 0d be
       0.17849888 0.35684347 -0.18124497 -0.13863033
0001b0 98 82 54 be 70 39 8e 3e 30 48 1c 3e af 7c 2c bc
       -0.20752943 0.27778196 0.15261912 -0.010527774
0001c0 8a a1 14 be 2b f0 29 bd 57 c0 b4 bd db b1 ac bd
       -0.14514747 -0.041488808 -0.088257484 -0.08432361
0001d0 f2 46 96 bd 30 30 7c 3e 71 2f 3b be 71 f3 a0 3c
       -0.073377505 0.24627757 -0.18279816 0.019647332
0001e0 77 84 97 3d 9e 62 fe 3d b4 5f f5 3d c9 89 d4 bd
       0.073983125 0.124211535 0.119811445 -0.10377843
0001f0 90 fb ad bd aa b2 ee bc ce 12 22 3d 6d 4c 01 be
       -0.08495247 -0.029137928 0.039568715 -0.1262681
000200 e2 62 5f be 9a ad 41 bd 28 a2 a9 3e 54 06 dc bd
       -0.21815065 -0.0472847 0.33131528 -0.107433945
000210 7e 93 2f be 15 11 44 3e cb 83 07 3d fe 7a 6d 3e
       -0.17146108 0.19147141 0.033084672 0.23191449
000220 e6 1f 4c 3e 86 51 3e be 24 0e 75 be d3 bd 21 3e
       0.19934043 -0.18585786 -0.23931175 0.15795068
000230 ec 64 80 3d ad 48 6f bd fd 55 63 be e5 d1 42 be
       0.06269249 -0.05841892 -0.2220077 -0.19025381
000240 37 f5 70 3e 08 d5 08 3e fe 93 22 be d0 57 3b bc
       0.23531042 0.13362515 -0.15876767 -0.01143451
000250 b3 c2 9a ba 10 b4 a3 3e b5 93 76 3e 40 f4 48 3e
       -0.0011807292 0.31973314 0.24079783 0.19624424
000260 85 0c b9 bd e0 de 3b 3d ea ef e0 3d f0 5b 08 3e
       -0.09035591 0.045866847 0.1098326 0.13316321
000270 15 33 89 be 9e 87 6a bc d2 44 ad 3e a9 3d 59 bc
       -0.26796785 -0.01431456 0.33841568 -0.01325933
000280 71 90 9c 3e 0b fc 23 3e dd 2a 38 be ae 7b 78 3e
       0.3057895 0.16014116 -0.17985101 0.2426593
000290 25 5d 82 3e cb ff a4 3d 1c 14 49 bc 70 1e 83 3e
       0.2546169 0.08056601 -0.012272861 0.2560916
0002a0 f8 21 81 bc 0b 05 ce bd a4 a6 8b 3d 82 c3 24 bd
       -0.015763268 -0.100595556 0.068188936 -0.040225513
0002b0 c2 c5 73 be 4e cd 82 3c 01 0d a2 3d c2 dd 80 3d
       -0.23805907 0.015967038 0.079126365 0.06292297
0002c0 55 15 ef bd 47 20 85 3e 3f 0e df bd 1f a0 88 3c
       -0.11673991 0.26001188 -0.10891389 0.016677914
0002d0 20 8b 16 3d a8 ed b6 3b 79 5b 82 3e c7 25 39 bd
       0.036753774 0.00558253 0.25460413 -0.045202043
0002e0 bb b8 4b be e9 84 a0 3e 48 26 8d 3e ae a1 62 ba
       -0.19894688 0.31351402 0.2756827 -0.0008645308
0002f0 03 e7 81 bb 13 07 51 3e 2a 12 34 bd ce 37 5f 3e
       -0.0039643063 0.20412855 -0.043962635 0.21798632
000300 5f 51 a2 3e 3a 76 76 bd d0 05 8f 3d a6 54 1c 3e
       0.31702706 -0.060171343 0.069835305 0.15266666
000310 e5 6e 77 be 39 3a e7 3c ca 84 23 be 17 78 25 3e
       -0.24163397 0.028226005 -0.15968624 0.16159092
000320 34 49 ac bd a6 96 8a be 2c a8 3c 3e 8e 4c ba 3d
       -0.084124 -0.2706806 0.18423527 0.09096633
000330 33 41 f7 bd 5c 78 27 3c 5d 1f dc 3e 80 92 a8 bc
       -0.12072983 0.010221567 0.42992678 -0.02057767
000340 35 0a 6b bd 88 42 01 be 94 4b 81 bd e7 d5 32 be
       -0.05738278 -0.12623036 -0.063132435 -0.1746441
000350 b9 0e 08 3e e2 08 4d 3d 04 bc 8e bd bf bb d3 bd
       0.13286866 0.0500573 -0.06969455 -0.10338544
000360 59 40 94 3e b0 fe 66 be 6a a3 30 3e 70 56 67 be
       0.28955343 -0.22558093 0.17249838 -0.22591567
000370 48 83 37 3e c7 27 94 be c2 0a 7a bc 7b 95 12 bd
       0.17921174 -0.28936598 -0.015261354 -0.035787087
000380 36 c8 20 be b3 5e d2 bb 1b df 01 3d 4e 46 24 be
       -0.15701374 -0.0064199804 0.03170691 -0.16042444
000390 10 8b 85 3e 96 54 12 3e b2 ff 47 be 33 ba 87 3e
       0.2608266 0.1429008 -0.19531134 0.26509246
0003a0 4e ce a8 bd 24 cd ec 3c 59 1f a6 3d 82 07 00 be
       -0.082424745 0.028906412 0.08111448 -0.12502864
0003b0 27 d0 27 3e ed 39 0f 3e 38 34 0b 3e a9 26 da bd
       0.16387998 0.1398694 0.13594139 -0.10651905
0003c0 6c 57 0f be 9d 19 a8 3e 7a 89 89 3e c8 dd d4 3c
       -0.13998193 0.3283204 0.268627 0.02598466
0003d0 48 65 d0 3c 72 79 6f 3e 0e 94 98 3e c2 a7 13 be
       0.02543892 0.23386171 0.29800457 -0.14419463
0003e0 55 8f 7e 3e f7 82 30 3d 8b b0 33 bd 8d c2 2f 3d
       0.24859364 0.043093648 -0.043869536 0.042910147
0003f0 71 9b 6c 3e 3d 64 2c be 30 57 b1 bd 66 ea 55 3d
       0.23106171 -0.16835113 -0.08659208 0.052225493

encoder.layers.0.self_attn.in_proj_bias f4 [48]
000000 d7 9e dc bc 49 ce 46 bc 90 41 2e bd 20 f1 a7 bc
       -0.02693121 -0.012134143 -0.042542994 -0.02050072
000010 48 c4 88 bd 1e a3 81 b9 07 8c 81 3d 2a db f7 bc
       -0.06678063 -0.0002472633 0.06325536 -0.030255873
000020 11 fa fe 3c b5 80 9a bd 43 7c dc bc f6 0f a1 3d
       0.0311251 -0.0754408 -0.026914721 0.078643724
000030 5e a5 eb bd 76 7f ef 3c 1c 88 c5 3a 06 20 9f bd
       -0.11506151 0.029235583 0.0015070471 -0.0776978
000040 8d ad 8c ba 94 98 70 b9 64 f2 b4 3a 36 42 e3 b9
       -0.0010732875 -0.00022945023 0.0013805148 -0.00043346145
000050 e9 3c 73 ba ee 71 f5 ba d3 ae 33 3a cf 2f 05 ba
       -0.00092787907 -0.001872597 0.0006854359 -0.00050806714
000060 15 d7 02 3b c6 96 b7 3a 96 8f 25 39 3a 48 a7 ba
       0.0019964625 0.0014006726 0.00015789116 -0.0012762614
000070 21 36 0a ba 84 70 4b 3b 6d 72 01 bb d6 fa 4f 3b
       -0.0005272348 0.0031042406 -0.001975204 0.0031735203
000080 61 b8 cf bc 81 79 f8 3c 82 3b 12 bc 65 e9 19 3c
       -0.025356473 0.030331375 -0.008925321 0.0093940245
000090 a6 bf 70 3d 23 c7 51 3d 7b b0 d3 bc ac 83 0e 3d
       0.05877652 0.051215302 -0.025840988 0.03479354
0000a0 05 a4 8e 3d 26 c9 5f bd 13 42 a1 3d 9e e8 f0 3c
       0.06964878 -0.05463519 0.07873931 0.029407796
0000b0 9e 4e cb 3d 91 f7 ba 3c 24 86 82 3d fe b5 fe 3c
       0.099271044 0.022823127 0.063732415 0.03109264

encoder.layers.0.self_attn.out_proj.weight f4 [16, 16]
000000 f2 b1 4d bd 27 35 c3 3d 1f db 36 3e d8 ff ff bc
       -0.05021853 0.095316224 0.17857026 -0.031249925
000010 86 c5 7e be 41 95 36 be d5 80 13 be 16 89 90 3d
       -0.24880037 -0.17830373 -0.14404614 0.07057397
000020 92 78 c8 3d 64 f7 28 be c6 d9 34 3e 61 d3 43 3e
       0.09788622 -0.16500622 0.17661199 0.19123603
000030 4d 39 4a 3e ac 99 c1 bd 72 ad 9c 3c 61 f6 d1 bd
       0.19748421 -0.09453139 0.019125674 -0.10252071
000040 5e bb aa bd b2 9e 82 bd 2f e2 2c 3e 06 9c 45 3e
       -0.08336519 -0.06377925 0.16883157 0.192978
000050 f4 cb 85 bd 15 25 90 3c 1e 3f 6f bd cf b4 6a be
       -0.065330416 0.017595807 -0.058409803 -0.22920536
000060 07 32 91 bd 11 3c ad 3d 53 62 8f be 16 b2 8e 3d
       -0.0708962 0.084587224 -0.28004703 0.06967561
000070 56 6a 07 be 06 64 17 3e dd 4d 28 3e a1 42 2c 3d
       -0.13224158 0.1478425 0.16435952 0.04205573
000080 1b 45 a5 3d c7 49 ff bd 87 84 e6 3c 05 75 83 bd
       0.080698214 -0.12465244 0.028139366 -0.06418804
000090 85 3a dc 3d c6 a2 40 3d 06 16 77 be b0 95 99 3e
       0.10753349 0.047030233 -0.24129495 0.29997015
0000a0 77 7f 90 3e a7 1c 90 bd 34 09 9b 3a 0f 22 f1 bd
       0.28222248 -0.07036715 0.0011828304 -0.11774074
0000b0 c4 d9 a3 bd e4 6d 0e be 81 22 0c 3e e3 c2 7c bc
       -0.0800052 -0.13909107 0.13685037 -0.015427324
0000c0 bd 9c 26 bd 68 cc 26 3e cf f7 8b 3e 08 ac e6 3d
       -0.04067682 0.16288912 0.273375 0.11263281
0000d0 fa ea a7 3d e9 9c e0 3d a4 ce b2 3d 26 1a 9f 3d
       0.08199115 0.10967428 0.0873082 0.07768659
0000e0 ab ee e1 3d 93 68 bb bd ea 69 e3 3d d7 dc 7e bd
       0.110318504 -0.09150805 0.11104186 -0.062222328
0000f0 d0 e0 4d 3e 3c bc d7 3d ce b6 c1 3d 22 aa 11 3e
       0.2010529 0.1053395 0.09458695 0.14225057
000100 b2 fa 91 3e e5 9a 22 3e 99 9a 92 bd 1f 36 41 be
       0.28511578 0.158794 -0.071583934 -0.18868302
000110 83 de 11 3e fe 9b ad 3d f2 28 16 3e b3 c0 b7 3d
       0.14245038 0.08477019 0.14664057 0.08972301
000120 1e e8 41 3d e7 df 66 3d e0 0e 80 bb 6b 48 59 be
       0.047340505 0.056365874 -0.0039080232 -0.21219032
000130 5b 8d 6f 3e 9f b4 21 be cc f5 20 be 05 50 4c be
       0.23393767 -0.15791558 -0.15718764 -0.199524
000140 75 72 6b be d0 dd f1 bc b1 e0 9b 3d 06 65 f7 bd
       -0.2299288 -0.029524714 0.07611216 -0.120798156
000150 f6 10 9b bd 35 38 9d 3e 0b 89 23 be 31 d5 22 be
       -0.075715944 0.30706945 -0.15970246 -0.15901639
000160 05 4b 4e 3c c9 a3 22 be 3e f4 4c be 4c ba 6c bd
       0.012591128 -0.15882792 -0.20015046 -0.057794854
000170 0a 73 91 3d 7e a9 94 bd b5 6d 21 bd b6 b7 38 be
       0.0710202 -0.072588906 -0.039411265 -0.1803883
000180 e8 7e e2 bd 7b d8 ae bd 1f 25 19 be 1c c4 2b bc
       -0.11059362 -0.08537384 -0.14955567 -0.010483768
000190 ba 9c 17 be 6f a7 b8 3d 1b df f6 3d 8e 89 4e be
       -0.1480588 0.090163104 0.12054273 -0.2016966
0001a0 22 1f 0b 3d 39 aa 5e 3d c7 e2 84 be cb 4b b4 bd
       0.033965237 0.054361556 -0.25954267 -0.08803519
0001b0 e4 30 9c 3d 9c 48 2f 3e 7c 49 f4 bb f6 1a b5 bd
       0.07626513 0.17117542 -0.007455049 -0.08843033
0001c0 ca 37 e2 3d c5 11 23 bd 4b c8 82 be ef 74 c8 bd
       0.11045797 -0.03981187 -0.25543436 -0.09787928
0001d0 9f 46 e2 bd 92 3e 04 3e 7d b7 79 3e 96 81 33 3d
       -0.11048626 0.12914494 0.24386401 0.043824755
0001e0 c3 b8 9c 3d 29 b2 5f be aa c2 3e 3e 18 ba c4 bd
       0.07652428 -0.21845306 0.18628946 -0.09605807
0001f0 a1 93 0f be 7b 22 c2 bd 7a e2 a1 3d 89 25 3c be
       -0.1402116 -0.09479233 0.07904525 -0.18373694
000200 e9 6b c9 bd 7d e6 3a be 5b 1a 55 3e d9 9d 9e 3d
       -0.09835035 -0.18251987 0.20810835 0.07744951
000210 a7 53 e5 3d f2 79 51 3d 28 8f a0 3e 67 3e 9e be
       0.11197596 0.051141687 0.3135922 -0.30906984
000220 52 18 4d 3d 9e 14 9a bd 8d 52 96 3d 25 36 90 3d
       0.05007202 -0.07523464 0.07339964 0.07041577
000230 16 5d fd 3d aa e0 59 bd 9c 1f 5d bd 4b 19 1c be
       0.1237127 -0.053192772 -0.053985223 -0.15244024
000240 1a 4b 8a 3d e0 93 18 3e 36 29 9d bd 3d 63 92 3d
       0.06752606 0.1490016 -0.07673876 0.071478345
000250 14 f7 2d be f4 b2 6e 3b c9 0d 48 be f7 6e be 3d
       -0.16988784 0.0036422582 -0.19536509 0.092985086
000260 68 6c 35 be ba 8d dd 3d 5b b7 59 bd 2d 60 87 3d
       -0.17717135 0.10818048 -0.053153377 0.06610141
000270 f9 d6 d0 3d 63 9f d5 bd fe 40 85 3d 18 a4 07 be
       0.10197253 -0.10430791 0.06506537 -0.1324619
000280 b8 ef 09 be 53 fc dc bc 38 dd 50 be f7 83 39 be
       -0.13470352 -0.026975786 -0.20396888 -0.18116747
000290 83 3f 6e 3e bf 0e 32 be bc 75 ba 3d 67 a5 6e 3d
       0.23266415 -0.17388438 0.09104487 0.05826321
0002a0 c1 7d 8a 3e b3 a7 b4 bd 24 de 0d 3e 32 de 11 be
       0.27049068 -0.088210486 0.13854271 -0.14244917
0002b0 ec 12 2f 3d 4e fb 4b 3d c9 1c 47 3e 86 db 57 3d
       0.042742655 0.04980021 0.19444574 0.05269959
0002c0 fb bc 07 3e 20 c1 d3 3c b5 43 2d be 62 b1 f8 3c
       0.13255684 0.025848925 -0.1692036 0.03035802
0002d0 d6 83 3b 3b 80 f1 10 be 8b 47 1a 3e 0d 0c a4 bd
       0.0028612516 -0.14154625 0.15066354 -0.08010111
0002e0 57 5e 36 bd cb 5c 13 be 26 12 cd 3d 00 3d 36 be
       -0.044523563 -0.14390866 0.10013227 -0.17796707
0002f0 cd 6f 06 3e d9 ec 42 3d 4f 23 29 3e 5f 47 a4 3d
       0.13128586 0.047589157 0.16517375 0.080214255
000300 50 49 3c 3e 8e 6e 4c bd a0 df 86 3e 84 6d 59 3d
       0.18387341 -0.04991012 0.26342487 0.053082958
000310 05 f4 10 3e a3 3a c2 bc c3 be db bd 2b d5 56 be
       0.14155586 -0.0237096 -0.10729744 -0.20979755
000320 f1 10 91 bc 19 16 55 3d ee 6e 02 be 4a c9 f2 bd
       -0.017708274 0.052023027 -0.12737629 -0.11854799
000330 eb d2 8b be fe 51 2a be 96 1a 17 be 21 bc 83 be
       -0.27309355 -0.1663284 -0.14756235 -0.25729468
000340 a0 17 1e 3e 1b 68 cf 3d c0 92 3a be 2f d0 73 3d
       0.154387 0.101272784 -0.18220043 0.05952471
000350 f5 cc 18 be 40 82 6b 3d de 1d 1b ba 02 bd 24 3d
       -0.14921935 0.057497263 -0.00059172313 0.040219314
000360 b1 7f 16 be 37 58 9b 3e d8 07 64 bd aa d7 f3 3d
       -0.14697148 0.3034074 -0.055671543 0.11906369
000370 33 1a 21 bd 40 ab 59 be 36 59 39 be 48 27 01 3e
       -0.039331626 -0.21256733 -0.18100438 0.12612641
000380 68 a6 85 bd 02 f6 3d bd c8 94 8e 3d c7 38 dd bd
       -0.0652588 -0.04637719 0.069619715 -0.10801845
000390 30 09 de bd af 71 0b 3e 14 6c aa 3d f0 db 4e be
       -0.10841596 0.13617586 0.083213955 -0.20201087
0003a0 6c 6a 25 be f6 e8 21 3e 22 d1 2d 3e b3 f8 05 be
       -0.16153878 0.15811524 0.16974309 -0.13083152
0003b0 b2 be 1b 3e 63 29 25 be c7 32 98 3d 87 8f 23 be
       0.15209463 -0.16129069 0.0743156 -0.1597272
0003c0 a6 b6 fa bd aa ec 4b 3e 05 a5 eb bc 0e 3c 6e 3e
       -0.12241869 0.19914499 -0.02876521 0.23265097
0003d0 59 f1 0b be cb 8b 72 be 1a ad 34 3e 6f 15 77 bd
       -0.13666286 -0.2368614 0.17644158 -0.060323175
0003e0 8f b5 83 be f7 1d 55 3d a6 99 93 3e 21 35 ac bc
       -0.25724456 0.05203053 0.28828162 -0.021021428
0003f0 2e 3f 5a be a6 f1 40 be 65 87 5d 3e dc 29 77 3e
       -0.21313164 -0.18842182 0.2163368 0.24137062

encoder.layers.0.self_attn.out_proj.bias f4 [16]
000000 5c 1d 16 3d 03 4d 74 3c 7a af 42 3d 13 a2 88 bd
       0.036649093 0.014910939 0.04753063 -0.06671538
000010 ce 61 18 3d 22 f4 b1 3d b2 00 a6 bd 83 8a 2e bd
       0.03720265 0.08689143 -0.08105601 -0.042612564
000020 0f 7e 71 bd 4c a9 04 bd 31 12 e1 bc 9a 73 d7 3c
       -0.05895811 -0.032388017 -0.027474495 0.02630024
000030 4f bd 51 bd 61 c0 53 bc 1b a3 6f bc 56 33 0f bd
       -0.05120593 -0.012924285 -0.01462629 -0.034961067

encoder.layers.0.linear1.weight f4 [64, 16]
000000 87 58 b9 3d 91 db a2 3e 00 64 ec 3c 6b 8c 0f bd
       0.090500884 0.3180814 0.028856277 -0.035046022
000010 91 57 fb 3d ff fa 32 3e 21 e4 e8 3d 29 d5 77 3e
       0.12272561 0.1747856 0.11371637 0.24202408
000020 39 e6 1e be bc cd 28 3d 31 3d 9d be 35 e8 f4 3d
       -0.1551751 0.04121183 -0.30710748 0.119583525
000030 60 d9 4b 3e 90 57 6a 3e 02 84 d2 3c dc 64 02 3e
       0.1990714 0.22884965 0.025697712 0.12733787
000040 71 c3 4c be a7 d3 19 be 14 2c 1e 3e 37 53 28 bd
       -0.1999643 -0.15022145 0.15446502 -0.041094985
000050 00 8d 48 3e e8 09 46 3e d0 a8 0d be 67 73 ed bc
       0.19585037 0.19339716 -0.13833928 -0.028985692
000060 c7 d3 42 bd 07 b0 5f bc cc 44 9d be c4 41 15 3d
       -0.047565248 -0.013652808 -0.3071655 0.036439672
000070 1f c9 78 be a7 f3 87 3e d5 75 00 be 88 6d 42 3d
       -0.24295472 0.2655308 -0.1254495 0.04746774
000080 20 3f 35 bd b8 2a 80 3e 31 13 93 3e 12 fe 7e 3e
       -0.044249654 0.25032592 0.2872558 0.24901608
000090 3d 91 b9 3d 9b 34 f8 bd bc eb f9 3d fc 40 b7 bd
       0.09060905 -0.12119409 0.12203166 -0.08947942
0000a0 33 c7 43 3e c5 3d 09 be ce 64 89 3e 32 fd 62 3d
       0.19118957 -0.1340247 0.2683472 0.055417247
0000b0 f5 b6 93 be ee b8 1a be cc b4 e6 3d 1d 7f 7c 3d
       -0.28850523 -0.15109608 0.11264953 0.061644662
0000c0 87 a0 47 be e8 e3 fb bd 88 a2 61 3e 27 d7 01 be
       -0.1949483 -0.12299329 0.22034657 -0.1267973
0000d0 d0 2b 42 be 48 a4 aa be 0f 20 0e be a8 b6 0e 3e
       -0.18962026 -0.33328462 -0.13879417 0.13936865
0000e0 6c a4 bf 3b 1a 58 38 3e 9e c5 28 be e0 36 b7 be
       0.005848458 0.18002358 -0.16481635 -0.35784054
0000f0 e5 2c 97 bd 50 cd e9 3d 59 a6 e4 3d fd f5 8c 3e
       -0.0738161 0.114161134 0.11164541 0.27531424
000100 99 3d a0 3d 5b 6b 1a be c5 bc 84 3d ee 89 35 be
       0.07824249 -0.15080015 0.064813174 -0.17728397
000110 a9 0a 75 be 88 4e 83 bd 94 0a 79 3d 04 a2 cd 3c
       -0.23929848 -0.06411463 0.060801104 0.02510167
000120 5b 31 df 3d 07 6e 18 3e bc 74 8c 3e 25 15 ca bd
       0.10898086 0.14885722 0.2743281 -0.09867314
000130 2c be 05 be 49 7b 38 bd 26 b8 34 be 97 49 26 bd
       -0.13060826 -0.04503945 -0.17648372 -0.040597524
000140 26 c9 b6 bd c2 3a 54 3e 78 7b 99 bd 73 5b 94 be
       -0.08925085 0.2072554 -0.07494253 -0.2897602
000150 32 4e 47 3e 2d cf f2 3d 9c d5 ef 3d af 6e 9a 3e
       0.19463423 0.11855922 0.11710665 0.3016257
000160 7c f4 05 bd 1f 01 32 be 5d 2b ee bd 2d 99 36 bd
       -0.03270386 -0.1738324 -0.11629365 -0.044579674
000170 6f df 0d be 85 26 f7 bd 1c 66 2d be 34 f4 8d 3d
       -0.13854764 -0.12067894 -0.16933483 0.06931344
000180 17 ab 9d 3d 90 3f d3 3d 46 ec 91 bd 75 bf 83 be
       0.076986484 0.10314858 -0.07125144 -0.25732008
000190 87 e4 13 3d e5 6c 11 be 9c ff 04 3e 73 ed 96 bb
       0.036106613 -0.14201696 0.12988132 -0.004605943
0001a0 ef fe 8b bd fe 22 ee bc dc c9 9b bc 1a 00 33 3e
       -0.06835734 -0.02906942 -0.019017152 0.17480507
0001b0 f3 ea 64 be 54 34 de bd 23 9b 0c 3e cd c3 1a 3e
       -0.22355251 -0.108498245 0.13731055 0.15113755
0001c0 17 b2 29 3e 43 cb 0e be ea 97 29 3e d1 4e 24 bc
       0.16571842 -0.13944726 0.16561857 -0.010028557
0001d0 ec 93 53 3d 2c 7a 24 3e c6 2e 5a bc 6a 95 57 be
       0.05165474 0.1606223 -0.013316816 -0.2105309
0001e0 35 a8 03 3e 58 3e 2e 3d 3e 52 e4 3d e1 0a a9 3d
       0.12857135 0.042539924 0.11148499 0.08254028
0001f0 79 5e ce bd 32 e8 63 3e 25 16 a2 3d f4 37 5f 3c
       -0.10076613 0.22256544 0.0791438 0.01362418
000200 dc 84 d3 3d a8 c0 fc bc 8f c7 2a bd a1 e0 44 be
       0.10328075 -0.030853584 -0.04169422 -0.19226314
000210 57 a6 16 be 7c 7e 3d 3e ca a7 3d be 8c fc a5 bc
       -0.14711891 0.18505281 -0.18521038 -0.020262025
000220 3a 25 c2 3d 8a aa c5 bb d8 43 89 3e 46 17 5e 3e
       0.09479757 -0.0060322927 0.26809573 0.21688566
000230 03 89 08 be 0b 34 98 3e 9c 80 f6 bd 61 6a 08 3e
       -0.13333516 0.29727206 -0.12036249 0.1332183
000240 29 00 94 bd 94 25 f3 3d 25 a8 09 be 2a 1c 59 3d
       -0.07226593 0.11872402 -0.13443048 0.053005375
000250 b8 f3 51 3e ea 70 4c be ac 07 03 3d ca 9e 46 3e
       0.20503128 -0.19964948 0.03198974 0.1939651
000260 22 1a 85 3d b8 89 53 3e 2c 34 14 3e 08 c3 70 3d
       0.06499125 0.20658004 0.14473027 0.058779746
000270 bc f9 f1 bd 3b d0 12 be e2 5b cd bd d9 7e 8d bd
       -0.11815211 -0.14337246 -0.10027291 -0.0690896
000280 7e 46 95 bc aa 3d 15 be 9b be a3 3c 48 ac 47 be
       -0.01822209 -0.14574304 0.019988349 -0.19499314
000290 8b 3f b1 3d 73 bb 07 3e 14 a7 53 3e 0d a7 4b bd
       0.08654698 0.132551 0.20669204 -0.04971986
0002a0 8c a3 d0 3d 3b 15 4f 3e f1 0c 87 be 38 6e 67 3e
       0.10187444 0.20222943 -0.2637706 0.22600639
0002b0 1c c9 a7 bc 45 ff 08 be 8d ee 78 be b1 77 37 3e
       -0.020481639 -0.13378628 -0.2430975 0.17916752
0002c0 e6 48 54 be 7d d1 38 3e 22 07 32 be ea 85 09 3d
       -0.20730934 0.18048663 -0.17385533 0.033574976
0002d0 be f9 03 be e6 15 f4 bc 84 b0 3a be 23 d7 c3 3d
       -0.12888238 -0.029795598 -0.18231398 0.095625184
0002e0 fd 84 19 be da 2f 06 bc 53 dd 72 be 89 9f 19 bd
       -0.14992137 -0.00819012 -0.23717241 -0.03750566
0002f0 38 af d7 bc 92 d5 ec bc e4 c0 c5 3d dc 20 6a be
       -0.026328668 -0.028910432 0.096559316 -0.22864097
000300 dc b6 f4 bd 7a cf 54 3c 6d 6b 75 3d c6 b6 fc bd
       -0.1194894 0.012988919 0.059916902 -0.12339549
000310 9c 0d 5a bc 9c 5d 4e 3c f4 e2 08 be da 4c 82 bd
       -0.013308909 0.01259556 -0.13367826 -0.063623145
000320 92 fd c9 3d 12 2f 93 bd 61 de 6d bd 2d e9 43 bd
       0.09862818 -0.07186712 -0.058073405 -0.047829796
000330 24 05 8d 3e 35 5c ed 3d bd 16 f0 bd 96 1b f9 3d
       0.27542984 0.11589853 -0.11723087 0.12163465
000340 17 29 fc bd b5 16 78 3d 6a c1 2c be df 33 4d be
       -0.12312525 0.06056853 -0.16870657 -0.20039319
000350 c1 44 a8 3d 61 e1 2d 3e 55 c8 88 3c 60 90 4a bd
       0.08216239 0.16980506 0.016697088 -0.049454093
000360 4f b3 96 bd 74 6a c2 3d 8b 74 8f bd 5c 8a 56 be
       -0.07358419 0.094929606 -0.07004651 -0.20951217
000370 2e 25 73 be 77 86 24 3d c6 d6 e0 bc 3d 0c 73 be
       -0.23744652 0.0401673 -0.027446162 -0.23735137
000380 0c df 4a be 54 cd a1 bd 27 d5 ff 3d c5 60 ce 3d
       -0.19811648 -0.07900491 0.124918275 0.10077051
000390 09 88 67 bd dc 00 e8 bd 85 43 68 3e 18 56 07 bd
       -0.056526218 -0.11328289 0.22682007 -0.03304109
0003a0 6a 5c 1a bd af 0d d5 3d 48 15 52 bd f5 dc cd bb
       -0.03768579 0.104030006 -0.051289827 -0.0062824436
0003b0 60 aa 87 3d ac f2 3b 3e ce 5d 8c 3c 9f ed 35 3e
       0.06624293 0.1835429 0.017134573 0.17766427
0003c0 ce a5 1b be d0 e8 a0 bd 5e e0 98 bd a8 ea a4 bd
       -0.15199968 -0.078569055 -0.0746467 -0.0805257
0003d0 70 81 51 bd 97 35 e1 ba 16 98 b8 3d a5 17 48 3e
       -0.05114883 -0.0017182109 0.09013383 0.1954027
0003e0 86 cb 84 3d 77 61 27 3e 50 65 73 3e cf 2d 9a 3c
       0.064841315 0.16345774 0.23769116 0.018820671
0003f0 4b e9 93 3d 50 bc 5f 3e c6 8f 8e 3e ec e3 b4 3d
       0.072222315 0.2184918 0.27844065 0.08832535

encoder.layers.0.linear1.bias f4 [64]
000000 fc e6 34 3e 8d 45 9e bc 95 ba 0e be fa 00 ab 3d
       0.17666239 -0.019320274 -0.13938363 0.08349796
000010 b9 ea d2 bd a8 51 6f be f3 7c 8c be b3 6b 9a bd
       -0.10298676 -0.23370993 -0.2743908 -0.07540073
000020 bc 65 b5 be 73 cf 17 be 9c f1 a2 bd b9 da 33 3d
       -0.3542918 -0.1482523 -0.079562396 0.043909762
000030 eb f2 27 3e 0d c7 bd 3d d4 97 91 bd 53 c8 38 3e
       0.1640126 0.092664815 -0.07109037 0.18045168
000040 51 32 f6 bd 4d e3 09 bd 07 01 13 bd 09 d7 f4 bc
       -0.12021316 -0.033664037 -0.03588965 -0.029887693
000050 d1 a6 bb bd 79 5e 0e be 3c d9 5d bd 13 c1 a7 bd
       -0.09162677 -0.13903226 -0.05416225 -0.08191123
000060 f4 cb b7 bc d0 88 6c bd 0a cb f9 bb e7 66 78 be
       -0.02243612 -0.057747662 -0.007623081 -0.24258004
000070 f2 af 9a 3b c1 6c 8e be 02 15 21 3d 5d 81 c1 3d
       0.0047206813 -0.27817348 0.039326675 0.09448502
000080 04 7b 84 3d 53 d5 7a be 91 d6 13 bd 66 e1 d6 bd
       0.06468776 -0.24495439 -0.0360933 -0.1049221
000090 bb 3f aa bc 73 6f 56 be d4 74 3e 3c 79 f5 f2 bc
       -0.020782342 -0.20940952 0.011624534 -0.029658066
0000a0 c4 ca 26 3d 69 c1 73 be 7e 79 56 be a8 6c 1d 3e
       0.040720716 -0.23804249 -0.20944783 0.1537348
0000b0 ef 45 da bd de 7b 76 3d 8b 53 1d be e9 6f af bc
       -0.1065787 0.060176723 -0.153639 -0.021415668
0000c0 19 06 31 bc ea 47 f1 3c a6 b4 3d 3e 15 08 04 3d
       -0.010804676 0.029453237 0.18525943 0.03223427
0000d0 b3 21 2d 3e 9c c8 59 be 98 52 07 be 31 39 1b be
       0.16907386 -0.21267933 -0.13215101 -0.15158536
0000e0 ed 0e 99 be 07 77 c5 bd 85 9a 14 be 4d b3 46 bd
       -0.298942 -0.09641843 -0.1451207 -0.04851084
0000f0 df 8c a0 bd 96 0c 0d be 8d 9d 4d be 0c 63 b9 bd
       -0.07839369 -0.13774332 -0.20079632 -0.09052095

encoder.layers.0.linear2.weight f4 [16, 64]
000000 9e 5b 30 bd 63 db bd bc 21 76 18 3e 9d 8f f0 3b
       -0.043056123 -0.0231759 0.14888813 0.007341339
000010 f0 4f b4 3b 21 e2 94 3d de 1b 55 bd cf f6 08 bc
       0.0055026934 0.07269693 -0.05202853 -0.008359625
000020 db bd d6 3c 7c b8 f6 3d 9c 0c fb bc 64 cb a2 bc
       0.026213577 0.12046906 -0.030645661 -0.019872375
000030 26 9b 01 bd 66 6d bd bb da e1 05 bc fc b8 cc bd
       -0.0316421 -0.0057808636 -0.008171523 -0.099962205
000040 be 04 c3 3d e7 78 94 3d d9 11 cb 3d 64 26 1a 3c
       0.09522389 0.07249623 0.099155135 0.009408567
000050 df be 2c 3d 8c 70 c4 bc 48 f4 d5 3d 2f e9 2f bd
       0.042174216 -0.023979448 0.104469836 -0.04294699
000060 09 a4 b8 3d 13 ac 8d 3d 26 93 04 bc 0a e9 86 3d
       0.09015662 0.06917586 -0.008091724 0.065874174
000070 17 81 92 bc 76 91 f0 bc cf d1 08 3e 38 a2 f2 bc
       -0.01788382 -0.029366236 0.13361286 -0.029618368
000080 9d a1 1b 3d b9 da 99 3d 2c 00 91 bd c4 e6 14 bd
       0.037995923 0.07512421 -0.07080111 -0.036352888
000090 bc a2 a9 3b cf 1a 14 bd 3e cb ea 3d b1 99 d1 3d
       0.00517687 -0.03615838 0.114645466 0.102343924
0000a0 7d 2c 80 3d 84 fb 60 bd ef 6e 1b be 9c ed 07 be
       0.062584855 -0.054927364 -0.15179037 -0.13274235
0000b0 12 8f 78 3d 3c ac b3 3d 35 47 3e be 6c 8b f5 3c
       0.060683317 0.087730855 -0.18581851 0.029973708
0000c0 9d 34 3d 3e 2b 2a cd 3a 0f d7 eb 3d cb 91 b7 bd
       0.18477102 0.0015652826 0.115156285 -0.08963355
0000d0 24 79 12 bd 25 64 1f 3e 81 8a 15 be 05 f7 9f bc
       -0.03576006 0.15565546 -0.14603616 -0.019526968
0000e0 31 df 9f 3d 70 93 d8 bc e9 43 06 3e 7d db 98 3d
       0.07806242 -0.026437491 0.13111843 0.07463739
0000f0 92 bd 3d 3d 9b f0 03 3d 26 f0 3c 3d e9 f2 ac bd
       0.046323366 0.03221188 0.04612746 -0.08444769
000100 22 ff 87 bd 42 a6 d2 3c e0 ed 2d 3e f1 8c 8f 3d
       -0.066404596 0.025714044 0.16985273 0.07009304
000110 dd 78 1e 3d 87 48 16 be 8d ab 7a bd e2 ac 62 bd
       0.038689483 -0.14676104 -0.06119876 -0.055340655
000120 de c7 50 bd 40 43 a7 3d 04 27 35 bd 65 99 08 3d
       -0.05097186 0.08167124 -0.04422666 0.033349413
000130 bc 4e f0 3c 7d 7e 4c bd 52 63 c8 bd af ce 85 bc
       0.029334418 -0.049925316 -0.09784569 -0.016333906
000140 af 3f d7 3b cd 6a a7 bd 03 e9 74 3d 82 c2 b3 bc
       0.006568871 -0.081746675 0.05979253 -0.021943334
000150 b9 1b c3 3b 0b 3f 64 3c 7a 31 a9 3d 97 cc cb 3d
       0.0059542325 0.013931046 0.0826139 0.09951132
000160 60 c3 77 3e f0 8e 70 bd 6b 62 c6 3d 7b 26 f2 3d
       0.24195623 -0.058730066 0.096867405 0.11823746
000170 48 d2 f0 3c 42 2c aa 3d 9a f4 93 3d 5c fc 36 3d
       0.029397145 0.08309223 0.072243884 0.044674262
000180 c3 86 91 3c 8a 38 67 bc 32 9e 32 be 23 35 dc 3b
       0.017764455 -0.014112601 -0.17443159 0.0067202016
000190 d9 01 d7 3d e6 29 80 bd 05 cf 3a 3d 13 6d 06 3e
       0.10498399 -0.062579915 0.045607585 0.13127546
0001a0 41 44 85 bd 76 a0 b7 bd 4e 0b 0d 3d bf e8 ca 3d
       -0.06507159 -0.08966152 0.03443461 0.09907674
0001b0 3b 43 fc 3c 4b 52 c2 bc 46 c5 1a 3e 67 47 18 3e
       0.030793777 -0.023720881 0.15114316 0.14870988
0001c0 11 d4 d0 bc 70 3b 1a bb 3c a1 22 bd 0b b6 57 bd
       -0.025491746 -0.0023533963 -0.039704546 -0.052663844
0001d0 ea 37 63 3c 09 aa 2b be 35 53 b6 3d 2b c8 81 bd
       0.013868311 -0.16764082 0.08902589 -0.06337007
0001e0 14 10 83 3d e6 a2 66 3d fe 06 bf 3d c7 76 28 3e
       0.06399551 0.056307696 0.093275055 0.1645156
0001f0 49 a6 94 3c 4f f0 0b 3e c5 39 f6 bc 2a 79 df 3d
       0.018145697 0.13665889 -0.030056844 0.10911782
000200 aa ef 47 ba 3b e8 c6 bd f9 84 14 be 87 0e 33 be
       -0.000762696 -0.09712263 -0.1450385 -0.1748601
000210 02 f7 cf 3d cf fd 60 bd 79 08 89 bc 8e a7 f8 bc
       0.10154535 -0.05492955 -0.016727673 -0.030353334
000220 ac 98 c0 3b c2 df 72 bc bf 96 61 3b 0d fc 2e 3c
       0.005877575 -0.014823856 0.0034422127 0.010680211
000230 32 52 93 bd e8 ac b3 3a 53 a3 c2 3d d9 96 0c 3d
       -0.07193412 0.0013708146 0.09503808 0.034323547
000240 ca b8 21 3e c7 e0 4a 3d 48 0f 67 bd ba 7e 2e 3d
       0.15793148 0.04953077 -0.056411058 0.042601325
000250 9c df 78 3d 0a 9a 78 3d 00 38 87 3d 49 15 51 bc
       0.060760126 0.060693778 0.06602478 -0.012761422
000260 59 97 9e bc 12 d8 21 3e 88 8c 9f 3b 2f 1b 92 bd
       -0.019359278 0.1580508 0.0048690476 -0.07134091
000270 29 1d 63 bd 17 28 bc bc 99 42 03 be 37 88 60 be
       -0.05544773 -0.022968335 -0.12818374 -0.21926962
000280 d6 ac 07 3e da d6 f6 bd d0 f4 80 bc e9 25 18 3d
       0.13249525 -0.120526984 -0.015741736 0.03714553
000290 b3 41 d0 3c 1f 50 ff 3c 79 3a 06 be 3f 85 50 3d
       0.025421953 0.031166134 -0.13108243 0.050908323
0002a0 61 53 c4 3d 63 77 0e bc af 5d 32 3d a7 ad 68 bd
       0.09586216 -0.008695456 0.043546375 -0.056806233
0002b0 6c ec 14 bd 45 a6 90 3d ef 52 24 bd c2 be cd bd
       -0.036358282 0.070629634 -0.040118154 -0.1004615
0002c0 38 b6 c8 bd 33 3b ce bd 11 40 03 3e 9e 6d 31 3d
       -0.098003805 -0.10069885 0.12817408 0.04331743
0002d0 e8 75 f0 bd 25 97 ba 3d 67 8b 15 be e8 e3 09 bd
       -0.11741239 0.0911086 -0.14603959 -0.033664614
0002e0 42 95 fc 3d 2a a7 5c bd f6 16 0f 3d 62 dd ff 3d
       0.12333156 -0.053870358 0.034934007 0.12493397
0002f0 2e 82 bc 3d 22 c2 a4 bd b8 87 88 3d 4f 1a 18 3e
       0.09204517 -0.080448404 0.06666511 0.14853786
000300 6c 12 20 bd 2a 37 77 bd b1 2e 8f bb 6c fe 2b be
       -0.03908007 -0.060355343 -0.0043695797 -0.16796273
000310 62 66 8e bc cd 70 53 bd 7b 4f 1b 3b 68 39 e5 bc
       -0.017382804 -0.051621247 0.0023698497 -0.027981475
000320 5e b7 a3 bd 33 01 22 3d 02 b5 eb 3c ad 3b 0e be
       -0.07993959 0.039551925 0.028772835 -0.13889952
000330 e0 ef 28 bd cc b9 0b 3e 40 10 64 3d 5e e5 e5 bb
       -0.041244388 0.13645095 0.05567956 -0.007015868
000340 23 27 2f 3d 39 9e 4d 3c a3 33 d0 3d 41 a3 4c 3b
       0.042761933 0.01254993 0.10166099 0.0031225237
000350 18 3f 5c 3d 23 ab c0 bd 29 cd 49 bd be 44 dc 3c
       0.05377111 -0.09407642 -0.04926792 0.026888248
000360 d2 93 88 3d 67 bd b8 3c a4 0c c0 3c 75 07 a5 3d
       0.066688195 0.022551252 0.023443528 0.08058063
000370 23 5e 5a bd c5 39 47 3d 72 47 f5 3d 6a b4 9f 3d
       -0.053312432 0.048639078 0.11976518 0.07798083
000380 bc 14 05 bd 1c e8 b8 3d ba 11 44 bc 9b 97 43 bc
       -0.032490477 0.09028646 -0.011967117 -0.011938001
000390 40 4f 0c 3d d2 a8 af 3b b4 ee da 3d a6 e0 25 3e
       0.034255266 0.005360701 0.1069006 0.16198978
0003a0 42 1c ab bc 1d 85 1e 3c fe cf 95 bd d3 3c 14 3d
       -0.020887498 0.009675291 -0.07315062 0.03619082
0003b0 8f db f7 3d b7 eb 01 3e 22 3b 48 bc e2 78 8f bc
       0.12102424 0.12687574 -0.01222113 -0.017513696
0003c0 57 52 1e bd 76 b9 27 bd be 33 29 3e fb 68 a1 3d
       -0.038652744 -0.040948354 0.16523644 0.078813516
0003d0 d4 c7 2b 3e ef c8 4c 3d be b8 bd bd 14 b5 ac bb
       0.16775447 0.049996313 -0.092637524 -0.0052706096
0003e0 46 9a c6 bd fe 09 3a bd ef f8 1a bc ca 97 80 bc
       -0.09697394 -0.045419686 -0.009458764 -0.015697379
0003f0 4e e6 6f 3d cc d5 93 bc 65 c0 b0 bd c7 45 2f 3d
       0.058569245 -0.018046282 -0.08630446 0.042791154

encoder.layers.0.linear2.bias f4 [16]
000000 6e db 70 3c b9 01 b0 3d 51 6f 15 3d 91 e9 b7 3c
       0.014700754 0.085940786 0.036483113 0.02245024
000010 c3 aa e5 3d 10 ff ff bd be 51 9a bd 74 d8 8a bc
       0.11214211 -0.12499821 -0.07535122 -0.016948916
000020 d0 84 cb bc b8 83 03 bd 7c c2 63 bd 35 7c 4e bc
       -0.024843603 -0.03210804 -0.055605397 -0.012602855
000030 0f 49 10 bd 9a 88 b2 3a 79 a7 9c 3c 0c 47 f8 3c
       -0.035225924 0.0013621033 0.019122826 0.030307315

encoder.layers.0.norm1.weight f4 [16]
000000 b8 b1 60 3f c6 28 6c 3f 8b e7 82 3f b3 75 75 3f
       0.8777118 0.92249715 1.0226911 0.9588272
000010 bc 26 80 3f eb da 7a 3f 40 e8 62 3f 7f 8a 85 3f
       1.0011821 0.9799029 0.88635635 1.0432891
000020 cb 0f 71 3f ec bf 71 3f c3 3a d2 3f ed 15 76 3f
       0.94164723 0.94433475 1.6424183 0.96127206
000030 87 fb 6f 3f 26 05 76 3f 73 26 45 3f 3b 35 82 3f
       0.93743175 0.96101606 0.77011794 1.0172495

encoder.layers.0.norm1.bias f4 [16]
000000 cf 7b 17 3e 66 03 c0 bc f5 61 42 3d 95 67 b0 3c
       0.14793323 -0.02343912 0.0474567 0.021533767
000010 c1 24 c5 3d 13 92 94 3c 2f 5c fb 3c cc 87 e4 bc
       0.09626151 0.01813606 0.030683605 -0.027896784
000020 0b 5c 95 bd 71 e9 dc bc e2 96 5f bc e8 3f 38 3c
       -0.072929464 -0.026966782 -0.013646813 0.011245705
000030 b1 d8 30 3d 65 5b eb bd 89 9c 14 3e 9a 7e 9a 3a
       0.043175403 -0.114920415 0.14512838 0.0011786998

encoder.layers.0.norm2.weight f4 [16]
000000 c6 1d 64 3f da 7d 73 3f a4 60 84 3f a6 6c 62 3f
       0.8910793 0.9511391 1.0341992 0.88447034
000010 fb 2c 78 3f b5 f2 75 3f c0 02 61 3f 65 de 62 3f
       0.96943635 0.96073467 0.8789482 0.886206
000020 75 6e 98 3f fc 76 6f 3f 69 b0 ae 3f 78 d0 6f 3f
       1.1908709 0.9354093 1.3647586 0.93677473
000030 46 e0 79 3f 8c 4c 73 3f 90 f5 52 3f 86 ef 68 3f
       0.9760784 0.95038676 0.8240595 0.90990484

encoder.layers.0.norm2.bias f4 [16]
000000 d1 54 ff 3d f7 3e 75 bb 0f 16 8d 3d 87 55 1c 3c
       0.12467349 -0.0037421563 0.06888973 0.009541876
000010 8a 9b a5 3c 87 89 18 3d d4 ed 58 3b 2a af 08 bd
       0.020215768 0.03724053 0.003310074 -0.033370174
000020 6a 0a a1 bd 93 a5 84 bd d7 82 64 ba 81 42 82 bc
       -0.078633144 -0.06476893 -0.00087170064 -0.015900852
000030 1a 96 34 3d 03 80 c3 bc ee 84 8b 3d 49 a1 34 3c
       0.04408846 -0.023864752 0.06812464 0.0110247815

encoder.layers.1.self_attn.in_proj_weight f4 [48, 16]
000000 9c d3 69 3e 8c 45 2c 3e 46 b4 80 be 88 d3 a2 3e
       0.22834629 0.16823405 -0.25137538 0.3180201
000010 8e 3a 00 3e 68 a5 a4 be 79 35 8c 3e f5 ff 97 3e
       0.12522337 -0.32157445 0.27384546 0.29687467
000020 20 39 cb 3d 9d 2b 40 be 16 91 28 bd 35 26 43 be
       0.09923005 -0.18766637 -0.04115399 -0.19057544
000030 2f 9e 42 3e a1 40 0e be 1d d1 1b be e4 86 0d ba
       0.19005655 -0.13891841 -0.15216489 -0.00053988234
000040 01 3c fa 3d 64 bb d0 bd ce 51 60 3e 5a ae 8e bb
       0.12218476 -0.10191992 0.21906206 -0.0043542804
000050 4d d7 28 be 31 ee 63 3e 4c 0b a5 bd 7f 8e 38 3e
       -0.1648838 0.22258832 -0.08058795 0.18023108
000060 99 c5 0d 3e 75 8d aa bc 13 58 41 3d 22 2c 76 3d
       0.13844909 -0.020819405 0.047203135 0.060100682
000070 1f 91 87 be 62 83 40 be 7b ca 84 3e d8 95 a1 be
       -0.26477906 -0.18800119 0.2593573 -0.31559634
000080 5a 95 0c bc 66 94 9a 3d 01 39 6b be b4 3d 62 be
       -0.00858053 0.07547836 -0.22970964 -0.2209385
000090 74 ad 70 be c0 33 e9 3c 90 d4 2d 3e 02 6e 7d 3e
       -0.23503667 0.02846706 0.16975617 0.24748996
0000a0 79 2b 9d be 8e eb 87 3e a2 c6 9a 3e 0c 59 11 be
       -0.3069723 0.265469 0.3022967 -0.14194125
0000b0 ff cd 5d be 53 d7 89 3d 35 f5 8a bb fc ff 63 3e
       -0.21660613 0.06730523 -0.0042406567 0.22265619
0000c0 e8 df a3 be 61 bc 21 be 2c 46 60 3d e5 1d 2e 3e
       -0.32006764 -0.15794517 0.05475442 0.17003591
0000d0 49 ce 0c 3e 5f 38 97 be f5 3d 5a 3e bc d6 63 3e
       0.13750567 -0.29535195 0.21312697 0.22249883
0000e0 29 de 30 3d 8a 73 68 3d e6 07 d5 bd a3 3b 3e be
       0.04318062 0.05675081 -0.10401897 -0.18577437
0000f0 53 c2 b1 3e d0 9c 49 3d 83 af 39 3d d9 ec e8 bd
       0.3471857 0.049221814 0.045333397 -0.113733
000100 65 1f 07 be b0 36 14 be 3e 72 33 3e d0 89 ba 3e
       -0.1319557 -0.14473987 0.17524049 0.36433268
000110 2f 54 1c bd 4c 31 94 3b e3 6d 16 be b2 96 92 3e
       -0.03816622 0.004522478 -0.14690356 0.28630596
000120 a2 b7 b1 bd 3e 60 9c 3b f7 ad b7 bd 76 85 5d be
       -0.08677603 0.004772215 -0.08968728 -0.21632943
000130 44 64 2b be f2 c2 83 3e cb 01 3e 3e 95 50 67 be
       -0.16737467 0.2573467 0.18555371 -0.22589333
000140 7a 36 85 be af f6 79 be 17 cd c1 3e 3a e1 f8 bd
       -0.26018125 -0.24410509 0.37851784 -0.121523336
000150 a6 d7 78 bd 1a 08 d0 3e a2 e6 19 be 79 77 6f be
       -0.060752533 0.4063118 -0.15029386 -0.23385419
000160 e1 af 85 3d 46 66 91 be 34 2d 6b 3d e7 88 27 be
       0.06527687 -0.2839834 0.057416156 -0.16360818
000170 36 d8 81 3e 15 11 a9 be 61 dc 3e bd b1 0b 49 3e
       0.25360268 -0.33020845 -0.04659689 0.19633366
000180 63 b2 98 3d ee 00 ed 3d f0 70 6e be 02 1e 9a be
       0.074558996 0.11572443 -0.2328527 -0.3010102
000190 9e 43 98 3e 7a 7a 98 bd 1b 3e 20 be 59 1b 3c 3d
       0.29739088 -0.074452356 -0.15648691 0.04592452
0001a0 0a c2 28 3e 2b 45 bb 3e bb 9a 40 be 1b e1 21 be
       0.1648027 0.36576208 -0.18809025 -0.15808527
0001b0 d6 fa 31 be f9 0a af 3e 48 5a 58 3d 79 ab 7e bd
       -0.17380843 0.3418806 0.052820474 -0.062175248
0001c0 65 e6 d7 bd 67 ca 80 3c 2c 48 12 be a2 fe 97 3b
       -0.10541991 0.015721513 -0.14285344 0.004638509
0001d0 ac e4 a3 bd 3c f9 d4 3d 3c 01 41 be 9f bc 84 3d
       -0.080026 0.103991 -0.18848127 0.06481289
0001e0 ff 81 89 3d 02 5f df 3d f5 e3 73 3c 33 d3 42 be
       0.06714248 0.10906793 0.014885892 -0.19025879
0001f0 b0 b8 dd bc e0 82 2e bd 86 f8 e4 bc f0 c8 02 be
       -0.027065605 -0.04260528 -0.027950536 -0.12771964
000200 2f 51 e0 bd 2c 35 37 be 37 cf 8a 3e 63 a9 07 bd
       -0.109529845 -0.17891377 0.27111217 -0.033120524
000210 b8 f1 39 be 92 0d 95 3e df 09 8a 3b e7 80 2d 3e
       -0.18158615 0.29111916 0.0042126025 0.16943704
000220 e1 95 f3 3d 1c 33 87 be ff 81 86 be 8c e2 15 3e
       0.118938215 -0.2640618 -0.26271054 0.14637202
000230 8b 9b 4b 3b 0a ac 34 be fa 1c 93 be 59 d7 e7 bd
       0.0031068053 -0.17643753 -0.28733045 -0.11320371
000240 43 4d 6d 3e 7c 2f 30 3e 96 ef 09 be 04 f1 ec 3c
       0.23174004 0.17205614 -0.13470301 0.028923519
000250 ca 4e 01 bd 18 0a 4b 3e b4 8f c1 3e b2 f9 52 3e
       -0.03156928 0.19828069 0.3780495 0.20603064
000260 8c 97 b2 bb ec 0e 51 bd 28 7b 73 3d 37 5b b5 3d
       -0.0054501947 -0.05103962 0.059443623 0.088552885
000270 69 a0 23 be 9d d5 08 be c9 80 88 3e 8b 83 11 3c
       -0.1597916 -0.13362737 0.26660755 0.00888146
000280 b6 1c 86 3e c5 06 66 3e bf 1d d2 bd e5 c9 0f 3e
       0.2619378 0.2246352 -0.1025958 0.1404186
000290 18 1a b5 3e 35 80 da 3d 6a 78 fe 3c bf 8c 99 3e
       0.3537147 0.10668985 0.031063277 0.29990193
0002a0 79 5b 5d 3d ba e2 7c 39 5c 01 a3 bd e5 d4 a2 bd
       0.054042313 0.00024117055 -0.07959244 -0.07950763
0002b0 92 15 01 be b1 23 b5 bc d8 74 f9 3d 18 7a b4 3d
       -0.12605885 -0.022111746 0.12180489 0.0881235
0002c0 b1 7a 5d be 28 99 8d 3e 95 72 85 bd 27 32 32 bd
       -0.21628834 0.2765591 -0.065159954 -0.04350486
0002d0 b8 02 0a 3d 86 44 91 3d 9a a5 6c 3e e2 d7 b6 bc
       0.033694 0.07093148 0.23110047 -0.022319738
0002e0 46 80 37 be 2d 46 c8 3e 59 a0 8b 3e df 3a 8b 3d
       -0.17920026 0.3911604 0.27270773 0.06798338
0002f0 22 74 3f bd dc c9 85 3e 8d d0 52 3d b4 05 47 3d
       -0.046741612 0.2613057 0.05146842 0.048589423
000300 e5 d7 51 3e 9a e9 31 be 72 46 33 3e 3e f7 24 3e
       0.20492513 -0.17374268 0.17507342 0.1610994
000310 14 b2 48 be 7d 76 b6 bd 49 ff 66 be c6 05 7c 3d
       -0.19599181 -0.089093186 -0.22558321 0.061528943
000320 b7 40 8c bd 3c 3b 4d be cd 29 32 3e 57 41 92 bd
       -0.06848281 -0.20042127 0.17398758 -0.07141369
000330 9a eb 9d bd d4 ee 1b be 29 48 a0 3e f1 7f 1d 3e
       -0.07710953 -0.15227824 0.31305054 0.15380837
000340 c0 e1 37 3c 54 2f 3c be 58 72 43 be 82 54 7a bd
       0.011223257 -0.18377429 -0.19086587 -0.06111575
000350 0c 12 47 3d 2b ed e1 3d fe 50 c6 3b c5 23 f8 bd
       0.048601195 0.11031564 0.0060521355 -0.121161975
000360 df bc 3d 3e c6 d1 94 be 19 03 53 3e 8a c1 7e be
       0.1852908 -0.29066294 0.2060665 -0.24878517
000370 51 91 0c 3e b6 af 5f be 28 1e b9 bd 21 fa 99 bd
       0.13727309 -0.21844372 -0.09038955 -0.075184114
000380 b1 6b 03 be 00 f6 40 bd af f2 4d 3d 12 11 3f be
       -0.1283405 -0.047109604 0.05028027 -0.18658856
000390 9a bc 7b 3e 1e 2b cc 3c d3 e2 24 be e8 7e 55 3e
       0.24583665 0.024922904 -0.16102152 0.20849192
0003a0 b2 db ab bd a0 97 a1 3d 6d 08 c8 3d ff aa 18 be
       -0.08391513 0.07890248 0.09767232 -0.1490898
0003b0 c8 bc 69 3d 89 b2 94 3d d6 af a0 3d fb a5 3b be
       0.0570648 0.072606154 0.07846038 -0.18325035
0003c0 3b d6 43 be fb 69 6e 3e 1b 24 84 3e 1d cf a7 3d
       -0.19124691 0.23282616 0.25808796 0.081938006
0003d0 11 93 6d bd 41 b3 37 3e 10 e1 79 3e 7c 72 8c be
       -0.05800158 0.17939474 0.24402261 -0.27431095
0003e0 21 27 59 3e 74 18 e0 3b 5b 62 04 3e 60 d6 d8 3c
       0.21206333 0.0068388525 0.12928145 0.02646941
0003f0 45 1e 96 3e ff b4 5d be c8 7d 3b be b9 42 2e 3e
       0.2931997 -0.21651076 -0.183097 0.1701764

encoder.layers.1.self_attn.in_proj_bias f4 [48]
000000 3c 48 d2 3b df a5 f5 3c 0a f8 00 be 1a 8f 11 bd
       0.0064173024 0.02998632 -0.1259462 -0.035536863
000010 2f 49 32 3d 0c 12 29 3d 22 dd 47 3b 34 5e e2 3b
       0.043526825 0.041276976 0.0030496796 0.0069082025
000020 88 32 09 3e a9 bb 8a 3c a2 eb d0 3d 64 ae fb 3b
       0.13398182 0.016935186 0.102011934 0.007680701
000030 f9 08 e4 3c d0 30 9a bd 66 d0 35 bd f6 7b 5d bd
       0.02783631 -0.075288415 -0.044388197 -0.054073296
000040 e2 02 6b 3a 47 b1 86 ba 07 78 3d 3b ba 9a 2d b9
       0.0008964968 -0.0010276221 0.0028910653 -0.00016556206
000050 60 20 ee ba 60 d2 ea b9 f4 23 b5 ba d9 e8 02 3a
       -0.0018167607 -0.000447887 -0.0013819919 0.00049938034
000060 f2 f3 19 bb 63 75 05 ba 32 ac a9 3a 4c 16 07 3b
       -0.002349135 -0.00050910393 0.0012944995 0.0020612655
000070 64 53 39 ba d2 f1 3a bb 5a b4 19 3a 6f f6 12 ba
       -0.0007069616 -0.0028525484 0.00058633613 -0.00056061795
000080 14 cd c6 3c 6e 4a 84 3c 50 b9 cf 3a d5 5f b5 ba
       0.02426771 0.016148772 0.0015848074 -0.0013837764
000090 d0 f2 80 bb 52 8c 1d bd 9c b3 da bb ce 7a 50 3c
       -0.0039351955 -0.038463898 -0.006674243 0.012724591
0000a0 69 56 8b bc b6 dc c2 b9 67 53 cc 3b 48 05 ee bb
       -0.017008977 -0.00037167006 0.0062355283 -0.007263813
0000b0 9f a9 17 bc ff a2 b4 3c 02 c4 3c 3b 42 46 37 3b
       -0.009256749 0.022050379 0.0028803353 0.002796546

encoder.layers.1.self_attn.out_proj.weight f4 [16, 16]
000000 c5 b5 c4 bd 3f ca ef 3d bb 22 10 3e a1 81 77 3b
       -0.09604982 0.11708497 0.14075749 0.0037766474
000010 96 38 ec bd 0b 63 06 be 0f 6d d3 bd 96 64 ef 3c
       -0.115342304 -0.1312372 -0.10323536 0.029222768
000020 fb eb 3b 3e 7f b6 e6 bd 13 af e9 3d 75 bd 17 3e
       0.18351738 -0.11265277 0.11410346 0.14818366
000030 58 95 45 3e cb cf 97 bd ca 5d 14 3d de 28 06 be
       0.19295251 -0.0741268 0.036222257 -0.13101527
000040 3f 41 ba bd f0 a6 bf bd 9f c9 52 3e 96 a1 1f 3e
       -0.09094476 -0.09358013 0.20584725 0.15588984
000050 b4 a7 13 be 22 f1 69 3d 32 e8 c8 bc 73 9f 14 be
       -0.14419442 0.057114728 -0.024524782 -0.1451395
000060 4e 17 ff bb 88 d7 3c 3e 8d f4 55 be 31 48 92 3d
       -0.0077847606 0.18441594 -0.2089407 0.07142676
000070 62 8f 1e be 24 8b 61 3e 82 1a 28 3e f7 50 bc bc
       -0.15484384 0.22025734 0.16416362 -0.022987826
000080 56 7c a3 3d 43 36 27 be 6d fe d4 3c af 6a 38 3d
       0.079826996 -0.16329293 0.026000226 0.045023616
000090 17 85 4d 3e 30 f3 c8 3d 5b c9 51 be 08 ff 36 3e
       0.20070301 0.09812009 -0.20486967 0.17870724
0000a0 d5 cc 24 3e 77 58 0a 3b 27 d5 bf 3c 76 d1 e6 bd
       0.16093762 0.0021109858 0.023417069 -0.1127042
0000b0 46 4d bc bd 9c 34 80 be 8f 1d 92 3d 97 d5 0b bd
       -0.09194426 -0.25040138 0.07134544 -0.034139242
0000c0 53 c7 07 bd 22 00 ff 3d cc a1 17 3e 64 a6 86 3d
       -0.033149075 0.12451197 0.14807814 0.06574705
0000d0 b4 b5 75 3e c4 7e 74 3e db cd 1e 3d f6 36 bb bd
       0.23995095 0.23876482 0.038770538 -0.09141342
0000e0 c8 9a e7 3d e7 d2 7e bd a1 80 ab 3c 9b f4 9d bd
       0.11308819 -0.06221285 0.020935358 -0.077126704
0000f0 66 e9 01 3e 1a 5d 1e 3e ca d2 88 3d 0f 00 30 3e
       0.1268669 0.15465203 0.0668083 0.17187522
000100 e2 e8 85 3e 4c 44 61 3e 6d 92 9f bd 66 a7 33 be
       0.26154238 0.2199871 -0.077916004 -0.17544326
000110 9e 25 8f 3d ce a1 f2 3d 7f d6 f0 3d 3f 3a ff 3d
       0.06989597 0.11847268 0.11759662 0.124622814
000120 13 2e 37 3d 47 c4 7d bd 5d 9e 22 3e f1 8d 69 be
       0.044721674 -0.061954763 0.15880723 -0.22808053
000130 32 df 1b 3e dd 1c 78 be 5e 04 e9 bd ec 88 06 be
       0.15221861 -0.2422976 -0.11377786 -0.13138169
000140 6b ee 16 be 63 d7 2b bd 26 2d 07 3d 0a 37 35 be
       -0.14739387 -0.041953456 0.03300204 -0.17696777
000150 c8 2c 29 bd 74 8d 80 3e 1e 8e 47 be 33 89 9e bd
       -0.041302472 0.2510792 -0.19487807 -0.077410124
000160 2f 4f 3c bd 71 23 d4 bd 86 1c f8 bd e9 0c f0 bc
       -0.045973953 -0.103583224 -0.121148154 -0.029303031
000170 52 ee 37 3e 99 f4 d6 bd 07 60 95 bd 71 43 62 be
       0.17962006 -0.10495872 -0.072937064 -0.2209604
000180 4e d8 ef bd fa 79 57 bc 52 8a 44 be ee f0 b5 bd
       -0.11711179 -0.01315164 -0.1919339 -0.08883844
000190 45 43 6e be b5 61 2f 3c d1 87 25 3e 7d b5 81 bd
       -0.23267849 0.0107044475 0.16165091 -0.06333444
0001a0 f0 ed 0b bd 67 fd c3 bc d7 1e 6d be 3a 06 85 be
       -0.03416246 -0.023924543 -0.23156296 -0.25981313
0001b0 d6 a5 a7 ba cd 47 20 3e 33 c2 a9 3d 49 68 05 be
       -0.0012790512 0.1565239 0.08288994 -0.13028063
0001c0 01 4f 61 3e 96 2e c5 bc ea 07 30 be 98 57 2f be
       0.22002794 -0.024070065 -0.17190519 -0.17123258
0001d0 80 70 b9 bd 1b e1 e9 3d 99 3e 46 3e 91 22 dd 3d
       -0.09054661 0.114198886 0.19359817 0.10797609
0001e0 66 fd 14 3e 0a ea a9 bd 74 98 18 3e 14 22 c7 bd
       0.14549789 -0.082965925 0.14901906 -0.09723297
0001f0 c6 52 26 be 2f 26 c5 3d 5b 27 ac 3c 6b de 52 be
       -0.16242513 0.096264236 0.02101486 -0.20592658
000200 7f 74 24 3c 30 3f ff bd 79 92 17 3e cb 11 0d 3e
       0.01003754 -0.12463224 0.14801969 0.13776319
000210 3f ba 4c 3e e4 01 ac 3d 7f 7e 6f 3e 8a 4a 98 be
       0.19992922 0.08398798 0.23388098 -0.2974437
000220 09 58 aa 3d ea de ec bc 69 f0 b6 3d 5e 83 0a 3e
       0.083175726 -0.028914887 0.08932573 0.13526675
000230 36 d6 c2 3d ba fb 0e bd 3d c9 05 3e ae 45 21 be
       0.09513514 -0.034908034 0.13065048 -0.15749237
000240 89 00 35 3d 54 1c 37 3e 3f a0 ca bd 12 b5 c5 3d
       0.044189963 0.178819 -0.09893846 0.09653677
000250 b4 72 82 bd 07 75 3f bd 01 6f 6b be e1 d6 2e 3d
       -0.06369534 -0.046742465 -0.22991563 0.042685393
000260 83 73 84 be 23 66 1d 3e 99 91 db 3c c0 e8 86 3d
       -0.25869378 0.15370993 0.026802825 0.06587362
000270 f3 4b 89 3d 95 68 22 be e5 dc 47 3d aa d9 b0 bd
       0.06703939 -0.15860207 0.048794646 -0.08635266
000280 2c bb 37 be ed 11 90 bc b0 44 36 be 9c 99 1a be
       -0.17942494 -0.017586673 -0.1779964 -0.1509766
000290 55 3e 3f 3e 3c a7 3f be 65 ec 0d 3b 5f c1 bb 3d
       0.18676122 -0.18716139 0.0021655795 0.09167742
0002a0 56 38 d5 3d c3 8d 96 bd b0 74 ee 3d 80 7b 52 be
       0.10411136 -0.07351258 0.1164335 -0.20554924
0002b0 d7 49 c5 3c 3f 22 78 bd e5 17 0e 3e f2 56 c2 3c
       0.024083061 -0.060579535 0.13876303 0.0237231
0002c0 6e 5a 69 3e 66 10 9f 3d 3b 25 49 3c eb 8e c4 bd
       0.22788402 0.077668 0.012276943 -0.09597572
0002d0 c9 de 03 be e7 76 56 bd 4a 2d 49 3e 36 58 c4 bd
       -0.12877955 -0.052359488 0.19646183 -0.095871374
0002e0 87 53 3a bc 79 08 13 be 6f 4b 9b bc 7f 4e 0d be
       -0.0113724535 -0.14358701 -0.018956868 -0.13799475
0002f0 c3 13 1e 3e 8a f0 e1 3d b5 42 55 3e 63 c2 09 3d
       0.15437226 0.11032207 0.20826228 0.033632647
000300 ce 9f 16 3e 9f 61 c4 bd 8a b3 6a 3e 73 e4 05 3d
       0.14709398 -0.09588932 0.22920051 0.03268857
000310 47 61 00 3e 5d 97 66 bd 20 d1 78 be ce c0 1f be
       0.12537108 -0.056296695 -0.24298525 -0.15600893
000320 2d ce 88 bd 08 40 7f 3d eb 65 56 be 41 15 20 be
       -0.0667995 0.062316924 -0.20937316 -0.15633108
000330 6c 71 81 be a5 34 0c be 8c 3a 2a be 22 91 5c be
       -0.25281847 -0.13691957 -0.16623896 -0.21539739
000340 02 39 1d 3e 77 d3 37 3e d5 16 02 be 35 08 c3 3d
       0.15353778 0.17951761 -0.12704022 0.0952305
000350 cf aa 30 be c4 fa a1 bc ac ca 93 3c 91 fb df 3d
       -0.17252658 -0.019772895 0.018040977 0.10936654
000360 90 4e e2 bd a1 a6 66 3e ae ba 14 be cd a7 98 3d
       -0.11050141 0.22524501 -0.14524338 0.074538805
000370 25 5c 7c bd fe a1 5c be cb d4 6a bd 75 5c f6 3d
       -0.061611313 -0.2154617 -0.05733184 0.120293535
000380 d4 da 0e be 3f 52 4a bd 0b e2 0a 3e bb bd 23 be
       -0.13950664 -0.049394842 0.13562791 -0.15990345
000390 06 69 95 be d7 e9 5f 3e 91 0a d8 3d 9a c2 48 be
       -0.2918169 0.21866547 0.105488904 -0.19605485
0003a0 c0 4c 42 be e8 e7 05 bb 3f d7 42 3e 47 ec 85 bd
       -0.1897459 -0.0020432416 0.19027422 -0.06539207
0003b0 79 c4 21 3e 9a 1a f4 bd dc 4c 3b 3e 8b e8 26 be
       0.15797605 -0.11919136 0.18291038 -0.16299646
0003c0 be 71 2c be 16 92 1d 3e b1 7d f2 3c 2d d9 91 3e
       -0.16840264 0.15387759 0.02960095 0.28486004
0003d0 bd 04 46 be 92 a5 4e be a1 61 99 3e 22 18 22 be
       -0.19337745 -0.20180348 0.29957297 -0.15829518
0003e0 87 07 13 be fd eb 2c 3e 53 d0 17 3e e6 1b 7f bd
       -0.1435834 0.16886897 0.14825563 -0.062282465
0003f0 ae 51 19 be 7b 3f fe bb 0f 1c 6f 3e 9c 24 5f 3e
       -0.14972565 -0.0077590323 0.23350547 0.21791309

encoder.layers.1.self_attn.out_proj.bias f4 [16]
000000 99 05 b1 3d 35 53 31 bd 1c ad 55 bc 30 e4 0c bd
       0.08643646 -0.043292243 -0.013041761 -0.034397304
000010 53 e1 88 3b 7c 30 0a bc d4 0f ef bc 21 6c f6 bc
       0.0041772514 -0.008434411 -0.029182352 -0.030080857
000020 2b ca 36 bd e7 07 0e be 85 66 2f bd 3a e5 8d 3d
       -0.044626396 -0.13870202 -0.04282238 0.06928487
000030 eb dc 18 bb 6d 53 8b bc 07 b8 b4 3d 0c 22 97 3c
       -0.0023325037 -0.017007554 0.08824163 0.018448852
