log/20231223_124920/best_loss.pth (torch, 53303 bytes, 38 tensors)

encoder.layers.0.self_attn.in_proj_weight f4 [48, 16]
0.035639804 0.32133532 -0.03597178 0.14689606 0.1540306 -0.082038626 0.27560502 0.30335113
-0.12187512 -0.20356669 -0.7118456 -0.05312385 0.5633687 -0.07327146 0.17243825 -0.09874068
0.3078314 -0.15440671 0.23196295 -0.14016195 -0.09813186 -0.01671404 0.010563184 0.16033836
-0.050737657 -0.06301507 0.19589373 0.06590187 0.18319175 -0.031763505 0.4542407 -0.014560509
0.036520824 0.2513498 -0.5118402 -0.45148233 -0.13068025 -0.24416374 -0.08286885 0.14603695
0.0064251227 0.27384442 1.2826641 -0.48094827 -0.57563144 -0.13808697 -0.41638255 0.11288011
-0.33686337 -0.21453984 -0.09301556 0.14583582 0.24990427 -0.13360134 0.055342153 0.12323281
0.1358872 0.220907 -0.3031106 -0.38501263 -0.09643506 -0.09651597 -0.18827097 -0.28569245
-0.045260694 -0.049744744 0.29630598 0.36058733 0.0063727577 0.16432282 0.25020006 0.27605549
-0.11957377 0.060068365 -0.8951321 -0.09315387 0.2736777 0.42162699 0.46393034 -0.27289227
-0.14137694 -0.26622862 0.33378527 -0.20223653 -0.09623858 0.24036537 -0.32051444 -0.021017814
0.15225142 -0.23937924 0.9262389 -0.27690566 -0.042744894 -0.3163813 -0.32811698 0.33694384
0.10968387 -0.3605224 0.045957934 0.05879613 0.26194987 0.09264206 -0.072444364 -0.15887722
-0.14514284 0.56213343 -0.775431 0.034419104 0.07954242 0.37302935 0.45768347 -0.024491057
-0.060478184 0.12282253 0.050723627 -0.31660196 -0.02260471 0.32417074 -0.20443496 0.014622072
0.12760279 0.13806859 -0.41835597 -0.19870435 -0.052555922 -0.021126011 0.23250566 -0.21658994
-0.21441612 -0.7472889 0.111370906 -0.14793661 0.00054562243 0.23206386 -0.33980685 0.26305273
0.1037136 -0.22038606 -0.21323702 0.062467445 -0.32614428 -0.26315853 -0.79898256 -0.39201853
-0.22358775 -0.25409994 -0.10634387 0.12043476 0.351841 0.38134763 0.0042043277 0.18723781
-0.21409056 0.41377276 -0.40414843 0.17161559 -0.8068664 -0.14568694 -0.34109986 0.10350406
0.28229612 0.5177187 -0.21635711 0.3165791 -0.27683645 -0.2193736 -0.0050664917 0.10924937
-0.018018218 -0.108623825 0.7868375 -0.23709632 0.33773914 -0.017930664 0.5131515 0.06647542
0.019165201 0.10957576 0.24778962 -0.088400915 -0.1980149 0.14608482 0.12640692 0.22788613
-0.031048711 0.3565134 0.93110627 0.07923832 0.31232998 0.6227011 0.16985196 0.56314296
0.2345623 -0.11770426 0.31108955 -0.013880983 -0.5841993 -0.29047865 -0.4578007 0.22457163
-0.0587126 -0.30721894 2.0610354 -0.011068044 0.34569034 0.038689557 0.62221444 0.32106295
-0.12018721 -0.035590667 -0.21229802 -0.38191983 0.83699626 0.2530052 -0.3529154 -0.0770481
0.28252468 -0.18006267 -0.6619133 -0.041969378 -0.474679 -0.3322687 -0.5617316 -0.037783977
0.25886425 0.35904124 -0.099861056 0.03388357 -0.21803883 -0.003257285 0.08878568 0.07225622
-0.038566146 -0.23086967 0.29920852 -0.40279663 0.768654 0.11030478 0.8850849 -0.09882375
-0.23217781 0.59654194 0.32811823 -0.30386248 0.15094769 0.04289461 -0.46530992 -0.14078844
0.33778265 -0.15047398 0.06429204 -0.16598639 0.075267866 -0.30609924 -0.53223497 0.1648971
00000000: 0bfb 113d 1086 a43e 2557 13bd ec6b 163e
00000010: 33ba 1d3e de03 a8bd 1a1c 8d3e d750 9b3e
00000020: aa99 f9bd c973 50be 833b 36bf 6598 59bd
00000030: ee38 103f 590f 96bd a793 303e 8e38 cabd
00000040: 149c 9d3e cb1c 1ebe b287 6d3e 9d86 0fbe
00000050: 5bf9 c8bd e2eb 88bc 3411 2d3c bd2f 243e
00000060: 4ad2 4fbd 0c0e 81bd 5e98 483e 8ff7 863d
00000070: 9e96 3b3e 731a 02bd 3d92 e83e 338f 6ebc
00000080: dc96 153d ecb0 803e f607 03bf b128 e7be
00000090: 0bd1 05be 0f06 7abe 25b7 a9bd b68a 153e
000000a0: d689 d23b 5635 8c3e 562e a43f da3e f6be
000000b0: 955c 13bf ac66 0dbe 1830 d5be b02d e73d
000000c0: 5b79 acbe 55b0 5bbe f17e bebd fc55 153e
000000d0: e8e6 7f3e cace 08be 74ae 623d 7c61 fc3d
000000e0: 0426 0b3e 7235 623e 5031 9bbe 6020 c5be
000000f0: bf7f c5bd 2aaa c5bd 1bca 40be 4846 92be
00000100: 4763 39bd 25c1 4bbd 6bb5 973e e79e b83e
00000110: 91d2 d03b 3e44 283e 391a 803e 2557 8d3e
00000120: 18e3 f4bd 3f0a 763d 6127 65bf 75c7 bebd
00000130: 7c1f 8c3e 7edf d73e 4788 ed3e 89b8 8bbe
00000140: 1ec5 10be 1e4f 88be e7e5 aa3e 1817 4fbe
00000150: bc18 c5bd 5722 763e 781a a4be 8d2d acbc
00000160: cce7 1b3e d51f 75be fe1d 6d3f 94c6 8dbe
00000170: 4515 2fbd bbfc a1be f3fe a7be e783 ac3e
00000180: f0a1 e03d 6496 b8be 633e 3c3d 36d4 703d
00000190: 4b1e 863e 1fbb bd3d b65d 94bd b6b0 22be
000001a0: 53a0 14be fae7 0f3f a582 46bf 0cfb 0c3d
000001b0: 23e7 a23d b4fd be3e 7d55 ea3e 78a1 c8bc
000001c0: f9b7 77bd 618a fb3d 94c3 4f3d a719 a2be
000001d0: 832d b9bc b5f9 a53e 6657 51be 6a91 6f3c
000001e0: 4eaa 023e da61 0d3e c132 d6be 2779 4bbe
000001f0: e144 57bd 7510 adbc f715 6e3e c1c9 5dbe
00000200: e68f 5bbe 534e 3fbf 6e16 e43d b27c 17be
00000210: 1a08 0f3a 26a2 6d3e 2afb adbe d9ae 863e
00000220: cc67 d43d e2ac 61be ce5a 5abe dddd 7f3d
00000230: 62fc a6be b7bc 86be 1f8a 4cbf a7b6 c8be
00000240: 30f4 64be 6319 82be d1ca d9bd 80a6 f63d
00000250: 8124 b43e ff3f c33e 75c4 893b 45bb 3f3e
00000260: 8e3a 5bbe 06da d33e 8bec cebe ffbb 2f3e
00000270: cc8e 4ebf f52e 15be a4a4 aebe f0f9 d33d
00000280: 1e89 903e 3689 043f b88c 5dbe a816 a23e
00000290: 82bd 8dbe 79a3 60be d004 a6bb 22be df3d
000002a0: f19a 93bc 2b76 debd 2f6e 493f 61c9 72be
000002b0: 25ec ac3e 54e3 92bc e65d 033f 4424 883d
000002c0: 5700 9d3c 4269 e03d 90bc 7d3e 8a0b b5bd
000002d0: 6bc4 4abe 4297 153e d170 013e fb5a 693e
000002e0: de59 febc ed88 b63e fb5c 6e3f b347 a23d
000002f0: b7e9 9f3e 5769 1f3f aced 2d3e 232a 103f
00000300: 1931 703e ee0e f1bd 2147 9f3e 106d 63bc
00000310: 168e 15bf 9eb9 94be da64 eabe 1bf6 653e
00000320: a07c 70bd cd4b 9dbe 01e8 0340 be56 35bc
00000330: 53fe b03e f178 1e3d 7249 1f3f 5d62 a43e
00000340: b624 f6bd 85c7 11bd a764 59be ff8a c3be
00000350: 6345 563f e689 813e 54b1 b4be 65cb 9dbd
00000360: 13a7 903e 5962 38be 2673 29bf 15e8 2bbd
00000370: 2009 f3be 1f1f aabe a4cd 0fbf 5fc3 1abd
00000380: db89 843e 41d4 b73e f483 ccbd 80c9 0a3d
00000390: 9245 5fbe 2d78 55bb 44d5 b53d 12fb 933d
000003a0: 89f7 1dbd 1969 6cbe dc31 993e 5c3b cebe
000003b0: 82c6 443f 79e7 e13d ed94 623f 1b64 cabd
000003c0: 05c0 6dbe f9b6 183f 1dff a73e dd93 9bbe
000003d0: 0892 1a3e 42b2 2f3d 1a3d eebe d82a 10be
000003e0: d9f1 ac3e da15 1abe 8cab 833d 56f8 29be
000003f0: 0a26 9a3d 0ab9 9cbe 8d40 08bf c9da 283e

encoder.layers.0.self_attn.in_proj_bias f4 [48]
0.04165594 -0.044932004 -0.11003493 0.0235677 0.0135529535 0.05662466 -0.10017257 -0.048717145
-0.04180982 0.117667496 -0.13099197 0.3366401 0.14460517 0.06369726 -0.15468788 0.089993544
0.0077758986 -0.0061449427 -0.0032356547 0.002786647 0.0020143858 0.0011261696 0.015701858 -0.0017186368
0.002818375 0.013345683 0.0057869283 0.0224551 0.0032481833 -0.02833694 0.0012373839 -0.01696788
-0.0033097193 -0.084274605 0.039786026 0.06012217 0.12707207 0.093509205 -0.010301728 -0.11751634
-0.0023851946 0.03731487 -0.08767486 -0.04195996 0.0028654386 0.057406045 0.08400726 -0.0143209025
00000000: 6b9f 2a3d 9f0a 38bd fe59 e1bd 0d11 c13c
00000010: 350d 5e3c 42ef 673d 4727 cdbd a18b 47bd
00000020: c640 2bbd a8fb f03d c222 06be 175c ac3e
00000030: 6113 143e b673 823d 8066 1ebe 894e b83d
00000040: f7cc fe3b 845b c9bb 470d 54bb 2ea0 363b
00000050: c903 043b fb9b 933a 2fa1 803c e243 e1ba
00000060: 7cb4 383b daa7 5a3c 46a0 bd3b c2f3 b73c
00000070: 79df 543b df22 e8bc b72f a23a 3900 8bbc
00000080: e0e7 58bb 2a98 acbd acf6 223d aa42 763d
00000090: 2e1f 023e c181 bf3d 94c8 28bc 68ac f0bd
000000a0: ed50 1cbb 7ad7 183d e18e b3bd 35de 2bbd
000000b0: 15ca 3b3b 9a22 6b3d 000c ac3d 38a2 6abc

encoder.layers.0.self_attn.out_proj.weight f4 [16, 16]
-0.18199953 -0.0354153 -0.12422363 -0.041325137 -0.010376492 -0.072965026 -0.051192023 -0.21092522
-0.107875 0.015700804 -0.11069151 0.019239549 0.031994723 -0.076919295 -0.15727672 -0.17656185
-0.12889671 -0.035122804 -0.037776288 0.03444602 -0.053952377 0.07240615 0.09201453 -0.048497118
-0.118206516 -0.096583284 -0.015730971 -0.19344802 0.010899304 -0.00888173 -0.070383765 0.011535819
-0.00092363206 -0.017544415 0.09490342 0.036020987 0.016578231 -0.034737952 0.104483575 -0.12985651
0.14197645 0.11358292 -0.026845852 0.06670198 -0.08791207 -0.20524833 0.008986082 -0.04817393
-0.14460796 -0.024310805 0.059436966 -0.018931175 -0.00625807 0.053360872 -0.026565032 0.012022685
0.05016687 -0.06532761 0.05457612 0.069448 -0.015497108 -0.0620268 -0.05981409 -0.07280308
0.02115863 0.005869035 -0.014933656 -0.017101793 0.027894432 -0.030715587 -0.028763054 -0.038896535
0.007817483 -0.09802682 0.044545993 -0.00913949 -0.01856903 -0.007887591 -0.014704765 0.0012677843
-0.09180198 0.015415587 -0.063436136 -0.002402921 0.02720517 -0.049970742 -0.025377162 -0.10030489
0.0034769007 -0.09887924 -0.049515128 -0.035723176 0.051538154 -0.09240792 -0.12682451 -0.08839414
-0.03585755 -0.044303257 0.058277212 0.019664142 0.09813132 0.01913628 -0.08087883 0.024629628
0.0038254925 -0.051627297 0.019730473 0.07949486 0.18995479 -0.037005465 -0.022905687 -0.02741023
-0.12049213 -0.076078855 0.19600433 0.019446004 -0.030308958 0.004215485 0.14041294 -0.06307743
0.035116185 -0.066653386 0.09457956 -0.020164812 0.12241144 -0.17711264 -0.22443324 -0.0057879835
-0.07641682 0.03863371 -0.03303585 0.013580963 0.007348941 -0.106436126 0.04772569 -0.09033112
0.022859583 -0.015710443 0.046402358 -0.027484573 0.05081779 -0.028562846 -0.077152446 0.025763925
-0.044603553 0.0077658347 0.039928194 -0.04395576 -0.057964478 -0.093735985 0.032209966 -0.036853507
0.04710933 -0.027775321 -0.027255159 -0.0122297 -0.011399927 -0.07149369 -0.09764298 -0.024964228
-0.0150776515 0.011437542 -0.03015479 -0.011137391 0.021340523 0.0024562033 0.008955153 0.026769452
-0.018964747 0.007028783 -0.014989027 -0.022164403 0.008883552 0.01634543 0.0024663357 0.0050952514
-0.02667736 0.018113831 0.13189533 -0.05295758 0.08278129 0.0025246316 -0.07758631 -0.09614969
-0.034706715 -0.0017568102 -0.01084937 -0.054194126 -0.06893829 0.026763806 0.01032819 0.033518136
-0.15116647 -0.01731698 0.032336395 -0.049684916 -0.0031543844 0.055490803 0.00716929 -0.05057681
-0.017716119 -0.024416639 0.020280229 0.05905672 -0.0152722495 -0.08855833 -0.06844813 -0.15499853
-0.09472666 0.027293082 0.025139311 -0.035731174 -0.050281566 0.055811062 0.06399347 -0.1275348
-0.037377153 -0.011184817 -0.018255768 0.06255132 0.06444459 -0.07527214 -0.088041216 -0.014236202
-0.017530497 -0.11692524 0.09341164 0.13084629 -0.04537609 -0.050234165 -0.013742787 -0.028379705
0.06882863 -0.030238789 -0.04940586 -0.018123383 -0.028077802 -0.1213131 -0.048290506 -0.031410936
0.023465756 0.017034234 -0.005926455 -0.007218862 -0.013200107 0.0018095528 -0.0057829497 0.020386027
-0.0022848179 0.03874958 -0.009459053 -0.0062786476 -0.009768984 0.02174747 0.0056535946 0.0147049865
00000000: 165e 3abe a20f 11bd f568 febd 8c44 29bd
00000010: 2902 2abc b06e 95bd baae 51bd c8fc 57be
00000020: 91ed dcbd f99e 803c 3bb2 e2bd 429c 9d3c
00000030: e60c 033d dd87 9dbd 260d 21be a1cc 34be
00000040: 80fd 03be eedc 0fbd 4fbb 1abd 4517 0d3d
00000050: 2bfd 5cbd ad49 943d 1d72 bc3d eaa4 46bd
00000060: 4216 f2bd 75cd c5bd 3dde 80bc 3d17 46be
00000070: ff92 323c ad84 11bc 5d25 90bd bb00 3d3c
00000080: e61f 72ba 4eb9 8fbc b95c c23d be8a 133d
00000090: 12cf 873c 6249 0ebd 7cfb d53d 1bf9 04be
000000a0: 4662 113e 299e e83d d5eb dbbc 0c9b 883d
000000b0: 3e0b b4bd 9e2c 52be 5c3a 133c 0752 45bd
000000c0: 1c14 14be 7427 c7bc 2d74 733d 8d15 9bbc
000000d0: 7f10 cdbb ee90 5a3d e99e d9bc ccfa 443c
000000e0: c77b 4d3d 7bca 85bd 368b 5f3d c13a 8e3d
000000f0: 95e7 7dbc d00f 7ebd 9fff 74bd c819 95bd
00000100: dd54 ad3c 0951 c03b 4bac 74bc 0f19 8cbc
00000110: dd82 e43c 419f fbbc 7fa0 ebbc f951 1fbd
00000120: e614 003c 49c2 c8bd dc75 363d cdbd 15bc
00000130: 141e 98bc f43a 01bc 41ec 70bc c82b a63a
00000140: ad02 bcbd a991 7c3c ceea 81bd 537a 1dbb
00000150: 60dd de3c 1fae 4cbd c4e3 cfbc a66c cdbd
00000160: b7dc 633b 3381 cabd 60d0 4abd 7752 12bd
00000170: ac19 533d 5d40 bdbd 49de 01be fd07 b5bd
00000180: 5edf 12bd 5577 35bd 16b4 6e3d b216 a13c
00000190: 13f9 c83d b0c3 9c3c cda3 a5bd 13c4 c93c
000001a0: 1db5 7a3b 2577 53bd cda1 a13c 33ce a23d
000001b0: 8283 423e 0b93 17bd b5a4 bbbc 6b8b e0bc
000001c0: 94c4 f6bd 3bcf 9bbd 5cb5 483e 3a4d 9f3c
000001d0: 7e4a f8bc 0d22 8a3b 69c8 0f3e bd2e 81bd
000001e0: fdd5 0f3d 9281 88bd eeb2 c13d ad30 a5bc
000001f0: d9b2 fa3d 045d 35be d4d1 65be 20a9 bdbb
00000200: 6c80 9cbd 623e 1e3d 9950 07bd b082 5e3c
00000210: 63cf f03b 2ffb d9bd 037c 433d 86ff b8bd
00000220: 0544 bb3c 30b3 80bc 6610 3e3d 5427 e1bc
00000230: 5126 503d a1fc e9bc 1a02 9ebd de0e d33c
00000240: 37b2 36bd 8b78 fe3b bf8b 233d f40a 34bd
00000250: 296c 6dbd a7f8 bfbd 99ee 033d b4f3 16bd
00000260: b6f5 403d 1289 e3bc 3646 dfbc 145f 48bc
00000270: c2c6 3abc 496b 92bd 0bf9 c7bd c881 ccbc
00000280: 4108 77bc 8764 3b3c 2e07 f7bc 9b79 36bc
00000290: 52d2 ae3c 41f8 203b a2b8 123c 9c4b db3c
000002a0: f55b 9bbc b551 e63b 8994 75bc 1f92 b5bc
000002b0: 518c 113c dae6 853c 3fa2 213b 11f6 a63b
000002c0: 7b8a dabc 7563 943c 920f 073e 0cea 58bd
000002d0: 3d89 a93d 4a74 253b 92e5 9ebd 21ea c4bd
000002e0: a128 0ebd c544 e6ba 8ec1 31bc a9fa 5dbd
000002f0: 852f 8dbd c53f db3c 9237 293c 504a 093d
00000300: 62cb 1abe 57dc 8dbc 2b73 043d 6982 4bbd
00000310: cab9 4ebb 534a 633d 5dec ea3b a129 4fbd
00000320: 6521 91bc 6705 c8bc b922 a63c 76e5 713d
00000330: 7538 7abc 125e b5bd 882e 8cbd efb7 1ebe
00000340: 0d00 c2bd be95 df3c f5f0 cd3c da5a 12bd
00000350: 0bf4 4dbd 249a 643d 020f 833d 7c98 02be
00000360: c918 19bd 8640 37bc 1f8d 95bc e81a 803d
00000370: 86fb 833d 4828 9abd f44e b4bd f63e 69bc
00000380: 1e9c 8fbc 8076 efbd 9a4e bf3d 92fc 053e
00000390: 47dc 39bd 57c2 4dbd 6d29 61bc 8e7c e8bc
000003a0: 06f6 8c3d 56b7 f7bc cd5d 4abd 7d77 94bc
000003b0: 6b03 e6bc 0173 f8bd 44cc 45bd c1a8 00bd
000003c0: 423b c03c 618b 8b3c b532 c2bb 348c ecbb
000003d0: 4345 58bc 842e ed3a e67e bdbb 9900 a73c
000003e0: e2bc 15bb e1b7 1e3d 25fa 1abc 1dbd cdbb
000003f0: 170e 20bc c027 b23c ca41 b93b 2fed 703c

encoder.layers.0.self_attn.out_proj.bias f4 [16]
0.013786741 0.0035380174 0.055890646 -0.020661261 0.017813325 -0.058455937 -0.026497437 -0.03176607
-0.0488309 0.0065994724 -0.0010237568 -0.03341599 -0.0017876386 -0.021371637 -0.0052210297 0.0032995397
00000000: c8e1 613c 15de 673b 97ed 643d ce41 a9bc
00000010: 40ed 913c 7e6f 6fbd 2711 d9bc 231d 02bd
00000020: e902 48bd 6340 d83b 942f 86ba 35df 08bd
00000030: 334f eaba 9213 afbc 2c15 abbb 173d 583b

encoder.layers.0.linear1.weight f4 [64, 16]
0.16676566 0.16113475 0.07619739 -0.32502195 -0.41347978 0.26728243 0.18715785 0.095560215
0.10795042 -0.4258821 -0.055801835 0.21515484 -0.35954097 0.6697386 -0.45251712 0.5054699
-0.30440602 -0.15628546 -0.33350512 -0.0363501 -0.031421173 0.32470152 -0.48069447 0.15704994
0.08374425 -0.32344854 0.2023264 0.6079162 -0.60011035 0.28285146 -0.35589385 -0.021927604
-0.010351192 0.014225864 0.027764462 -0.0134458495 0.20839158 -0.17431845 0.22960292 0.028837787
0.08834959 -0.06448788 0.31287858 0.9974797 -0.3784885 -0.1291198 -0.3872835 -0.37500688
-0.53221613 -0.20472509 0.42091158 -0.35729885 -0.29491103 -0.043142777 -0.42586946 0.31649992
0.2986315 -0.21099229 0.063476674 0.24015242 -0.36929047 0.029077737 -0.5982618 0.36356103
-0.30063343 -0.07619421 0.043877833 -0.26636654 -0.34642392 -0.5908622 0.36638767 -0.08678171
0.50854933 -0.3100925 0.43844175 -0.015208498 0.2293414 -0.109908335 -0.2030742 -0.19340086
-0.6465518 0.4590509 -0.0800556 -0.20515847 -0.25431237 -0.08044042 0.2302037 0.43190765
0.017930482 -0.103773296 0.16032965 0.23202708 -0.494993 0.38923046 -0.32116976 0.30308494
0.22890879 0.088688046 0.107846566 -0.31201634 -0.72750574 -0.33393666 0.11860508 -0.05710035
0.07867579 0.3287581 0.27499008 -0.087953225 -0.24382508 -0.0026773042 0.037875567 -0.18370904
0.14719728 -0.330845 0.14773539 -0.31707323 -0.5315107 0.24469274 0.1973137 -0.22344965
0.38096046 -0.3556651 -0.036773648 0.30107337 -0.40150452 0.32062414 -0.48055217 0.5498811
0.18814793 -0.14385594 0.2810379 -0.3362798 -0.32382312 0.19406113 -0.46311995 0.111420855
0.51726115 -0.5407574 0.14879046 -0.11785913 -0.87454164 0.41714337 -0.40829855 0.16545561
-0.2897267 -0.43859148 -0.1403404 0.02337017 0.29418597 -0.12774032 0.068515345 0.115386486
0.6120439 -0.031964894 0.27528554 0.84899575 -0.7531338 -0.09169076 -0.6680019 -0.17785649
-0.2501136 -0.101341136 0.16218166 -0.12240882 0.2706359 0.09214652 0.54935646 0.2514783
-0.20355725 0.016352557 0.107848726 0.59874606 -0.25802037 -0.17899182 -0.32023713 -0.003646061
-0.18116872 0.10065447 0.090707816 -0.21684027 -0.05571559 -0.24153715 0.19907156 0.61463857
-0.35157654 -0.24586123 0.012798131 -0.090376854 -0.11358998 0.14389198 -0.11010267 -0.30185533
0.06300409 0.04244761 0.04917238 -0.49374416 -0.07832594 0.10445373 0.5170074 0.1200218
0.24005729 -0.7423179 0.08366156 0.5861305 -0.404895 0.095984116 -0.61282945 -0.022662988
-0.36111134 0.039988447 -0.069579355 -0.0068632187 -0.28584227 0.084493324 0.37970397 0.6408483
-0.12574616 -0.22431564 -0.23595303 0.30082855 -0.81936663 0.29003397 -0.31969613 -0.05335301
-0.3190547 -0.26233524 0.055883177 0.17536065 -0.4656502 -0.20286964 0.14255399 0.13232735
0.32208034 0.02001621 0.043924496 -0.012550388 0.07204102 0.20623599 0.13672467 -0.3309417
0.02538394 -0.14560796 0.05454238 -0.32858396 -0.63790786 -0.21233144 0.19996646 0.26227215
0.4355839 0.2594608 0.35369325 -0.14020129 -0.13472514 0.1647058 0.03543611 -0.32959306
00000000: 9ec4 2a3e 8200 253e 610d 9c3d 4769 a6be
00000010: 9fb3 d3be 3ed9 883e 4fa6 3f3e 13b5 c33d
00000020: 1c15 dd3d 380d dabe 7790 64bd 8d51 5c3e
00000030: c115 b8be fd73 2b3f 53b0 e7be 7a66 013f
00000040: 1bdb 9bbe 4c09 20be 2fc1 aabe d8e3 14bd
00000050: 7db3 00bd 473f a63e 961d f6be b3d1 203e
00000060: 1b82 ab3d 0c9b a5be a72e 4f3e 65a0 1b3f
00000070: d5a0 19bf e8d1 903e b837 b6be 85a1 b3bc
00000080: 0c98 29bc 9913 693c 4c72 e33c fb4b 5cbc
00000090: 9a64 553e 8980 32be 071d 6b3e 393d ec3c
000000a0: a1f0 b43d 3912 84bd 9f31 a03e d45a 7f3f
000000b0: 3fc9 c1be fb37 04be 064a c6be e700 c0be
000000c0: 513f 08bf 74a3 51be b981 d73e e0ef b6be
000000d0: 94fe 96be 7bb6 30bd 900b dabe 470c a23e
000000e0: 3ae6 983e 5d0e 58be 0f00 823d 84ea 753e
000000f0: a413 bdbe 6f34 ee3c af27 19bf ac24 ba3e
00000100: a0ec 99be b60b 9cbd 3eb9 333d 3261 88be
00000110: 7a5e b1be bf42 17bf 2a97 bb3e 9cba b1bd
00000120: 4a30 023f 72c4 9ebe 707b e03e 102d 79bc
00000130: 79d8 6a3e 9f17 e1bd aff2 4fbe e00a 46be
00000140: 6b84 25bf b808 eb3e 31f4 a3bd 1015 52be
00000150: 3b35 82be f2bd a4bd 85ba 6b3e 0023 dd3e
00000160: f2e2 923c 1887 d4bd 752d 243e 8298 6d3e
00000170: b96f fdbe 3749 c73e 5d70 a4be f32d 9b3e
00000180: 1167 6a3e 14a2 b53d a9de dc3d 9bc0 9fbe
00000190: d13d 3abf bff9 aabe 38e7 f23d 0ee2 69bd
000001a0: c620 a13d fb52 a83e 80cb 8c3e d220 b4bd
000001b0: 48ad 79be b675 2fbb 6923 1b3d 391e 3cbe
000001c0: e2ba 163e 8464 a9be f247 173e 6c57 a2be
000001d0: 1611 08bf bc90 7a3e 9a0c 4a3e fccf 64be
000001e0: 400d c33e bc19 b6be f79f 16bd 4a26 9a3e
000001f0: 0092 cdbe d928 a43e ef0a f6be 02c5 0c3f
00000200: daa9 403e f94e 13be 33e4 8f3e de2c acbe
00000210: 25cc a5be f6b7 463e 0f1e edbe 9e30 e43d
00000220: 3a6b 043f 146f 0abf 875c 183e 2160 f1bd
00000230: f6e1 5fbf d193 d53e 820c d1be 326d 293e
00000240: 0f57 94be 108f e0be 65b5 0fbe cc72 bf3c
00000250: 8b9f 963e 5cce 02be c651 8c3d c04f ec3d
00000260: e9ae 1c3f 9fed 02bd 3af2 8c3e c957 593f
00000270: 60cd 40bf 5dc8 bbbd 2c02 2bbf 0320 36be
00000280: e40e 80be f18b cfbd f312 263e 7ab1 fabd
00000290: ca90 8a3e 51b7 bc3d a0a2 0c3f c4c1 803e
000002a0: 5071 50be ccf5 853c cbdf dc3d 6c47 193f
000002b0: 3f1b 84be a249 37be 1ff6 a3be c1f2 6ebb
000002c0: 4b84 39be ee23 ce3d 05c5 b93d 600b 5ebe
000002d0: 0836 64bd 8455 77be 6ad9 4b3e f458 1d3f
000002e0: d701 b4be 0cc3 7bbe 41af 513c 8017 b9bd
000002f0: dda1 e8bd 6b58 133e 827d e1bd c88c 9abe
00000300: 4a08 813d 8cdd 2d3d fa68 493d 09cc fcbe
00000310: 5a69 a0bd d6eb d53d 995a 043f fdcd f53d
00000320: 94d1 753e 8c08 3ebf c156 ab3d a60c 163f
00000330: 664e cfbe 5293 c43d 64e2 1cbf bba7 b9bc
00000340: 96e3 b8be edca 233d 9f7f 8ebd dae4 e0bb
00000350: eb59 92be d60a ad3d 8f68 c23e a20e 243f
00000360: 9ac3 00be 00b3 65be ac9d 71be 3306 9a3e
00000370: 03c2 51bf 557f 943e 36af a3be b088 5abd
00000380: 235b a3be ce50 86be c2e5 643d be91 333e
00000390: b469 eebe 0fbd 4fbe acf9 113e d280 073e
000003a0: b7e7 a43e 09f9 a33c 2cea 333d 25a0 4dbc
000003b0: 3e8a 933d 872f 533e 8d01 0c3e 3171 a9be
000003c0: fbf1 cf3c 411a 15be d567 5f3d 283c a8be
000003d0: ee4d 23bf 6a6d 59be 02c4 4c3e 8948 863e
000003e0: da04 df3e 0cd8 843e 4817 b53e ed90 0fbe
000003f0: 63f5 09be a3a8 283e 7425 113d 6cc0 a8be

encoder.layers.0.linear1.bias f4 [64]
0.19253488 -0.17997795 -0.27586764 0.122148804 -0.33624077 -0.47752017 -0.33107346 -0.15308398
-0.17626433 -0.28301585 -0.37038475 -0.43542367 0.029846475 -0.37086496 -0.43904406 -0.20172079
-0.42576903 -0.7155362 -0.39660075 -0.13742608 -0.22732373 -0.21655752 0.23021372 -0.4373879
-0.08889353 -0.1835147 -0.10239581 -0.55113125 -0.36916524 -0.5183014 0.09364635 -0.40263665
-0.26586378 -0.08543416 -0.40477446 -0.38339654 -0.389982 -0.25191566 -0.48642424 -0.3468834
-0.17144278 -0.35299855 -0.40648225 -0.22547841 0.23330733 -0.040682368 -0.5202562 -0.29339343
-0.039942935 -0.47264153 -0.06388792 -0.43483636 -0.5412126 -0.40127227 -0.36177543 -0.36251265
-0.4342332 -0.6290062 -0.26788348 -0.26973647 -0.27801037 -0.44518876 -0.252859 -0.67288476
00000000: dd27 453e 244c 38be 863e 8dbe 2729 fa3d
00000010: c027 acbe 867d f4be 7682 a9be 0cc2 1cbe
00000020: a37e 34be 74e7 90be 12a3 bdbe daef debe
00000030: 9880 f43c 03e2 bdbe 62ca e0be e58f 4ebe
00000040: 66fe d9be 612d 37bf 410f cbbe 6cb9 0cbe
00000050: 8dc7 68be 41c1 5dbe 25bd 6b3e 4ff1 dfbe
00000060: d00d b6bd 47eb 3bbe e5b4 d1bd f016 0dbf
00000070: 3a03 bdbe 67af 04bf a8c9 bf3d 6426 cebe
00000080: 4c1f 88be 1bf8 aebd 993e cfbe 8d4c c4be
00000090: b9ab c7be 17fb 80be 990c f9be b39a b1be
000000a0: b28e 2fbe 3abc b4be 711e d0be d0e3 66be
000000b0: 1ee8 6e3e 8ea2 26bd 832f 05bf aa37 96be
000000c0: 349b 23bd 12fe f1be abd7 82bd dfa2 debe
000000d0: e98c 0abf 8f73 cdbe a13a b9be 429b b9be
000000e0: d053 debe 8d06 21bf 0628 89be e61a 8abe
000000f0: 6057 8ebe c8ef e3be bc76 81be 2d42 2cbf

encoder.layers.0.linear2.weight f4 [16, 64]
0.6867885 0.36345628 0.45954522 -0.3031958 0.45944905 0.46655726 -0.31128478 0.5243609
0.25198954 0.4167151 0.43471912 -0.23747414 0.6259681 0.33587584 -0.29815316 -0.074403115
0.30359668 0.5227751 0.18926562 0.029384293 0.17388956 -0.6033991 0.23384282 -0.34272856
0.01534007 -0.26248726 -0.19869551 0.011107114 -0.8163696 -0.6779876 0.2808443 -0.04104131
-0.23643863 0.24729733 -0.07133705 -0.30829462 0.13822637 -0.6067775 0.13585013 0.23449792
0.13570526 -0.13527635 0.24649423 -0.009581584 0.035592712 0.33783525 -0.15192524 -0.3050747
-0.2622181 -0.0957627 0.30505538 -0.49320692 -0.26176187 0.30514738 0.0960358 -0.26206607
0.31930628 0.0613349 0.18749537 0.5093341 0.5724653 -0.088449135 -0.008150286 -0.43928322
-0.2155557 -0.3336421 -0.3464679 -0.18681449 0.6770797 0.14692062 0.14755367 -0.24456169
-0.5823839 -0.38212892 0.24461317 -0.20353366 -0.31920734 0.15546198 0.35004717 -0.16914225
-0.055514928 -0.0636266 -0.15976562 -0.45194387 -0.3535377 0.38523972 -0.566714 -0.15979126
-0.54231864 -0.1580745 -0.08425913 -0.01986479 -0.070979424 -0.31987527 -0.40889823 0.3312997
-0.24681823 -0.42468515 -0.25757474 0.07269432 0.32053956 -0.31830683 -0.270105 0.44788268
-0.21287993 -0.23270933 -0.09940841 -0.40805995 0.22492655 -0.4659687 0.107779555 -0.12211139
-0.1616077 -0.1876816 0.28480566 -0.40641165 0.17723694 -0.22697239 0.1386639 -0.13840494
0.13130154 -0.021354022 -0.34526998 -0.345106 -0.7078816 -0.1936172 -0.22463039 -0.07452119
0.32878685 -0.17198996 -0.47415057 -0.5067008 0.13839251 0.44815525 -0.018014373 -0.4575453
-0.24957368 0.45093575 0.1064518 -0.111550234 -0.470691 0.44046614 0.16175567 -0.076922745
0.47092277 0.13439806 0.0055278293 -0.05214091 0.029217403 0.28984278 0.07156638 -0.3632577
-0.023674022 -0.21982934 0.36689064 0.2984593 -0.4204589 -0.46227482 0.2693778 -0.11456934
-0.11653563 0.11080852 -0.38501143 -0.3099713 -0.24894829 -0.43503767 0.3315089 -0.18401435
-0.13442357 -0.52298206 0.19919322 0.004538426 -0.49711087 -0.11776158 -0.13624649 -0.31207117
-0.4128143 -0.25973237 -0.3089345 -0.44987163 -0.009490393 -0.17134348 -0.33381042 0.2906699
0.50758725 -0.14700267 0.18833923 0.35454068 -0.2588321 -0.16211359 0.057966165 -0.069109686
0.13861759 0.1378825 -0.6981998 -0.37927452 -0.46381184 -0.43174407 -0.037192427 -0.43228546
-0.5704727 -0.33675587 -0.13323554 0.24154405 1.0152959 0.31402013 -0.12142927 -0.23059411
-0.24634647 -0.25857934 0.13391234 -0.047088213 0.06097979 -0.050331645 0.613114 -0.07367775
-0.17074974 -0.20342489 0.24863873 -0.16552098 -0.35652232 0.17464294 0.5643359 0.06334847
-0.24891889 0.5623179 0.1347154 0.059131764 0.0497828 -0.26587656 -0.12976143 0.098268196
-0.07460718 0.41936296 -0.30360547 -0.10454933 0.6878592 -0.19494815 -0.09096123 -0.43267405
-0.31745577 -0.12179161 -0.15733387 -0.020036917 0.15140978 -0.5476883 -0.3071997 -0.0528321
0.13599479 -0.18940182 -0.038144372 -0.120378464 -0.058930594 -0.35483566 -0.31259617 0.47527158
00000000: 5fd1 2f3f f116 ba3e 8349 eb3e 7b3c 9bbe
00000010: e83c eb3e 98e0 ee3e b860 9fbe 843c 063f
00000020: c604 813e ae5b d53e 8193 de3e 6c2c 73be
00000030: 723f 203f ebf7 ab3e 88a7 98be a960 98bd
00000040: 0671 9b3e 97d4 053f d9ce 413e 54b7 f03c
00000050: 1b10 323e 5d78 1abf 7e74 6f3e 1e7a afbe
00000060: eb54 7b3c bb64 86be d676 4bbe 9dfa 353c
00000070: 99fd 50bf 9890 2dbf d3ca 8f3e ef1a 28bd
00000080: f81c 72be 833b 7d3e 2919 92bd cbd8 9dbe
00000090: 378b 0d3e c555 1bbf 4c1c 0b3e 3920 703e
000000a0: 52f6 0a3e e285 0abe fc68 7c3e 13fc 1cbc
000000b0: aac9 113d bef8 ac3e 4a92 1bbe c032 9cbe
000000c0: 7341 86be 3c1f c4bd 3830 9c3e 9e85 fcbe
000000d0: a705 86be 473c 9c3e 6bae c43d 862d 86be
000000e0: 1d7c a33e 4e3a 7b3d c9fe 3f3e b863 023f
000000f0: 168d 123f d224 b5bd c788 05bc bbe9 e0be
00000100: a2ba 5cbe 23d3 aabe 3e64 b1be 4c4c 3fbe
00000110: 1855 2d3f 5c72 163e 4f18 173e 616e 7abe
00000120: 1c17 15bf 67a6 c3be e07b 7a3e 216b 50be
00000130: 256f a3be 6d31 1f3e 6239 b33e a033 2dbe
00000140: 9f63 63bd aa4e 82bd 9999 23be 3065 e7be
00000150: e502 b5be 243e c53e 2b14 11bf 52a0 23be
00000160: 65d5 0abf 48de 21be 0d90 acbd 7cbb a2bc
00000170: a95d 91bd b1c6 a3be 1c5b d1be 1da0 a93e
00000180: ebbd 7cbe 5570 d9be d6e0 83be c2e0 943d
00000190: c31d a43e 1df9 a2be 344b 8abe e150 e53e
000001a0: 32fd 59be 5b4b 6ebe a396 cbbd 3ced d0be
000001b0: 2553 663e 7393 eebe 87bb dc3d 8915 fabd
000001c0: 7d7c 25be 9b2f 40be 0cd2 913e 3015 d0be
000001d0: 9a7d 353e 736b 68be e9fd 0d3e 06ba 0dbe
000001e0: e973 063e a1ee aebc 3ac7 b0be bcb1 b0be
000001f0: bb37 35bf 9643 46be 8205 66be 919e 98bd
00000200: c056 a83e 231e 30be ddc3 f2be 25b7 01bf
00000210: c4b6 0d3e 9b74 e53e e192 93bc 6143 eabe
00000220: 3e90 7fbe 0de1 e63e 6703 da3d 7374 e4bd
00000230: 69fe f0be c784 e13e 47a3 253e ac89 9dbd
00000240: ca1c f13e a59f 093e cb22 b53b b591 55bd
00000250: 5659 ef3c 4666 943e 6591 923d eafc b9be
00000260: 06f0 c1bc f11a 61be 17d9 bb3e a8cf 983e
00000270: 6446 d7be 49af ecbe e3eb 893e 55a3 eabd
00000280: 3baa eebd 94ef e23d 3820 c5be 8fb4 9ebe
00000290: 4dec 7ebe 42bd debe 89bb a93e 426e 3cbe
000002a0: 55a6 09be 27e2 05bf 4ff9 4b3e 14b7 943b
000002b0: 5185 febe fc2c f1bd 3384 0bbe cbc7 9fbe
000002c0: 655c d3be a4fb 84be aa2c 9ebe 9355 e6be
000002d0: 987d 1bbc aa74 2fbe 33e9 aabe afd2 943e
000002e0: 3df1 013f de87 16be 00dc 403e 5b86 b53e
000002f0: a485 84be 1b01 26be ee6d 6d3d 6189 8dbd
00000300: c5f1 0d3e 1231 0d3e 39bd 32bf 4530 c2be
00000310: bf78 edbe 8f0d ddbe 1657 18bd 8554 ddbe
00000320: 800a 12bf 446b acbe e66e 08be 5357 773e
00000330: 37f5 813f 3fc7 a03e e9af f8bd dd20 6cbe
00000340: 4042 7cbe 8364 84be 5120 093e 92df 40bd
00000350: f2c5 793d 8e28 4ebd 0af5 1c3f 5ce4 96bd
00000360: 05d9 2ebe 9d4e 50be 279b 7e3e 557e 29be
00000370: 188a b6be 99d5 323e 5178 103f d8bc 813d
00000380: 98e4 7ebe 11f4 0f3f d5f2 093e 2634 723d
00000390: 0de9 4b3d f920 88be 2ee0 04be d640 c93d
000003a0: a6cb 98bd beb6 d63e 2d72 9bbe f61d d6bd
000003b0: 8a17 303f 7da0 47be e249 babd 7487 ddbe
000003c0: 9089 a2be e16d f9bd 211c 21be 7624 a4bc
000003d0: 2a0b 1b3e 4d35 0cbf 4749 9dbe 7966 58bd
000003e0: 3842 0b3e 8df2 41be 463d 1cbd fc88 f6bd
000003f0: 3561 71bd 05ad b5be 9b0c a0be cc56 f33e

encoder.layers.0.linear2.bias f4 [16]
-0.08138608 -0.011961214 0.07559669 0.05295012 -0.008713576 0.08100975 0.13549238 0.06841935
-0.011986897 -0.035765223 -0.007668496 0.1442387 0.10884141 -0.014823726 0.0070103165 -0.009858824
00000000: bfad a6bd f8f8 43bc 70d2 9a3d 3ae2 583d
00000010: 63c3 0ebc 71e8 a53d 84be 0a3e 721f 8c3d
00000020: b164 44bc 8e7e 12bd 0248 fbbb 4fb3 133e
00000030: 3fe8 de3d 37df 72bc ccb6 e53b e886 21bc

encoder.layers.0.norm1.weight f4 [16]
0.26306483 0.33547044 0.37687317 0.6676473 1.3241081 0.5133886 0.5773214 0.2856939
0.11531946 1.3806392 2.695096 0.906613 0.69641495 0.4765419 0.7607654 1.8948225
00000000: 6fb0 863e c8c2 ab3e 85f5 c03e efea 2a3f
00000010: 607c a93f 6f6d 033f 56cb 133f 7946 923e
00000020: 9c2c ec3d c9b8 b03f 747c 2c40 ca17 683f
00000030: 4048 323f 4dfd f33e 85c1 423f 8b89 f23f

encoder.layers.0.norm1.bias f4 [16]
0.3463008 0.327772 -0.0017042701 0.23044719 0.4625752 0.06634138 -0.32638654 -0.43139097
-0.26365694 0.026348785 0.21199057 -0.37593445 0.689447 -0.5234549 0.7101155 -0.2315033
00000000: 574e b13e bbd1 a73e d161 dfba 59fa 6b3e
00000010: a8d6 ec3e fddd 873d 231c a7be 47df dcbe
00000020: 0bfe 86be 68d9 d73c 0e14 593e 7b7a c0be
00000030: 997f 303f 2401 06bf 21ca 353f 330f 6dbe

encoder.layers.0.norm2.weight f4 [16]
0.5081014 0.9888673 0.69246966 1.2452042 1.2823249 1.1159829 0.25133806 0.35963938
0.90544355 0.831215 1.7838916 0.49514297 -0.004807584 0.33542937 0.5807503 2.0184233
00000000: ef12 023f 6826 7d3f b145 313f da62 9f3f
00000010: 3923 a43f 87d8 8e3f 62af 803e a722 b83e
00000020: 26cb 673f 82ca 543f 8f56 e43f 6183 fd3e
00000030: f088 9dbb 66bd ab3e 0dac 143f d92d 0140

encoder.layers.0.norm2.bias f4 [16]
0.7256428 -0.40012977 0.011107649 -0.39881885 -0.052064065 0.13234861 -0.052911416 -0.0018529736
-0.42852008 -0.3642106 -0.06327228 -0.023072982 -0.042218372 0.28504047 -0.046572957 0.52147067
00000000: bac3 393f cfdd ccbe dbfc 353c fc31 ccbe
00000010: 2141 55bd 6586 073e a4b9 58bd 7adf f2ba
00000020: fc66 dbbe d079 babe e694 81bd 8d03 bdbc
00000030: 2ced 2cbd d3f0 913e 49c3 3ebd 1a7f 053f

encoder.layers.1.self_attn.in_proj_weight f4 [48, 16]
-0.09358396 -0.16421273 0.14261396 0.21348687 -0.15074946 -0.40591964 0.16452512 0.6781212
0.4252414 0.15201691 -0.20133086 0.24071293 0.044855807 0.071274884 -0.48926023 0.026848001
0.19584657 0.08149205 0.1881439 0.06870301 -0.19353367 -0.32093048 0.048590038 0.07577037
-0.16534562 0.595837 0.037750028 -0.24969439 -0.33745688 -0.45268396 0.6257905 -0.22377788
-0.32233083 0.30497494 -0.11093263 -0.16076824 -0.13749515 0.15196069 -0.05032228 0.13865857
-0.13069923 0.028823392 0.2927357 -0.1856398 -0.08847778 0.06804194 0.3462671 0.007128978
-0.13370417 -0.12757504 0.053091604 -0.021911075 0.0023925107 -0.26233727 -0.15508969 -0.08646602
-0.07238888 0.21346244 0.09434281 -0.65820307 0.6103612 0.20981985 0.34311992 0.21362524
-0.19773713 -0.12783825 0.2651648 0.094659336 -0.108481504 -0.29854974 -0.38899434 -0.109318756
0.009766513 0.4824929 0.07593129 -0.33553028 0.031900357 0.09440825 0.42236596 -0.009044885
-0.25721735 -0.23659278 -0.025790418 -0.108398825 -0.21910857 0.36230725 -0.013496803 -0.19974603
0.3108084 -0.37817898 -0.032909553 0.018149462 -0.13214697 -0.083496116 0.25309888 0.12018203
-0.1414941 0.12437075 -0.08952274 -0.19640312 -0.06976978 -0.17669334 -0.081706725 0.11546176
0.23430629 0.2113376 0.07818732 0.11521656 -0.1074043 0.08888379 0.1353761 -0.17216532
0.16317208 -0.0139041515 0.03088535 -0.080315396 -0.017933503 0.34765458 -0.30600494 -0.32402992
-0.03762415 -0.19509031 0.09082419 0.2910295 0.28971973 -0.4363912 -0.16885142 -0.33121058
-0.3770992 0.0871441 -0.19609335 0.18738239 -0.21827577 0.053390723 0.048237797 0.07309362
-0.050059903 -0.7736844 0.007099685 -0.06812286 -0.09280398 -0.040123314 0.31462124 0.32061923
0.33375478 0.039750837 0.45168576 0.18250923 0.05232068 0.40719545 0.4935474 -0.3702228
0.036675546 0.37557185 0.06465032 -0.1785834 -0.17324448 -0.69598746 0.51320803 -0.3181927
0.16585883 0.24701765 0.090875536 0.2963158 -0.123126395 -0.16222437 0.019353744 0.008852911
0.35850385 -0.07350328 0.10565825 -0.11321349 -0.053157963 -0.16093975 0.48324504 -0.009896003
0.2289216 0.2457561 -0.55416375 0.20921244 0.2652303 -0.12981513 0.3164707 0.30626678
-0.27445832 0.09904405 0.122296944 0.118429534 -0.36624926 0.37046918 -0.019272288 0.044187017
0.07297057 0.02893153 -0.37932575 0.04887752 0.118770346 0.12925012 -0.47942612 0.4120808
0.09138329 -0.3341301 0.068193294 0.040145226 -0.4344843 0.06645558 0.17744732 0.30074766
-0.14304395 -0.13835452 0.22366874 -0.019257832 -0.08218398 0.39089465 -0.012442058 0.1100145
0.15587166 0.078264624 -0.08526116 -0.19786942 -0.10043295 0.00757648 -0.53121096 0.036047414
-0.37095025 -0.15089129 -0.106777504 -0.5421245 0.13028307 0.023914047 -0.41242817 0.19902733
0.2070027 -0.18657771 0.1793552 -0.17237808 -0.098529585 0.24003686 0.2064538 0.39312473
-0.22792254 -0.08545441 0.47286257 0.19707645 0.030849172 0.0027616848 0.316722 -0.22271517
0.138325 -0.09830052 0.087703906 0.015772037 0.32444793 0.10535876 -0.7151576 0.2754168
00000000: f2a8 bfbd 6227 28be 6509 123e 4d9c 5a3e
00000010: 115e 1abe b3d4 cfbe 4679 283e 5a99 2d3f
00000020: 3eb9 d93e 52aa 1b3e ad29 4ebe 737d 763e
00000030: b9ba 373d 91f8 913d 5180 fabe 57f0 db3c
00000040: 018c 483e 4ee5 a63d cba8 403e 2ab4 8c3d
00000050: b12d 46be 0051 a4be 5906 473d 7f2d 9b3d
00000060: 5d50 29be c688 183f c69f 1a3d e3af 7fbe
00000070: 26c7 acbe 31c6 e7be ce33 203f 0726 65be
00000080: 8c08 a5be ad25 9c3e a630 e3bd 6ea0 24be
00000090: 87cb 0cbe 959b 1b3e bc1e 4ebd 83fc 0d3e
000000a0: 05d6 05be 091f ec3c 74e1 953e 5c18 3ebe
000000b0: d733 b5bd 9359 8b3d ec49 b13e 349a e93b
000000c0: bfe9 08be 08a3 02be 9576 593d db7e b3bc
000000d0: abcb 1c3b 1251 86be d5cf 1ebe 1915 b1bd
000000e0: 9f40 94bd e695 5a3e ce36 c13d ff7f 28bf
000000f0: a240 1c3f 04db 563e 6aad af3e 93c0 5a3e
00000100: 9a7b 4abe 08e8 02be aec3 873e c1dc c13d
00000110: 8d2b debd 83db 98be 442a c7be 83e2 dfbd
00000120: b903 203c 4f09 f73e dd81 9b3d a0ca abbe
00000130: f3a9 023d 1d59 c13d 5a40 d83e ff30 14bc
00000140: feb1 83be 6145 72be 6d46 d3bc 3400 debd
00000150: ff5d 60be 5680 b93e b221 5dbc 398a 4cbe
00000160: 4722 9f3e ada0 c1be 2bcc 06bd 2eae 943c
00000170: 8951 07be 0300 abbd 2d96 813e ff21 f63d
00000180: d4e3 10be 17b6 fe3d b357 b7bd e61d 49be
00000190: 75e3 8ebd 19ef 34be db55 a7bd 3777 ec3d
000001a0: fded 6f3e e268 583e ac20 a03d a9f6 eb3d
000001b0: c9f6 dbbd b408 b63d 08a0 0a3e 1b4c 30be
000001c0: 9516 273e 3dce 63bc 4603 fd3c 667c a4bd
000001d0: 48e9 92bc c8ff b13e aeac 9cbe 40e7 a5be
000001e0: c81b 1abd c1c5 47be 0802 ba3d d201 953e
000001f0: 2556 943e ab6e dfbe 63e7 2cbe 6f94 a9be
00000200: 2513 c1be 9b78 b23d b2cc 48be 2be1 3f3e
00000210: af83 5fbe 3bb0 5a3d ff94 453d 1cb2 953d
00000220: 9d0b 4dbd 2e10 46bf 79a4 e83b ff83 8bbd
00000230: 0310 bebd 5858 24bd 0916 a13e 3428 a43e
00000240: e8e1 aa3e c6d1 223d 5b43 e73e b3e3 3a3e
00000250: 364e 563d ec7b d03e 3fb2 fc3e d88d bdbe
00000260: 1939 163d f44a c03e 6367 843d 91de 36be
00000270: 0067 31be 3c2c 32bf 9a61 033f 27ea a2be
00000280: e6d6 293e 32f2 7c3e f41c ba3d b4b6 973e
00000290: b129 fcbd 251e 26be be8b 9e3c cd0b 113c
000002a0: d18d b73e e388 96bd 5a63 d83d 79dc e7bd
000002b0: 2abc 59bd 64cd 24be e56b f73e d822 22bc
000002c0: 6d6a 6a3e 7da7 7b3e addd 0dbf c93b 563e
000002d0: 44cc 873e 42ee 04be 7308 a23e 00cf 9c3e
000002e0: cd85 8cbe 9bd7 ca3d d276 fa3d 2f8b f23d
000002f0: 0685 bbbe 23ae bd3e ebe0 9dbc 72fd 343d
00000300: 9871 953d d101 ed3c fc36 c2be cb33 483d
00000310: de3d f33d 255a 043e 5777 f5be 41fc d23e
00000320: 2a27 bb3d 1a13 abbe eda8 8b3d 526f 243d
00000330: ba74 debe dd19 883d c0b4 353e 99fb 993e
00000340: 1d7a 12be cfac 0dbe 6b09 653e 9ac2 9dbc
00000350: 1350 a8bd 5823 c83e c6d9 4bbc 484f e13d
00000360: d29c 1f3e 3449 a03d 679d aebd 489e 4abe
00000370: caaf cdbd 1f44 f83b 71fd 07bf 74a6 133d
00000380: 31ed bdbe 3f83 1abe 2aae dabd acc8 0abf
00000390: ed68 053e 64e7 c33c c929 d3be d2cd 4b3e
000003a0: 84f8 533e 3a0e 3fbe e4a8 373e e183 30be
000003b0: e1c9 c9bd 39cc 753e a068 533e a547 c93e
000003c0: 8764 69be b902 afbd 0b1b f23e 69ce 493e
000003d0: 67b7 fc3c 62fd 343b 6329 a23e 720f 64be
000003e0: 12a5 0d3e c851 c9bd 1b9e b33d 5c34 813c
000003f0: 0a1e a63e 55c6 d73d 9214 37bf 6e03 8d3e

encoder.layers.1.self_attn.in_proj_bias f4 [48]
-0.3610768 -0.046526723 -0.053521413 0.11027258 0.2954638 -0.33438373 -0.053501084 0.25979394
0.052629676 -0.03570907 0.13907088 0.0383743 -0.05730738 -0.012238154 -0.16298002 0.03868084
-0.0007830868 -0.003622219 -0.00039483202 -0.002656866 -0.0055715432 0.00041726313 -0.0013001047 0.0036494087
-0.0036883634 -0.00047097073 0.0008968703 0.0019667465 0.00044517193 0.0007416837 -0.0009046997 0.005317614
-0.0057094744 -0.12422961 -0.051123854 -0.06155754 -0.047946528 -0.13682744 -0.07572404 0.08029487
-0.026575318 -0.027889293 0.027067492 -0.00070251204 -0.023919744 -0.12980549 0.06892603 -0.011035055
00000000: 0fdf b8be ce92 3ebd 4539 5bbd 97d6 e13d
00000010: 0847 973e 5834 abbe f423 5bbd b603 853e
00000020: 3792 573d ac43 12bd 9968 0e3e 5f2e 1d3d
00000030: 25bb 6abd 8a82 48bc 3ce4 26be cd6f 1e3d
00000040: 1148 4dba c062 6dbb 7501 cfb9 d11e 2ebb
00000050: 7e91 b6bb 1cc4 da39 4668 aaba eb2a 6f3b
00000060: 78b8 71bb 9fec f6b9 f21b 6b3a 88e4 003b
00000070: f765 e939 8d6d 423a 5e29 6dba 613f ae3b
00000080: 8b16 bbbb 186c febd 3f67 51bd c223 7cbd
00000090: 9463 44bd 7e1c 0cbe 3515 9bbd a371 a43d
000000a0: 7bb4 d9bc 1678 e4bc a5bc dd3c c928 38ba
000000b0: 57f3 c3bc bbeb 04be 1729 8d3d 60cc 34bc

encoder.layers.1.self_attn.out_proj.weight f4 [16, 16]
0.059346683 0.041227024 0.17902167 -0.08542897 -0.04140983 0.05278585 -0.18771718 0.15840454
-0.059961803 0.037494056 0.17477441 0.053898044 -0.029137501 -0.10261426 0.05259061 0.0018787049
-0.12184337 -0.10758353 -0.026162742 0.27670306 0.06118547 0.06993338 -0.124262825 -0.005332579
-0.16107059 0.14914498 -0.2750317 -0.043311555 -0.07459529 0.01895817 0.06083499 0.096007995
-0.04345221 -0.08094846 -0.079956554 -0.03196164 0.0089832945 -0.10230497 -0.02516769 0.12652974
0.13142002 0.18648838 -0.07471171 -0.08245763 -0.11542279 -0.017423417 -0.18153594 0.21271639
-0.14455253 0.034408607 0.06989451 0.38396809 0.16915025 0.083228104 -0.048845474 -0.038602334
-0.016893202 0.17518462 -0.38925892 0.025421012 0.023954216 0.077367306 -0.061139274 0.038711186
0.025364922 -0.005098703 -0.04546123 0.10295248 -0.011621518 -0.13611981 0.024172375 0.11633074
0.09352033 0.0030122292 -0.04251059 -0.067587264 -0.11655383 0.122801796 -0.16526987 0.1164305
-0.20335409 0.1789942 0.07958799 0.087249815 0.04806732 0.05510747 -0.00028583992 0.014202119
0.27410242 0.035687488 0.08251734 -0.0016584448 0.10286656 -0.026973233 0.38152388 -0.21660174
0.11704514 -0.14361674 -0.30318156 0.06355731 0.032173507 -0.27746665 -0.16718014 -0.12773144
-0.23911779 0.12945348 -0.27724892 -0.12718818 0.0037270412 0.04810997 -0.032759555 -0.054221556
0.0017431194 0.1592401 0.07330183 0.2079422 0.03840685 0.04265254 0.2607209 0.12669742
-0.0658275 0.39441422 -0.35664877 0.35506842 0.18726204 0.01680908 -0.06221157 0.25178775
0.0069418848 -0.059789088 -0.025238117 0.014103107 -0.020593686 -0.022160528 0.011639131 -0.0015346588
-0.0316173 0.0069928444 -0.066864565 0.032177486 0.03182397 0.0004052263 -0.021732643 0.0025733844
-0.19663385 -0.0948662 -0.15915142 0.051937852 -0.045594316 -0.057148978 -0.06339563 0.09969925
-0.082279146 0.06302828 -0.056115817 0.09321903 0.2316542 0.02831524 -0.1464772 0.17752662
0.017565992 0.0062267333 0.03032577 0.003561614 0.018564327 0.056257706 -0.018568275 -0.043457646
0.012931228 0.013643952 -0.014642721 0.00878036 -0.014922156 0.03470842 -0.01968171 0.02138982
-0.06512031 -0.22209674 -0.11889979 0.070949264 0.082225494 0.10750768 -0.05251363 -0.081560045
0.011425705 -0.0033243443 -0.17868537 0.17274293 0.13852796 0.01658209 0.21036814 -0.13772401
-0.25539136 0.04116099 -0.15463302 -0.070086315 -0.1061209 -0.13012473 -0.12446617 0.068945706
0.098127276 0.10330615 0.008271268 0.042462885 -0.2209328 -0.020447003 -0.026577312 0.27273524
0.06313354 -0.013979062 -0.15152502 -0.0987052 -0.05199108 -0.083926134 -0.17518194 0.07833531
-0.006899399 0.061140273 -0.11981074 0.056263935 -0.18082415 -0.30479982 0.100618966 -0.120783165
0.10321323 -0.14413585 -0.026230847 0.05935242 0.06989388 0.115777604 -0.03372351 -0.014115565
-0.06741505 0.12192679 -0.041253738 -0.054419454 -0.047043152 -0.0037212449 -0.07383982 0.16456772
-0.025569787 0.06640955 -0.015393781 0.0010305322 0.012534157 0.07835014 -0.08622069 -0.062340762
0.006685593 0.03715904 0.09909724 0.0108723175 0.03750025 -0.054091603 0.053148568 0.008679352
00000000: 8215 733d abdd 283d 7551 373e 62f5 aebd
00000010: 5b9d 29bd fa35 583d ef38 40be cd34 223e
00000020: 829a 75bd 5e93 193d 10f8 323e 32c4 5c3d
00000030: c5b1 eebc 6d27 d2bd 4069 573d e03e f63a
00000040: 0489 f9bd c154 dcbd 3f53 d6bc 06ac 8d3e
00000050: 9e9d 7a3d 3b39 8f3d 827d febd eabc aebb
00000060: b0ef 24be 76b9 183e f4d0 8cbe 7567 31bd
00000070: 6ac5 98bd 2a4e 9b3c 1c2e 793d d79f c43d
00000080: f2fa 31bd 4ec8 a5bd 43c0 a3bd 35ea 02bd
00000090: ab2e 133c 4585 d1bd 792c cebc 0391 013e
000000a0: f892 063e cff6 3e3e 7402 99bd 8cdf a8bd
000000b0: c962 ecbd 8ebb 8ebc 8fe4 39be 53d2 593e
000000c0: 9405 14be 0af0 0c3d da24 8f3d 7797 c43e
000000d0: b935 2d3e 7f73 aa3d 3112 48bd 7b1d 1ebd
000000e0: 9d63 8abc 9963 333e f24c c7be ba3f d03c
000000f0: a23b c43c c072 9e3d 2d6d 7abd 9f8f 1e3d
00000100: 19ca cf3c 0513 a7bb 8e35 3abd c0d8 d23d
00000110: 2e68 3ebc fe62 0bbe 2505 c63c d03e ee3d
00000120: 9687 bf3d d268 453b 961f 2ebd 316b 8abd
00000130: c6b3 eebd 827f fb3d 813c 29be 1d73 ee3d
00000140: 0e3c 50be 414a 373e 07ff a23d 08b0 b23d
00000150: 3de2 443d 5fb8 613d c9dc 95b9 01b0 683c
00000160: 2757 8c3e 0b2d 123d dafe a83d 2c60 d9ba
00000170: b4ab d23d f8f6 dcbc 1957 c33e d9cc 5dbe
00000180: 5db5 ef3d 4410 13be 9d3a 9bbe 562a 823d
00000190: 5ec8 033d 1c10 8ebe 4531 2bbe 08cc 02be
000001a0: 4bdb 74be 748f 043e 92f3 8dbe 9e3d 02be
000001b0: 6041 743b f60e 453d e22e 06bd 6c17 5ebd
000001c0: 6279 e43a d60f 233e 451f 963d cdee 543e
000001d0: 8050 1d3d 6eb4 2e3d 367d 853e f8bc 013e
000001e0: 91d0 86bd a9f0 c93e ab9a b6be 87cb b53e
000001f0: 9fc1 3f3e 32b3 893c 8fd1 7ebd 53ea 803e
00000200: c078 e33b 67e5 74bd 2bc0 cebc b810 673c
00000210: 17b4 a8bc ff89 b5bc 0eb2 3e3c 9b26 c9ba
00000220: 2481 01bd 3b24 e53b 4af0 88bd 8acc 033d
00000230: da59 023d 8e74 d439 a808 b2bc 3aa6 283b
00000240: 625a 49be 3649 c2bd 97f8 22be c9bc 543d
00000250: 1bc1 3abd 0c15 6abd 91d5 81bd 1f2f cc3d
00000260: f881 a8bd f914 813d b3d9 65bd 9ee9 be3d
00000270: c236 6d3e 5df5 e73c 1efe 15be 8ac9 353e
00000280: 8ee6 8f3c a009 cc3b c06d f83c f869 693b
00000290: 3714 983c 7b6e 663d 7f1c 98bc a500 32bd
000002a0: 80dd 533c e28a 5f3c 06e8 6fbc 80db 0f3c
000002b0: 0f7c 74bc 6b2a 0e3d 8a3b a1bc b439 af3c
000002c0: cc5d 85bd 546d 63be bc81 f3bd d94d 913d
000002d0: d765 a83d fd2c dc3d 8818 57bd f408 a7bd
000002e0: e132 3b3c 3edd 59bb 4cf9 36be 86e3 303e
000002f0: 46da 0d3e 2ad7 873c bf6a 573e 8607 0dbe
00000300: a8c2 82be 6d98 283d 1e58 1ebe 6a89 8fbd
00000310: ea55 d9bd 6b3f 05be 1fe8 febd 6833 8d3d
00000320: f4f6 c83d 2d92 d33d 3684 073c 90ed 2d3d
00000330: 353c 62be 7980 a7bc aab8 d9bc f4a3 8b3e
00000340: 284c 813d 7008 65bc 6029 1bbe f425 cabd
00000350: 99f4 54bd 77e1 abbd e562 33be 436e a03d
00000360: 5b14 e2bb 396e 7a3d 555f f5bd 0375 663d
00000370: f729 39be b90e 9cbe 5111 ce3d 2a5d f7bd
00000380: 7561 d33d 5998 13be 13e2 d6bc 861b 733d
00000390: 8624 8f3d cf1c ed3d aa21 0abd f944 67bc
000003a0: e710 8abd c1b4 f93d aef9 28bd efe6 5ebd
000003b0: 52b0 40bd 21e0 73bb 5539 97bd 7184 283e
000003c0: bb77 d1bc bb01 883d 3236 7cbc ec12 873a
000003d0: 115c 4d3c 0a76 a03d 7994 b0bd 0759 7fbd
000003e0: d212 db3b 1434 183d 7ef3 ca3d ce21 323c
000003f0: dd99 193d 288f 5dbd 50b2 593d d733 0e3c

encoder.layers.1.self_attn.out_proj.bias f4 [16]
0.10551202 -0.19862191 0.15606782 -0.095036566 -0.081312515 0.21059184 -0.15151231 -0.14497042
0.025745673 0.046782874 0.004193494 0.03281483 0.16605806 0.532577 -0.25471655 0.019597767
00000000: b016 d83d 8b63 4bbe 3ed0 1f3e 88a2 c2bd
00000010: 2d87 a6bd 63a5 573e 0b26 1bbe 2073 14be
00000020: 97e8 d23c 669f 3f3d 9469 893b d868 063d
00000030: 200b 2a3e f756 083f 356a 82be 7f8b a03c

encoder.layers.1.linear1.weight f4 [64, 16]
-0.17532216 0.04925251 -0.18216465 -0.034578748 -0.22844149 0.21965179 0.5156004 0.56881714
0.11798935 0.028077444 -0.08687735 0.3980169 -0.102332726 0.35391927 -0.1673108 0.094489835
-0.28395173 -0.06703705 -0.11317355 -0.2519854 -0.02789605 0.15674467 -0.078184195 0.0808705
0.07242652 -0.07496164 -0.009954262 0.28671694 -0.3617227 0.36181644 -0.3005995 -0.018596306
-0.050558563 -0.024108212 0.22855355 -0.2117697 -0.16951704 -0.07904783 0.36768034 0.27259076
0.23249172 -0.20798595 0.14915614 0.25005797 -0.27349985 0.12215485 -0.0699386 0.034603167
-0.52974296 0.135579 0.14625232 0.09382559 -0.46233115 -0.06845099 -0.0023064564 0.22517055
0.17421313 -0.007925809 -0.13150395 0.4638394 -0.24644624 0.15150793 -0.11483405 -0.06664058
-0.16987833 0.04182969 0.20126088 0.035486735 -0.25794753 0.2053046 0.37312242 0.34364608
0.2985758 -0.08352313 0.19417563 -0.13358784 -0.23234048 -0.051231705 -0.77799374 -0.0644927
-0.26850796 0.3619698 0.041279145 -0.23026028 -0.15451819 -0.45292675 0.501686 0.08767297
0.0050934455 0.042452596 -0.13649052 0.06808957 -0.22441867 -0.003943998 -0.36839098 -0.10421322
-0.05136021 0.31802425 0.047420215 -0.4213074 -0.25334495 -0.066046484 0.062747955 0.257628
0.19901732 -0.02069553 0.1153854 0.2506601 -0.4333728 0.34082395 -0.03777482 -0.12833153
-0.114767805 0.14046676 0.14951763 0.1936978 -0.15271668 -0.089110285 0.2765285 -0.016643027
0.0060329535 -0.17013356 0.023012582 0.26752305 -0.17752698 0.30748874 -0.015814822 0.047510277
0.06796173 -0.24404302 -0.13375318 -0.1989147 -0.049185302 0.17033336 0.24081859 -0.03711703
0.4199916 -0.5393672 0.17012082 0.35079053 -0.381218 0.42334583 -0.21799392 -0.11220559
-0.18406646 0.055803776 0.12747882 -0.2688269 0.11702415 0.09712987 0.13541356 0.3934825
-0.03679132 0.034911662 0.019789398 0.09728244 -0.14248966 -0.027108429 -0.233607 -0.12765585
-0.20274374 -0.18396644 -0.010496501 0.026997285 -0.020821879 0.19435246 0.17514049 0.14352581
0.15105565 -0.0046272543 0.03325604 0.24255669 -0.12233095 0.012983706 -0.31727943 -0.0023176493
-0.33625394 0.07249615 -0.32147446 -0.1604659 -0.21899104 -0.083462365 0.031720497 0.28548208
0.016674206 0.20311667 -0.08256325 -0.025656823 -0.2767246 0.23554698 -0.22629893 -0.14036839
-0.34236854 0.11073604 -0.10811579 0.012848565 -0.17634486 -0.21102177 0.1181282 0.22486404
0.15626241 -0.28190294 0.055940695 0.22431661 -0.099658504 0.30048758 -0.18609281 0.011433263
-0.58232754 -0.1784199 0.092035905 -0.5070967 -0.16660593 0.08795797 0.19433059 0.31156328
-0.035063293 -0.027648704 0.05487916 0.2785045 -0.10490912 0.21563734 -0.18418886 -0.18592937
-0.2905589 0.06995225 -0.27380958 0.09822765 -0.19542721 -0.20052761 0.08002157 0.2647006
0.2441324 0.19364919 0.14271018 0.19450854 -0.084436886 0.31586146 -0.42324376 -0.039006557
-0.21637653 -0.11049047 0.3309291 -0.25695977 -0.30682695 -0.15643987 0.35419646 0.37042361
0.11086862 -0.07866878 0.205232 0.3554351 -0.11964246 0.49975833 -0.04247608 -0.1459535
00000000: a787 33be 00bd 493d 5f89 3abe 72a2 0dbd
00000010: 91ec 69be 66ec 603e 63fe 033f 009e 113f
00000020: 66a4 f13d ab02 e63c c1ec b1bd dfc8 cb3e
00000030: d293 d1bd e834 b53e 8653 2bbe e383 c13d
00000040: 1f62 91be b94a 89bd 89c7 e7bd 3b04 81be
00000050: 4286 e4bc ad81 203e 091f a0bd 6f9f a53d
00000060: 5b54 943d 7d85 99bd 3317 23bc 90cc 923e
00000070: b833 b9be 0140 b93e 2de8 99be 4857 98bc
00000080: 7f16 4fbd 967e c5bc f109 6a3e 28da 58be
00000090: e095 2dbe d4e3 a1bd 9940 bc3e 0491 8b3e
000000a0: 4f12 6e3e 45fa 54be 63bc 183e 9907 803e
000000b0: 2c08 8cbe 522c fa3d f83b 8fbd 0dbc 0d3d
000000c0: 3c9d 07bf 39d5 0a3e 2bc3 153e a227 c03d
000000d0: abb6 ecbe 0830 8cbd eb27 17bb 1c93 663e
000000e0: ed64 323e 41db 01bc f9a8 06be 5c7c ed3e
000000f0: 675c 7cbe e524 1b3e 1d2e ebbd db7a 88bd
00000100: 96f4 2dbe 9c55 2b3d 5517 4e3e 8a5a 113d
00000110: b311 84be 5e3b 523e e709 bf3e 61f2 af3e
00000120: edde 983e 2d0e abbd fad5 463e 40cb 08be
00000130: aaea 6dbe 56d8 51bd 992a 47bf c014 84bd
00000140: e079 89be 1b54 b93e 5214 293d 5ac9 6bbe
00000150: 043a 1ebe 04e6 e7be 7e6e 003f e38d b33d
00000160: ebe6 a63b c6e2 2d3d 2cc4 0bbe 8b72 8b3d
00000170: 02ce 65be a73c 81bb be9d bcbe be6d d5bd
00000180: 155f 52bd 13d4 a23e b33b 423d 9bb5 d7be
00000190: 6eb6 81be 6143 87bd 0082 803d d1e7 833e
000001a0: 32cb 4b3e ac89 a9bc 2e4f ec3d 8556 803e
000001b0: 0ae3 ddbe 7a80 ae3e c5b9 1abd 5769 03be
000001c0: 620b ebbd 85d6 0f3e 261b 193e b758 463e
000001d0: c361 1cbe 747f b6bd 2595 8d3e f556 88bc
000001e0: 15b0 c53b 7e37 2ebe e284 bc3c c8f8 883e
000001f0: a2c9 35be 2a6f 9d3e 168e 81bc 239a 423d
00000200: 852f 8b3d 6ae6 79be 98f6 08be 4cb0 4bbe
00000210: 8776 49bd de6b 2e3e 2699 763e 0708 18bd
00000220: 2409 d73e f813 0abf 2734 2e3e d19a b33e
00000230: 012f c3be c9c0 d83e cc39 5fbe 0bcc e5bd
00000240: eb7b 3cbe 8092 643d cf89 023e aea3 89be
00000250: 5caa ef3d 06ec c63d daa9 0a3e 8a76 c93e
00000260: 7fb2 16bd 88ff 0e3d 601d a23c 043c c73d
00000270: cfe8 11be 7f12 debc ac36 6fbe 37b8 02be
00000280: 0e9c 4fbe b361 3cbe 84f9 2bbc 6929 dd3c
00000290: a592 aabc 5504 473e 0758 333e 6ef8 123e
000002a0: 55ae 1a3e 39a0 97bb 7c37 083d c860 783e
000002b0: a688 fabd 9cb9 543c 7372 a2be b4e3 17bb
000002c0: 7a29 acbe dd78 943d 4d98 a4be 2c51 24be
000002d0: 303f 60be 51ee aabd 5aed 013d b52a 923e
000002e0: 5898 883c d1fd 4f3e ec16 a9bd 422e d2bc
000002f0: d9ae 8dbe 3a33 713e e8ba 67be bbbc 0fbe
00000300: ee4a afbe 94c9 e23d d06b ddbd ca82 523c
00000310: bf93 34be 1716 58be 33ed f13d c242 663e
00000320: 4103 203e 9555 90be 1222 653d 41b3 653e
00000330: c219 ccbd 82d9 993e 1d8f 3ebe 9552 3b3c
00000340: 6b13 15bf b5b3 36be 527d bc3d 17d1 01bf
00000350: bf9a 2abe 4f23 b43d 99fe 463e 3985 9f3e
00000360: 879e 0fbd 897f e2bc f8c8 603d 2498 8e3e
00000370: 98da d6bd 09d0 5c3e 019c 3cbe 4564 3ebe
00000380: 23c4 94be 2043 8f3d c530 8cbe 942b c93d
00000390: 121e 48be 1c57 4dbe 59e2 a33d d686 873e
000003a0: d8fd 793e f94b 463e 9e22 123e 3f2d 473e
000003b0: 3fed acbd 98b8 a13e 68b3 d8be 57c5 1fbd
000003c0: cf91 5dbe d448 e2bd 8a6f a93e 3b90 83be
000003d0: 6c18 9dbe c631 20be 3d59 b53e 2aa8 bd3e
000003e0: 160f e33d 191d a1bd 5628 523e 97fb b53e
000003f0: 1b07 f5bd 53e0 ff3e 66fb 2dbd d674 15be
