log/20231223_124920/best_acc.pth (torch, 53260 bytes, 38 tensors)

encoder.layers.0.self_attn.in_proj_weight f4 [48, 16]
000000 32 e1 ba bd 83 72 8c 3c d3 48 17 bd 67 01 26 3d
       -0.09124984 0.017144447 -0.036934685 0.04052868
000010 d1 9c 7a 3e 6b 3e e1 bd 03 81 6f 3e d2 52 a5 3e
       0.24473883 -0.109982334 0.23389058 0.3228975
000020 a4 2b 87 be 3b 81 3b be 90 70 14 bf 16 5a de bd
       -0.26400483 -0.18311016 -0.57984257 -0.10857026
000030 3c 42 81 3e c3 79 ed bd 88 05 1d be 07 93 9d bd
       0.25245845 -0.1159549 -0.15334141 -0.07694059
000040 e4 60 b8 3e c3 36 ef bc d1 ae 31 3e fa c6 8d bd
       0.36011422 -0.029200917 0.17351843 -0.069227174
000050 88 3f aa be 4a 1c b3 3b 2d 99 7b be 54 44 0b 3e
       -0.33251595 0.005466019 -0.2457015 0.13600284
000060 2e 5c b2 3d 8a 61 a9 bb 11 6a be 3e 5f 87 ce bb
       0.08708988 -0.0051690983 0.37190297 -0.0063027586
000070 86 2e a6 bd d6 57 e2 bd 86 37 87 3e 9a e3 b0 bd
       -0.081143424 -0.110519096 0.2640955 -0.086371616
000080 74 70 fe bc 03 2b 7b 3e 80 9a c9 be 11 a8 bc be
       -0.031059481 0.24528126 -0.39375687 -0.36846974
000090 f2 2c 0a be c6 06 52 be ae 82 6d bd 52 51 2f 3e
       -0.13493708 -0.20510396 -0.057985954 0.17120865
0000a0 ce e8 8c 3d 08 e9 97 3e 70 35 8c 3f 97 ca 9f be
       0.068803415 0.29669976 1.0953808 -0.3120925
0000b0 86 a9 e3 be 4c f9 47 bd 85 ca 95 be 11 b1 13 3e
       -0.44465274 -0.048821732 -0.29256073 0.14423014
0000c0 36 59 00 bf ae bc 1e be 0b 5b 03 be 68 49 06 3e
       -0.50136125 -0.15501663 -0.12827699 0.1311394
0000d0 a1 0a 51 3e c2 dd 66 be de b4 3a 3e 1e 73 26 3e
       0.20414211 -0.22545531 0.18233058 0.16254851
0000e0 fa 61 40 3d 85 99 1d 3e ed 2d 75 be cd b5 b2 be
       0.046968438 0.15390594 -0.239433 -0.34904328
0000f0 c8 6a d1 3c 7f 45 20 be a0 e5 95 be a6 52 a3 be
       0.025563613 -0.1565151 -0.29276752 -0.31898993
000100 c0 5b e8 bd f2 bc 20 be d6 17 65 3e b2 13 d9 3e
       -0.11345625 -0.15697077 0.22372374 0.4239784
000110 30 2c 11 be b0 6a 3c 3e 77 80 ec 3c 19 b4 ab 3e
       -0.14177012 0.18400073 0.02886985 0.3353584
000120 3f 6d 3f be 46 a3 b9 bd 58 97 37 bf 22 9f 39 be
       -0.18694018 -0.09064345 -0.7171531 -0.1812711
000130 ce 03 84 bd e3 80 ad 3e 12 32 8c 3e f0 70 b0 be
       -0.06446038 0.33887395 0.2738195 -0.34461164
000140 8e fb 29 be 9b cf c9 bd a0 0d a9 3e 86 f8 98 bd
       -0.16599867 -0.09854051 0.33018208 -0.07469277
000150 fb 23 27 be 81 31 75 3e 49 68 7b be 36 6d a2 bd
       -0.16322319 0.23944665 -0.245515 -0.079309866
000160 ad 8c 83 3e 37 c7 64 be 18 fa 55 3f fc 5a 45 be
       0.25693265 -0.2234162 0.8358474 -0.19272989
000170 3d 9a 6a 3e 44 df 95 be ab 73 87 bd bc f9 9b 3e
       0.229104 -0.292719 -0.06613859 0.3046397
000180 a5 53 7b 3e 38 b7 3e bc f4 c5 8c 3c 5b 2c 94 3e
       0.24543627 -0.011640362 0.017184235 0.2894009
000190 8a 6c 6d bc 1c 30 97 3e 7e fd 3d be 56 14 56 3d
       -0.01449121 0.29528892 -0.18553731 0.052265488
0001a0 84 ef 82 3d ed 0e a0 3e ab ec 15 bf 42 bf 78 3d
       0.0639334 0.31261387 -0.5856425 0.060729273
0001b0 cd 75 02 be 8c a6 c7 3e 11 2c 83 3e 7d 35 a0 bc
       -0.1274025 0.38994253 0.25619557 -0.019556755
0001c0 f9 8c 1b be e7 e5 26 be 3d 70 d4 bc 7f cd 60 be
       -0.15190496 -0.16298638 -0.025932426 -0.2195339
0001d0 8f 4f cd bd f9 3d 99 3e d1 9c e8 bd 71 2b ab 3d
       -0.1002494 0.29930094 -0.11358035 0.08357895
0001e0 4f 14 90 3d c1 77 fd bc db e8 ee be b4 44 cb bd
       0.070351236 -0.030940892 -0.4666203 -0.099252135
0001f0 26 9d 9f bc 50 3c a8 bc a6 f4 9a 3e 5f 3f 81 be
       -0.019484114 -0.020536572 0.30264777 -0.2524366
000200 34 46 f3 be 8f d2 05 bf 1a cc 54 3e 34 91 2b be
       -0.47514498 -0.5227441 0.20780984 -0.1675461
000210 4c 88 c8 bd 52 7e 3c 3e 7b 61 f9 bc 44 bf 94 3e
       -0.097916216 0.18407562 -0.03044199 0.29052174
000220 f2 6a 29 3e 0a 50 20 be 3c 98 a6 be a7 bd 16 3e
       0.16544703 -0.15655532 -0.3253802 0.14720784
000230 95 70 cf 3d 49 5e 3a be 3d d9 07 bf 44 df 9e be
       0.10128895 -0.1820003 -0.53065854 -0.31029713
000240 63 80 d0 3c 7d 3b 51 3d 38 a7 f7 bd 0e 7d 00 be
       0.025451845 0.051082123 -0.12092441 -0.12547705
000250 3e f1 be 3e 3c 01 99 3e 82 fe 70 3e 32 fd 2e 3e
       0.37293428 0.29883754 0.23534587 0.17088774
000260 e4 68 fa bc c8 b6 83 3e 51 b9 85 be 3a 8c e0 3d
       -0.030567594 0.2572539 -0.26117948 0.10964246
000270 13 d2 20 bf e6 48 a5 bd 87 72 42 bd 10 34 37 3e
       -0.6282055 -0.08070545 -0.047472503 0.17890954
000280 f3 c0 98 3e 98 07 9f 3e 9a af 1f be 40 5e 08 3f
       0.2983471 0.3106048 -0.1559433 0.53268814
000290 cd f9 5a be bd cd 85 bd bf 26 81 be d0 89 24 3e
       -0.21384354 -0.06533382 -0.25224873 0.16068196
0002a0 90 e0 ad bd 31 35 44 be e8 08 28 3f 74 c3 37 be
       -0.084900975 -0.19160916 0.6563859 -0.17945653
0002b0 1c 98 8f 3d 23 9a 98 ba e0 53 c6 3e 62 be 29 3d
       0.070114344 -0.0011642616 0.38735867 0.04144133
0002c0 5b af 85 3e 1d 5e d9 3e 26 fa 04 3e 52 69 01 3c
       0.26110348 0.42454615 0.12986049 0.0078986455
0002d0 65 8f 14 be af bb 2b 3e db e1 b9 3e de 49 f2 3d
       -0.14507826 0.16770814 0.36305127 0.11830495
0002e0 12 fd a5 3c fe 9d b6 3e 9f b5 65 3f 78 6e 50 3d
       0.020262275 0.35667413 0.89730257 0.0508866
0002f0 6f 2b 99 3e 33 5e 0b 3f 66 21 95 3e 8b 0d e3 3e
       0.2991595 0.5444061 0.29127043 0.4434627
000300 35 18 bf 3e f9 96 1f bd 45 a5 a0 3e b1 ee 89 3e
       0.37323156 -0.038962338 0.3137609 0.2693992
000310 15 c6 0e bf cc 57 3c be 0b bf 8c be 7f a4 46 3e
       -0.55771 -0.18392867 -0.27489504 0.19398688
000320 fd 1d b1 bc 60 52 94 be d8 ae be 3f 3d 44 22 bc
       -0.021620745 -0.28969097 1.4897108 -0.009903965
000330 8e 1a 13 3f b8 d4 26 3c b6 c5 3e 3f 25 2a 7e 3e
       0.57462394 0.010182552 0.7452043 0.24820764
000340 16 d8 05 be b3 9c 3a be 3c 10 bf bd 04 d2 c1 be
       -0.13070711 -0.18223839 -0.09329268 -0.37855542
000350 d1 bf 3a 3f 88 41 70 3e d0 9f a9 bc 3b d3 14 bd
       0.7294894 0.23462498 -0.020706087 -0.036334258
000360 4d 9e ba 3e f5 6b ab bd fe 49 09 bf 4e 8e 29 3c
       0.364489 -0.083702005 -0.5362853 0.0103488695
000370 ec cf b6 bd 2f 93 41 be c5 37 62 be fa 1f b6 3d
       -0.08926377 -0.18903802 -0.22091587 0.08892818
000380 17 a6 4c 3d 8a c1 ea 3d a8 68 cd bd 43 df 8c 3e
       0.049963083 0.11462696 -0.10029727 0.27514085
000390 ec 55 85 be 04 a5 1d 3c d6 dd 12 be 3c 63 fa 3d
       -0.26042116 0.009621862 -0.14342436 0.12225959
0003a0 ec 68 33 bd e3 03 1d be 80 ac e7 3e 05 c0 b7 be
       -0.043801233 -0.15333514 0.45248795 -0.35888687
0003b0 8e e1 ff 3e 45 e1 2d 3d dc 66 14 3f 61 4a 26 be
       0.49976772 0.042451162 0.5796945 -0.16239311
0003c0 f5 9e 24 be e7 e2 ea 3e a2 1f e2 3e f8 90 e6 bd
       -0.16076262 0.45876238 0.4416476 -0.11258119
0003d0 05 36 fd 3d 39 14 0c 3e 33 82 01 bd b5 da eb bd
       0.12363819 0.1367959 -0.03161831 -0.115163244
0003e0 8f c1 93 3e 0a 58 a5 3d f9 a4 1e 3e f2 eb 86 bd
       0.2885861 0.08073433 0.1549262 -0.06587972
0003f0 47 bd d0 3e 83 91 33 be 9c ac 65 be 5c e7 82 3e
       0.40769407 -0.17535977 -0.22429127 0.25567138

encoder.layers.0.self_attn.in_proj_bias f4 [48]
000000 85 4d 97 3d 9f c1 67 bd 6e a7 81 bd e3 ba 9f 3c
       0.073878326 -0.056581136 -0.06330763 0.019498294
000010 c5 5e 2c 3b ad fc b3 3b aa 95 87 3b 02 01 58 bd
       0.0026301604 0.005492768 0.0041377144 -0.052735336
000020 1e 43 07 bd 13 cb bd 3d 7c d8 e3 bd d4 77 55 3e
       -0.033022992 0.09267249 -0.111252755 0.20846492
000030 40 f3 b2 3d ae 71 cb 3d 74 89 00 be 9f 8e d0 3d
       0.087378025 0.09933792 -0.12552434 0.10183453
000040 ea 81 a2 3b ce eb dc bb 94 f5 48 bb f1 47 a2 3b
       0.0049593346 -0.0067419773 -0.0030663954 0.0049524237
000050 1b 7f cb ba 52 5a b0 3a c2 8b 91 3b e3 5e 04 3b
       -0.0015525551 0.0013454652 0.0044417093 0.0020198158
000060 2a c6 45 3b b5 f9 02 3c c3 c0 87 3a 72 ed be 3b
       0.003017793 0.007994105 0.001035713 0.0058266455
000070 0d c7 07 bc 1e ce a3 bc 88 86 02 3b d3 e7 3f bc
       -0.0082872035 -0.019995745 0.0019916613 -0.011712986
000080 e8 e0 00 3c 0a 5c d6 bd 8a 2a 21 3d b9 c1 63 3c
       0.007866122 -0.10466774 0.03934721 0.013901168
000090 9d 99 f2 3d db d3 bb 3d af 1b d3 3c 13 f2 1d be
       0.11845706 0.091712676 0.025770037 -0.15424375
0000a0 5d c9 bd 3b ea 60 ad bb 33 95 c6 bd bd af 07 bb
       0.0057918266 -0.005291094 -0.09696426 -0.0020704113
0000b0 8a ec a0 3c fe 0a f4 3c 84 bf 9f bc ff b2 57 bd
       0.01964404 0.029790398 -0.019500501 -0.05266094

encoder.layers.0.self_attn.out_proj.weight f4 [16, 16]
000000 0e 92 26 be 22 a6 9b 3c 2a 78 2a bb d3 12 cb bc
       -0.16266653 0.019000117 -0.0026011565 -0.02478925
000010 87 70 ff bd 4f 9c 9f bd d3 b0 b0 3d 7b 09 13 be
       -0.12472635 -0.077934854 0.086274765 -0.14359085
000020 52 90 ae 3d fc fb c8 3a 94 70 9f 3d 33 d5 86 3d
       0.08523621 0.0015333886 0.077851444 0.06583633
000030 23 87 39 3c e2 53 0b be c9 c5 0b be 27 49 e2 bc
       0.011323723 -0.13606218 -0.13649668 -0.027622772
000040 77 66 8b bb ac 03 89 3d a3 2e d7 bd e6 38 cf bc
       -0.004254158 0.066901535 -0.10506942 -0.025295686
000050 df 1c 9b 3d cc d1 14 bd 7f 24 18 be b2 41 d3 bc
       0.07573866 -0.03633289 -0.14857672 -0.025788162
000060 ef 5a 4d 3c 85 81 64 3d 3f 9e 10 bd c6 c9 df 3d
       0.012533887 0.055787582 -0.035307165 0.10927157
000070 34 6d ae 3d 71 b5 09 be da dd 2a be be dd c6 bd
       0.085169226 -0.1344812 -0.16686192 -0.09710263
000080 f5 c9 68 3d da 3d b7 be 67 77 0b 3e 46 3c 00 3e
       0.056833226 -0.35789376 0.13619767 0.12522992
000090 42 76 e0 bd 4b 1a 4e 3c 50 ed 0e bd 43 d2 26 be
       -0.10960056 0.012579511 -0.034894288 -0.16291146
0000a0 1f b4 20 3c 29 06 27 be 18 5b 9a bd dc c1 0f bd
       0.009808569 -0.16310944 -0.07536906 -0.035096988
0000b0 2c b5 7c 3d a4 02 68 be 05 cd 85 3c d3 d4 b0 bd
       0.061696216 -0.22657257 0.016333112 -0.08634343
0000c0 54 ac 12 be 11 ea ee bd 8f b0 16 3d 42 d5 2f bd
       -0.1432355 -0.116657384 0.036789473 -0.042927988
0000d0 cd 9b 89 3d 76 2b 96 bd 5e 70 37 3c 41 d4 e5 3b
       0.0671917 -0.07332508 0.011196224 0.007013828
0000e0 17 7a 31 bc fb 79 3d 3d 94 7f 97 bd 61 1a 56 bd
       -0.010832331 0.046258908 -0.073973805 -0.05227125
0000f0 a0 55 26 3e 7a 0d 1d bd 02 a0 3d bd 4b 4f 46 bd
       0.16243601 -0.03834293 -0.046295173 -0.048415463
000100 bd 6b 8a bd bd 8d 48 bd 29 74 89 bc ca 9f 86 bd
       -0.06758831 -0.048963297 -0.016779022 -0.06573446
000110 3d 60 35 bd df a4 f5 bc e2 f4 d4 3b b1 bb af bc
       -0.044281233 -0.029985843 0.006498919 -0.021451803
000120 ab 9c d0 bc db 9c 7a bc fb 98 bb bc 17 04 4f bd
       -0.02546533 -0.015296186 -0.022900095 -0.05054101
000130 c8 84 50 bd 33 6a cc bc 6b 43 1a 3d 06 97 f0 bb
       -0.05090788 -0.024952983 0.03766195 -0.007342222
000140 53 ac e9 bd f1 d9 a5 bd a4 31 69 3d 9e 08 2d 3e
       -0.11409821 -0.0809821 0.056932107 0.16897818
000150 08 ad 13 bd 99 5d 5a 3d 20 b0 4c bd d2 f4 e2 bd
       -0.036053687 0.053311918 -0.049972653 -0.11081852
000160 df 41 dc bd 2d 2a 82 bc 5b e4 15 be 47 5a dd bc
       -0.107547514 -0.015889252 -0.14637892 -0.027020587
000170 1a af b5 bc 9d fe 1a be 2b fc 6e be d5 7a a8 bc
       -0.022178221 -0.1513619 -0.23338382 -0.020566383
000180 e9 f8 0b be db 86 cc bd 47 20 62 bd 27 12 d4 3b
       -0.1366917 -0.09986659 -0.055206563 0.0064718905
000190 34 8f 86 bd 1c 5e f9 bc b7 dc 17 3d 1c 21 14 be
       -0.065702826 -0.030440383 0.037075724 -0.14465755
0001a0 01 02 34 3d e8 4b 23 bd 73 9f 31 be 6e ae 90 3d
       0.043947224 -0.03986731 -0.17345981 0.0706452
0001b0 1b 09 f8 3d 58 d3 50 3c 98 06 fb bc 5f 2e c2 3c
       0.12111112 0.012745701 -0.030642793 0.023703752
0001c0 be 40 8f be 55 84 38 bc d4 05 69 3e 79 75 60 bb
       -0.27979082 -0.011262019 0.2275613 -0.0034249707
0001d0 be 95 81 3b d1 f6 58 3d 05 1b d2 3d d0 a8 4a bb
       0.0039546182 0.052969757 0.1025906 -0.0030923374
0001e0 44 64 24 bc b9 5a 89 bd e3 fb c8 b9 7b 41 bf 3d
       -0.010033671 -0.06706757 -0.00038334643 0.09338661
0001f0 9d 8b b1 3d e9 b5 dc bd 06 7f 31 bd 9a fb 91 3b
       0.08669207 -0.10776884 -0.04333403 0.004455042
000200 75 6a 98 bd c2 ba 27 bd 35 12 1e 3e d9 3c 72 3c
       -0.0744218 -0.04094959 0.15436633 0.014785015
000210 74 d9 e5 bd f7 1e a3 bd 0a ca c2 bc a4 e8 3d be
       -0.112231165 -0.079648905 -0.02377798 -0.18545777
000220 64 7a 8f 3d 92 c9 9c bd 5f 27 76 bd 45 e0 6d 3d
       0.07005766 -0.07655634 -0.06009614 0.05807521
000230 94 35 93 3c 15 6f 09 be 8d a2 6e bc 42 e2 35 be
       0.017969884 -0.1342128 -0.014565122 -0.17762092
000240 4e a4 a1 bc c3 0a 65 bd b2 e9 25 3c 42 79 f8 3b
       -0.019731667 -0.055918466 0.010126518 0.0075828144
000250 fd d8 9f bc ce 64 58 bc c9 07 be 3d bb e3 33 bd
       -0.019512648 -0.013207627 0.09278829 -0.043918353
000260 fb 7c 39 3d 5c 39 c5 bc be d5 81 3c 03 ae 48 3b
       0.045285206 -0.024075203 0.01584899 0.0030621297
000270 12 1e 1e bd 68 f0 64 bc 06 9f b3 bc 9d 48 54 bb
       -0.038602896 -0.013973333 -0.021926414 -0.0032391914
000280 a9 85 56 3b 96 4c 46 3d 61 9d d8 ba 7c c8 b2 bc
       0.0032733476 0.04841288 -0.0016526395 -0.021824114
000290 d1 c8 85 bc c0 53 72 bc 02 45 54 3c 78 3f 03 3d
       -0.016331108 -0.014790475 0.012955906 0.03204295
0002a0 fa 4d f5 bc 3e 82 a0 3c 5f 09 fc 3b dc ac b5 bc
       -0.029944409 0.019593354 0.007691547 -0.022177152
0002b0 6d ee a2 3c 71 6c c8 3c 73 49 8a 3c f5 17 46 3c
       0.01988908 0.024465771 0.016880726 0.012090673
0002c0 9f 15 09 3d ee d6 37 bd 75 b5 a2 3d 56 ff 7c 3d
       0.033467885 -0.044882707 0.079447664 0.061766945
0002d0 06 e0 14 3e b7 c5 c4 3d f8 45 6c 3b e2 6d 6a bd
       0.14538583 0.096080236 0.0036052447 -0.0572337
0002e0 84 a0 4c bd 23 b8 0b be 76 30 bf bb 9d d5 c8 bc
       -0.049957767 -0.13644461 -0.0058346344 -0.024515921
0002f0 b0 64 7a 3d 37 d4 ed 3b 24 eb be bd c0 6f 9a bd
       0.06113118 0.007257964 -0.09322193 -0.07540846
000300 10 09 3d bc f0 9d be bc a3 ec f1 3c 00 6e 99 bd
       -0.011537805 -0.02326867 0.029531782 -0.07491684
000310 0f 34 fe 3d c2 35 a1 bb ce 1e 70 bd 8a d7 f9 ba
       0.12412273 -0.0049197385 -0.058623128 -0.0019061428
000320 91 94 fc 3c c0 ae 8e 3b d0 aa 6f 3d a4 f4 91 bd
       0.03083256 0.004354328 0.05851251 -0.071267396
000330 a3 da fc bc 22 df 2f bd 06 0f 08 be 52 0e fd bd
       -0.030865973 -0.042937405 -0.13286981 -0.12356247
000340 04 f8 a8 bd e2 bb 57 3d 8d 94 f0 3d 60 4b eb 3c
       -0.0825043 0.052669413 0.11747084 0.028722465
000350 30 a0 0d bd ce bb 42 3d 64 55 ef 3b e8 64 50 bd
       -0.034576595 0.047542386 0.0073038805 -0.05087748
000360 45 d9 44 bd 97 34 cf 3d e3 cc ad bc bc 3c 91 3d
       -0.048058767 0.101174526 -0.021215862 0.07091662
000370 40 19 60 bd ae d8 3b bd ab 07 8d bd b5 88 53 3d
       -0.05471158 -0.04586094 -0.06886228 0.051644046
000380 57 16 27 bd 95 98 5f 3d 3c dc 51 bd cd d1 c2 3c
       -0.04079279 0.054588873 -0.051235422 0.023781681
000390 46 f9 33 bd e4 71 0e 3e 33 f0 9b 3c b1 8b 2b bc
       -0.043938898 0.13910633 0.019035434 -0.010470317
0003a0 f0 d1 a1 3b a1 92 e1 3d 5d f9 84 bd 41 ed a0 bd
       0.0049383566 0.11014295 -0.06492875 -0.078577526
0003b0 89 51 10 3e cd 91 21 be 6e ab 40 3d ac ba 8b 3c
       0.14093603 -0.15778275 0.047038488 0.017056786
0003c0 08 44 04 bc 27 8d 9e 3c 08 15 79 3c 2b 2c e5 bc
       -0.008072861 0.019354416 0.015202768 -0.027975162
0003d0 1c bd cb bc bb 9a 15 3d 7f 16 a4 bb a4 90 d8 3c
       -0.024870448 0.036524516 -0.0050075646 0.026436158
0003e0 52 9f 98 3c 05 86 55 3d c6 76 1e bd c1 49 08 bd
       0.018630657 0.052129764 -0.03868749 -0.033273462
0003f0 73 a2 83 3c 81 0c 6e 3c bd fa 00 bd c3 b2 25 bd
       0.016068673 0.014529348 -0.031489123 -0.040453684

encoder.layers.0.self_attn.out_proj.bias f4 [16]
000000 b0 6a a2 3c 18 0f 57 bb 3f 06 d5 bd 9c 49 77 bd
       0.019826263 -0.0032815393 -0.10401582 -0.060372934
000010 91 69 92 3c 6d 1b 13 bd 54 89 29 bd c6 1c 1a 3c
       0.017872604 -0.035914827 -0.041390732 0.009406274
000020 10 3e 1d bd ee a5 22 bc cf a4 07 3b 26 d9 f0 bb
       -0.038389266 -0.009927256 0.0020697599 -0.007350105
000030 1e ce 1a bd 95 53 09 3d 42 89 3f bd 1a 04 44 3c
       -0.037794225 0.033526976 -0.04676176 0.0119638685

encoder.layers.0.linear1.weight f4 [64, 16]
000000 37 bd 19 3d e8 5b 70 3e a6 1a 7d 3e b7 54 75 be
       0.037533965 0.2347256 0.24717197 -0.23958097
000010 e7 e2 c2 be 28 3f 65 3e f0 0f 49 3e 44 a7 a0 3e
       -0.38063738 0.22387373 0.19634986 0.31377614
000020 22 ac b4 3c 2b 78 45 be 13 2c 85 bd 6c a5 a0 3e
       0.022054736 -0.19284122 -0.06502547 0.31376207
000030 f2 9a 1b bf 2c 28 30 3f 57 31 52 be 0c df 91 3e
       -0.607833 0.688113 -0.20526634 0.28490484
000040 f6 ff 32 be 4f cd f3 be e6 6d cb be 71 f8 f8 bc
       -0.17480454 -0.47617576 -0.39732283 -0.030391904
000050 cf 4c b4 bd 27 df a7 3e ea c9 84 be 98 2d e0 3d
       -0.088037126 0.3278744 -0.25935298 0.10946196
000060 dd 19 eb 3d 9e 04 fb bd e3 5e 90 3c 6a 51 8b 3e
       0.114795424 -0.1225674 0.01762337 0.27210552
000070 ff ee 9a be 94 c7 8e 3e ff d5 07 bd ce b5 9d 3d
       -0.30260465 0.2788664 -0.033163067 0.07700692
000080 53 81 27 bd 7e 2b 03 be ca 36 af 3e 7c 41 0c 3e
       -0.040894818 -0.1280956 0.34221488 0.13696855
000090 14 00 6f be 4c f9 a3 be f1 5e 8d 3e 43 dd fe 3d
       -0.23339874 -0.32026136 0.27611497 0.12444546
0000a0 0f e4 62 3e e8 f6 cb bb 50 36 c1 3e a5 8b 9c 3e
       0.2215731 -0.006224502 0.3773675 0.3057529
0000b0 02 aa 68 be 65 1a c9 3c 0f 7b 38 be 78 a6 67 be
       -0.22721103 0.024548719 -0.18015693 -0.22622097
0000c0 a7 cf b6 be 2c 5d f0 ba 72 15 9b 3d 38 3b 02 bf
       -0.357053 -0.0018338314 0.0757245 -0.5087161
0000d0 1e 11 ea be c9 55 09 be 3f e8 9b be d9 26 65 3e
       -0.45716184 -0.1341163 -0.30450627 0.223781
0000e0 e0 27 95 3e f1 87 c4 bd 2b 85 02 3e 45 70 44 bd
       0.29131985 -0.09596241 0.12746112 -0.04795863
0000f0 e7 78 ae bd a0 48 14 bd 0f 77 f0 be 34 4c 90 3e
       -0.08519154 -0.036202073 -0.46965834 0.28183138
000100 02 9c 62 bd 97 ee e9 bd 52 57 c7 3d d6 ee 9e be
       -0.055324562 -0.114224605 0.09733452 -0.31041592
000110 c5 f0 b3 be 02 2a 25 be 3f b8 35 3e fc 5c 3f 3c
       -0.3514463 -0.16129306 0.17746066 0.011679884
000120 68 6c 31 3e 74 f8 5e be 43 af 9d 3e a8 ce c8 3e
       0.1732651 -0.21774465 0.30797777 0.39220166
000130 18 08 98 3d fe 8e 00 3d 05 8f 0d be ec a8 08 bd
       0.07423419 0.031386368 -0.13824089 -0.03336422
000140 7d ce 76 be 0b 3f b4 3e bc 00 32 be e4 c7 69 be
       -0.24102207 0.35204348 -0.17383093 -0.22830158
000150 1b ca e5 bd 85 67 01 3e 88 48 35 3e 1b 1f 83 3e
       -0.11220189 0.12637146 0.1770345 0.2560967
000160 3e dc b6 3c ae 1c 92 3c 23 9b 15 be 4f 4e cc 3e
       0.022321817 0.017835941 -0.14609961 0.39903495
000170 c7 fb 30 bf 6d 2d 2d 3e 07 67 9c be af 66 ad 3e
       -0.6913418 0.1691186 -0.30547354 0.33867404
000180 6f 22 2c 3e 7c 38 94 3d b7 86 b9 3d 24 90 ab be
       0.1681001 0.07237336 0.09058898 -0.33508408
000190 73 f6 fb be db 88 93 be 83 ce b1 3e eb a8 c3 bd
       -0.49211463 -0.2881535 0.34727868 -0.09553703
0001a0 53 15 61 bc 22 1c fc 3d e2 67 01 3e b5 c2 04 3e
       -0.013737994 0.123100534 0.12637284 0.129649
0001b0 38 74 03 be f5 9c 2e bc 23 18 8c 3c fb 69 f2 bc
       -0.12837303 -0.010657539 0.017101353 -0.029591551
0001c0 f8 d7 39 bb 76 71 a9 be 89 b4 57 3e 98 20 68 be
       -0.0028357487 -0.33094376 0.21064962 -0.22668684
0001d0 e6 bc e3 be 64 e4 9a 3e 84 5a 49 3e 2b 0b 2a be
       -0.44480056 0.30252373 0.19663435 -0.16605823
0001e0 6a b9 9c 3e 77 3b f7 bc 0e d4 8d 3d 7c f0 7d 3e
       0.3061021 -0.030179722 0.06925212 0.24798769
0001f0 06 46 af be 9f bd a9 3e 97 c4 00 bf f3 65 04 3f
       -0.3423311 0.33152482 -0.5029997 0.5171806
000200 27 75 80 3e 0b 34 28 be 6b e1 b3 3d 9c f5 d3 be
       0.2508938 -0.16426103 0.087832294 -0.41398323
000210 99 6d ae be fb 82 fd 3d 48 4a cb be e7 0b d3 3d
       -0.3406799 0.12378498 -0.3970511 0.103050046
000220 c8 4f ac 3e fd bc e8 bd 8b 49 33 3e 83 5c 71 3e
       0.33654618 -0.11364172 0.17508523 0.23570447
000230 be 5a 54 bf 57 4b 03 3f 14 9b 88 be 11 06 76 3e
       -0.8295096 0.51286834 -0.26680815 0.24025752
000240 e2 72 de bd d8 96 91 be f2 62 58 3d f3 34 cc 3d
       -0.10861756 -0.28435397 0.052828737 0.09971037
000250 14 bf 76 3e e0 59 d9 bd c3 00 83 3d c4 27 ef 3e
       0.24096328 -0.106128454 0.0639663 0.46710026
000260 f6 35 59 3e d0 14 92 3d 8b 4e 0f 3e b9 56 30 3f
       0.2121199 0.07132876 0.13994806 0.6888233
000270 8a 6b c0 be 06 f1 49 be 1c a3 80 be 5e af 16 be
       -0.37582046 -0.1972085 -0.25124443 -0.14715335
000280 0c c5 b5 bd c2 01 fb 3b 47 bf 35 bd ee c9 c0 bd
       -0.08875474 0.0076601217 -0.04437187 -0.09413515
000290 ca 54 4a 3e 97 c7 b0 3c bf b5 1c 3f 41 a0 01 3e
       0.19758907 0.021579547 0.6121482 0.12658788
0002a0 4b 4c 5e be 94 e9 d4 bc a0 48 ee bc 4e f4 d7 3e
       -0.21708791 -0.025990285 -0.029087365 0.42178577
0002b0 ac fc 0e be 37 a5 1b be 72 ad a9 bc e4 de c3 3d
       -0.13963574 -0.15199743 -0.020712588 0.095639974
0002c0 4a dc 02 be 9f be 0e 3e f4 cb 3d be 59 a5 19 ba
       -0.12779346 0.13939904 -0.18534833 -0.00058611255
0002d0 1b b3 8d bd 62 97 88 be d5 f6 11 3e 63 5e 9e 3e
       -0.06918927 -0.26677996 0.14254315 0.30931386
0002e0 89 29 2e be e5 cb 72 be 06 22 49 3d 0b 30 0f be
       -0.17008032 -0.23710592 0.049104713 -0.1398317
0002f0 66 9f 18 be c4 1c ce 3d 4e 4f 54 be fe db 83 be
       -0.14904556 0.1006408 -0.20733377 -0.25753778
000300 7a 63 e3 3d 31 e2 a1 bb 7c 66 00 3d b3 14 13 bf
       0.11102958 -0.004940294 0.031347737 -0.5745346
000310 2e 5d a5 3c 43 3b 4a 3e 45 b1 6e 3e 06 9e 1e 3e
       0.020186033 0.19749169 0.2330981 0.15489969
000320 a9 a4 88 3d ec 58 05 bf d5 65 1e bd 86 d2 cd 3e
       0.066720314 -0.5208881 -0.038671333 0.4019968
000330 62 8b 3a 3b 31 9d 78 3e 52 30 6b be 18 4a 0a 3d
       0.0028464426 0.24278714 -0.22967651 0.033762068
000340 b0 bf 66 be e6 98 bc 3c 6d b8 07 bd a2 13 48 be
       -0.2253406 0.023022126 -0.033134867 -0.1953874
000350 e2 ee c7 bd b0 af 31 3e e2 c0 3f 3e 11 a5 b9 3e
       -0.0976236 0.17352176 0.18725923 0.36258748
000360 9e fb 04 be 20 f1 1b be 54 64 64 be 6b 94 5f 3e
       -0.1298661 -0.152287 -0.22303897 0.2183396
000370 1a 25 1f bf 02 ba 97 3e ff b0 25 3d 65 7e dc bc
       -0.6216599 0.296341 0.040452 -0.026915738
000380 2a a3 55 be ce 4c 1d be 0f e1 e0 bd 81 6d d5 3d
       -0.20863023 -0.1536133 -0.109804265 0.10421277
000390 e3 f1 b3 be db 04 ae be 78 ae c5 3d 13 25 94 3d
       -0.35145482 -0.3398808 0.09652418 0.07233634
0003a0 d0 d6 91 3e 0d 08 0d 3e 2e ea 53 3d c0 f9 a6 be
       0.284842 0.13772602 0.051737003 -0.3261242
0003b0 13 5b 39 3e eb 73 2b 3e e1 28 39 3e 62 35 b7 be
       0.18101148 0.16743438 0.18082 -0.35782915
0003c0 25 a8 eb bd 57 76 a0 3d b4 92 c0 3d 89 22 4b be
       -0.115066804 0.078350715 0.094029814 -0.19837393
0003d0 cb 4e 16 bf cd 27 52 be 23 b7 97 3e 17 05 4d 3e
       -0.5871398 -0.20522995 0.2963191 0.20021473
0003e0 6d d2 a5 3e 5f 42 3e 3e 21 7e 50 3e ec 26 0f be
       0.32387105 0.18580006 0.20360614 -0.13979691
0003f0 8b 7f 04 be c2 54 18 3e 7c 3a 0d 3e 53 45 ec bd
       -0.12939279 0.14876083 0.13791841 -0.1153666

encoder.layers.0.linear1.bias f4 [64]
000000 b5 f1 40 3d 73 0a 45 be 0a e0 c0 be ae 90 e1 3d
       0.04710551 -0.19242267 -0.37670928 0.110139236
000010 ad 36 cb be db f6 ce be a6 2c 99 be 48 89 6d be
       -0.39690152 -0.4042271 -0.29916877 -0.231969
000020 9a db 2e be fc 40 9e be db 2e b8 be aa b6 93 be
       -0.17075959 -0.30908954 -0.35973248 -0.288503
000030 a0 1a 1d bc 7c 5e 8d be 94 e3 7d be c4 57 a1 bd
       -0.009588867 -0.27611148 -0.24793845 -0.07878068
000040 f4 d1 e5 be 31 b0 18 bf 68 c8 b9 be 18 90 df bd
       -0.44886744 -0.59643847 -0.3628571 -0.109161556
000050 22 48 82 bd 6b ba e3 bd b1 cc b2 3c 9d 50 90 be
       -0.063614145 -0.11119541 0.02182612 -0.28186503
000060 2c 19 1f be 4c 1b 1f be 8a c6 49 be 50 9a b6 be
       -0.15536946 -0.15537757 -0.19704643 -0.35664606
000070 15 ba d2 be 94 b7 e5 be 52 5d 12 bd 88 04 81 be
       -0.41157594 -0.44866621 -0.03573353 -0.2519877
000080 7b e9 59 be 49 c8 5f be 31 2e 9c be 85 5d 69 be
       -0.21280472 -0.21853746 -0.3050399 -0.22789581
000090 ff 84 7e be 3a aa a1 be ec eb c2 be d9 79 d5 be
       -0.24855421 -0.31575185 -0.3807062 -0.41694525
0000a0 f0 19 fe bd f8 63 b8 be 8d d4 93 be e6 28 77 be
       -0.12407291 -0.3601377 -0.288731 -0.24136695
0000b0 10 33 07 3e 18 33 12 be 7a 95 e4 be aa e0 cb be
       0.13203073 -0.14277303 -0.44645292 -0.39819843
0000c0 46 86 ed bc 2b 42 98 be 9c 9e f8 bd 80 49 88 be
       -0.02899469 -0.29737982 -0.12139627 -0.26618576
0000d0 b6 04 da be 67 5d 04 bf bf 1b d2 be 22 60 38 be
       -0.4258172 -0.5170502 -0.41036794 -0.18005422
0000e0 2c 2c c8 be 8e 5e d1 be d6 99 a8 be 9b 6c a6 be
       -0.390962 -0.40892452 -0.32929868 -0.32504734
0000f0 03 bd 9a be 0f e5 c2 be 7e 20 83 be e4 e0 ec be
       -0.3022233 -0.38065383 -0.25610727 -0.46265328

encoder.layers.0.linear2.weight f4 [16, 64]
000000 86 b1 e6 3e 2b 64 54 3e 37 76 62 3e 5b a2 78 3e
       0.45057315 0.20741336 0.22115408 0.24280684
000010 e4 35 53 3e aa 84 c6 3e 8e 06 21 be a5 ba c4 3e
       0.20626026 0.3877309 -0.15725157 0.38423648
000020 49 df 8c 3e 35 c4 9a 3e 6c a9 73 3e 52 c9 fc 3b
       0.27514103 0.3022782 0.23795098 0.007714429
000030 7e e2 c3 3e 11 44 5f 3e 59 fa 82 be 6d 38 5d bd
       0.38258737 0.21803309 -0.25581625 -0.05400889
000040 74 93 12 3e 5b 75 bb 3e af 9c 25 3e 0c 81 56 3c
       0.14314061 0.36612973 0.16173051 0.013092291
000050 17 ee 34 3e 85 62 f1 be b7 33 b1 3e 90 74 d6 bd
       0.17668949 -0.47145477 0.34609768 -0.10471451
000060 2f 35 b6 3e af 4a b0 ba 1a eb 25 be fa 84 ed 3d
       0.3558745 -0.0013449992 -0.16202965 0.11597629
000070 a4 6c 99 be e4 df a1 be 3f b3 26 3e f1 c8 16 be
       -0.299657 -0.31616127 0.16279314 -0.1472509
000080 06 65 bc 3d d7 40 5b 3e 34 38 73 bb 08 d3 2b bd
       0.09198956 0.21411453 -0.0037112357 -0.041949302
000090 95 96 97 bd 18 11 e7 be 6a 3c 33 bc 6e c6 7d 3d
       -0.07401768 -0.4513023 -0.010939697 0.061956815
0000a0 06 e6 70 3e 78 8e 2e 3e 19 f0 c1 bd ed 50 b9 3d
       0.23525247 0.17046535 -0.09469623 0.090486385
0000b0 d1 79 b9 bd e2 1c 1c 3f 01 d7 0c be 11 00 1f bd
       -0.09056438 0.6098157 -0.13753892 -0.038818423
0000c0 6f 7d fa 3c 85 82 01 3e 33 ed 86 3d 52 23 9e be
       0.03057739 0.12647445 0.06588211 -0.30886322
0000d0 6a e3 0c be 4e 6b b0 3d 08 09 91 3d 9b e7 93 be
       -0.13758627 0.08614217 0.07081801 -0.28887638
0000e0 b9 26 3d 3e 82 ca 9f bc c6 96 74 3e 3e ee 46 3e
       0.18471803 -0.019505743 0.2388564 0.1942682
0000f0 bc c8 a0 3e 84 e1 70 bd 03 15 4d 3e 74 a6 4c be
       0.31403148 -0.05880882 0.20027547 -0.19985372
000100 79 08 ba bd 5a 58 7d 3c 0b 58 7c be 41 b6 c9 be
       -0.09083647 0.015462959 -0.2464296 -0.3939686
000110 dd 96 0b 3f b8 b5 aa 3d 01 33 a9 bd 53 d2 9e be
       0.54527074 0.08335441 -0.08261681 -0.3101984
000120 cf ba 39 be e0 f9 52 bd 6a 50 d3 3c 8c 75 74 be
       -0.18137668 -0.05150783 0.02579518 -0.23872966
000130 7c f2 cd be 21 86 a5 3d 1b d4 f0 3d ab 2e 73 be
       -0.40224063 0.08082224 0.11759206 -0.23748271
000140 70 6a 1a bd cf 6d d1 bd 69 93 f5 bd 34 b9 a2 be
       -0.037699163 -0.102260225 -0.11991007 -0.31781924
000150 00 13 4d be 4f c2 c6 3e 34 ed c4 be d0 ba 05 3e
       -0.20026779 0.3882012 -0.38462222 0.13059545
000160 86 18 95 be 61 fb c4 be 31 65 0b 3d 73 ab 97 ba
       -0.29120272 -0.38473037 0.03403205 -0.0011571482
000170 25 12 90 3a 3d d5 dc be c4 ea 3d be 27 6c d9 3d
       0.0010991736 -0.43131438 -0.18546587 0.106163315
000180 e4 03 82 be 4c cd 9f be 35 29 20 be 0b 00 2a 3d
       -0.25393593 -0.31211317 -0.15640719 0.041503947
000190 e5 b8 25 3c 84 b2 90 be cb de 14 3e 55 bd 72 3e
       0.010114883 -0.28261197 0.14538114 0.23705037
0001a0 b6 57 27 be 79 fc 98 be fb 6d 96 be 27 68 9f be
       -0.16342053 -0.2988012 -0.29380783 -0.3113415
0001b0 34 fa f9 3e 04 f5 10 be 80 e4 e6 bd eb f2 05 bc
       0.48823702 -0.14155966 -0.11274052 -0.008175592
0001c0 ab 67 69 be f2 78 45 3e 4a 62 56 3d d0 bf 92 be
       -0.22793452 0.19284418 0.05233983 -0.28661966
0001d0 62 65 2e 3e 37 6a 2d 3e 97 64 58 3e 05 d1 17 bd
       0.17030862 0.16935049 0.21132122 -0.03706457
0001e0 04 d3 ff 3d 5c df 36 bb aa 97 c5 be c4 10 1e be
       0.1249142 -0.0027904129 -0.38592273 -0.15436083
0001f0 8a 49 d9 be 14 6c 34 be 09 36 d7 be b6 da 4e bd
       -0.42438918 -0.17619354 -0.42033413 -0.050501548
000200 30 1b 9c 3e 81 cc 8d be b4 96 12 bf 20 bf b2 be
       0.30489492 -0.27695087 -0.57261205 -0.34911442
000210 4e f2 0e be 00 ce c6 3e 5f 15 36 3d a4 4b 2f be
       -0.1395962 0.3882904 0.044453975 -0.17118698
000220 58 c8 0b be 58 7c 49 3e 49 9c 81 3d f3 ba 01 3d
       -0.13650644 0.1967634 0.06328637 0.03167243
000230 01 f0 8b be 31 16 51 3e 40 8d ab 3d bd cf 90 be
       -0.27331546 0.20418622 0.08376551 -0.28283492
000240 07 ee 07 3e 19 59 0c be 5d ae d3 be a9 c4 bd bd
       0.13274394 -0.13705863 -0.41343966 -0.092660256
000250 be 3b 2c be d1 71 aa be 4d ef 8d 3e dd 06 b7 bd
       -0.16819665 -0.3328996 0.27721635 -0.08936856
000260 0c e6 0b be 0b d8 af 3c 4f ee dc 3e 1b f8 86 3e
       -0.13661975 0.021465322 0.43150565 0.26361164
000270 d0 b7 b9 be 65 67 8d 3c 50 8b 50 3e 80 5a 4a be
       -0.3627305 0.017261216 0.20365644 -0.19761086
000280 3b 1f a8 bd 97 36 44 3d 09 e7 91 be 4e 51 4c be
       -0.08209082 0.047903623 -0.28496578 -0.1995289
000290 35 73 64 be 0a f2 39 be 35 1b c2 ba c3 d0 c8 3c
       -0.22309573 -0.18158737 -0.0014809134 0.024513608
0002a0 a2 16 56 bd 4f 4b 39 be 70 49 0e 3e 14 d4 3d bd
       -0.052267678 -0.18095134 0.13895202 -0.04634483
0002b0 72 bb a1 be 0e 89 16 be b1 d9 f3 bc db 13 3b be
       -0.31588322 -0.1470072 -0.02976689 -0.18269293
0002c0 ca 9d b4 be 4b 84 7c be 65 29 f9 bd 37 88 21 be
       -0.35276634 -0.24659841 -0.121660985 -0.15774618
0002d0 47 14 6e 3d 02 7a 84 be ec 78 58 be f3 36 9d 3c
       0.058124807 -0.25874335 -0.21139878 0.01919124
0002e0 ef ba 70 3e 4a af 32 3d d6 3b 45 3c 51 3e 51 3e
       0.2350881 0.0436242 0.012038192 0.20433928
0002f0 98 2d 2c be dd eb c9 3d cf f7 1b bd 34 b9 1f bd
       -0.16814268 0.098594405 -0.038078126 -0.038994983
000300 dc ec 9e bd 22 02 3d 3e f6 3b d7 be 03 6b 9d be
       -0.07760021 0.18457845 -0.42037934 -0.30745706
000310 f0 cf 8e bd 37 f5 ec be f1 fa 89 be 8e ba c6 be
       -0.06973255 -0.46280834 -0.26949266 -0.38814205
000320 08 d1 af be 6e f5 37 be bc f5 13 3e 28 7b 8b 3e
       -0.34339166 -0.17964718 0.14449209 0.27242398
000330 f7 5e 24 3f e3 80 67 3d b0 54 13 be 0f c1 c6 be
       0.64207405 0.0565194 -0.14387774 -0.38819167
000340 98 80 5e be bd 89 64 be 1d ee 02 be 47 41 b9 bd
       -0.21728742 -0.22318168 -0.12786146 -0.09045654
000350 c8 bd 06 3f e4 fc 38 be 47 51 86 3e 1a d3 39 3e
       0.52633333 -0.1806522 0.26233885 0.18146935
000360 a6 bd 89 3d 53 47 50 bd 67 bb 19 be 63 68 27 bd
       0.06725626 -0.05084927 -0.15012895 -0.040871035
000370 8e 28 8d bd 0a 15 11 3e 36 77 76 3e 7b 50 0d be
       -0.06892501 0.14168182 0.24068913 -0.13800232
000380 d5 a5 4d bd a1 e4 ee 3e 4e 1b 26 3d 8c ec 0d 3e
       -0.050206978 0.46658805 0.040553384 0.13859767
000390 c4 9f a1 bc 62 16 93 bd 71 df 20 3e 10 90 35 3e
       -0.019729502 -0.071820036 0.15710236 0.17730737
0003a0 a1 f5 b1 bd ad d5 b9 3e b7 88 4e be 25 e6 35 3c
       -0.08689428 0.36295834 -0.2016934 0.011102234
0003b0 59 1e 14 3f fc 40 31 be 3f 8f 02 be cd 66 72 bd
       0.57858807 -0.17309946 -0.12749957 -0.05918007
0003c0 28 54 ce be 90 c9 88 bd 10 c7 ad 3d bf 35 46 3e
       -0.4029858 -0.0667907 0.08485234 0.1935644
0003d0 a4 22 e0 bc 14 d8 bf be eb 8d 8a be 48 cb b8 3d
       -0.027360268 -0.37469542 -0.270614 0.09023148
0003e0 f3 af d7 bc d7 80 9b be 1f eb 11 3e d3 6b 08 3d
       -0.026329016 -0.30371734 0.14249848 0.033305954
0003f0 92 d0 d3 bd c3 fb 75 be 1e d9 ee bd 76 6a 94 3e
       -0.10342516 -0.2402182 -0.116625056 0.28987473

encoder.layers.0.linear2.bias f4 [16]
000000 a2 44 bb bd ed 8d a9 bc 5d c1 1d 3d 1b 58 ca 3c
       -0.0914395 -0.020697558 0.038514484 0.024700215
000010 65 93 b2 bd 7b 15 01 bc 1d bf 9f 3d 62 3b c3 3d
       -0.087195195 -0.0078786565 0.07800124 0.09532811
000020 6b 85 2c 3d 60 95 02 bd 2f 8f aa b8 1c c8 84 3d
       0.042119425 -0.031880736 -8.132902e-05 0.0648348
000030 95 bf a1 bc 6a 15 72 3d dd a2 92 bd e7 89 75 3b
       -0.019744674 0.059102453 -0.0715997 0.003746623

encoder.layers.0.norm1.weight f4 [16]
000000 b2 57 00 3f b0 b5 0a 3f 7d 0a d8 3e 65 34 58 3f
       0.5013381 0.54183483 0.42195502 0.8445495
000010 56 e2 a3 3f d6 8f 22 3f ec 41 e7 3e db 0f db 3e
       1.2803447 0.63500726 0.45167482 0.42785534
000020 8b e2 66 3e 3a 0c 9d 3f 97 3c 27 40 cd 99 34 3f
       0.22547357 1.2269356 2.613073 0.7054718
000030 25 e1 13 3f 7b 48 2d 3f 13 3f 2e 3f 82 af c5 3f
       0.5776542 0.6768872 0.68064994 1.5444186

encoder.layers.0.norm1.bias f4 [16]
000000 25 3f ec 3e 02 7d 29 3e b5 b6 75 bd 68 b5 18 3e
       0.46141925 0.16551593 -0.059988696 0.14912951
000010 9d cb e2 3e 0e 89 7f bd 7c 25 c2 be d3 15 09 bf
       0.4429597 -0.062386565 -0.37919223 -0.53548926
000020 31 32 6c be 3e 46 e4 bd b7 9a ca 3d 54 f3 9c be
       -0.23066022 -0.1114621 0.09892791 -0.30654395
000030 e5 d8 13 3f 9f fa 0a bf b5 4f 1a 3f ec 56 aa bd
       0.5775283 -0.5428867 0.60277873 -0.0831736

encoder.layers.0.norm2.weight f4 [16]
000000 7b f0 24 3f 53 d6 71 3f 39 e6 4c 3f 9a 3c 89 3f
       0.64429444 0.9446766 0.8003879 1.0721619
000010 85 0f 6e 3f 14 84 54 3f 63 8c f8 3e 78 d1 13 3f
       0.9299243 0.83014035 0.48544607 0.577415
000020 5b 5b 7d 3f 75 7c 81 3f 8e 44 e8 3f 67 ab 1b 3f
       0.9896752 1.0116106 1.8145921 0.60808414
000030 d7 fe ec 3e e3 37 e1 3e d1 eb 4d 3f ef 76 ca 3f
       0.46288177 0.4398795 0.8043795 1.5817546

encoder.layers.0.norm2.bias f4 [16]
000000 e3 79 2b 3f c4 77 25 be 48 98 5d 3d 41 da 87 be
       0.6698286 -0.16158968 0.054100305 -0.26533702
000010 3a 82 c7 3e aa 11 b2 3d 27 e5 34 be 39 db bc bd
       0.38966542 0.086947754 -0.1766554 -0.09221501
000020 ff 1c fd be 86 86 ef bd 46 d4 60 bc ae e3 60 be
       -0.49436185 -0.1169558 -0.013722485 -0.21961853
000030 74 3a 5a 3e b3 bd f6 3d ee bd 63 3e 2b 13 98 3e
       0.2131136 0.12047901 0.22240421 0.29702124

encoder.layers.1.self_attn.in_proj_weight f4 [48, 16]
000000 15 bf 8f 3d 97 f1 08 bd f2 68 02 be 1e 4d f8 3e
       0.07018868 -0.033433523 -0.12735346 0.48496336
000010 5d b2 6f be 69 20 eb be f7 40 7d 3d 5b 7b cd 3e
       -0.23407884 -0.45923164 0.061829533 0.40133175
000020 17 48 7e 3d e2 e0 45 3e a4 2d c2 bd 7a aa dd 3d
       0.06208047 0.19324067 -0.094813615 0.108235314
000030 06 04 99 3e 48 72 11 3b ea 4b 07 bf 64 53 9e bc
       0.29885882 0.002219336 -0.5285021 -0.019326873
000040 9c c0 2d 3e 25 f7 08 be 7b db 22 3d 68 1f 0c 3e
       0.16968006 -0.13375528 0.039760094 0.13683856
000050 1b 75 83 be 22 49 5d bc ad e2 a3 3d 4d 10 39 3e
       -0.25675282 -0.013506206 0.08002219 0.18072625
000060 95 10 50 3d c1 7b af 3e ef 6a e9 bb d7 29 55 be
       0.050797064 0.34274104 -0.007123343 -0.20816742
000070 58 4b c6 be 2e c6 50 be 63 4b f1 3e 2a ca da bd
       -0.38729358 -0.203881 0.47127828 -0.10683091
000080 0e ae 7f be 3f ff 85 3d ef fd 63 be 4a 01 9d bd
       -0.2496874 0.06542825 -0.22264837 -0.076662615
000090 11 9b b6 3c b8 88 0f 3e 33 c0 80 bd 2c 0b 29 3e
       0.022290738 0.14016998 -0.06286659 0.16508168
0000a0 e6 3d 77 be 05 5a 14 3e 7d b5 73 3e c5 61 52 be
       -0.24144706 0.14487465 0.23799701 -0.20545109
0000b0 e5 4c 8a be f8 81 1c 3e 9d 7a a6 3e 1f 7d a5 3d
       -0.2701179 0.15283954 0.32515422 0.080805056
0000c0 68 5e 91 be e0 56 66 ba bb 09 3f 3b 30 ec 18 3d
       -0.2839234 -0.0008786749 0.0029150087 0.03733462
0000d0 89 be c5 bc 40 11 63 be 1d 98 64 3d a3 be d2 bd
       -0.024138706 -0.22174549 0.05580913 -0.10290267
0000e0 a0 74 a4 bc 7c 2d 2b 3e 99 b2 44 3e df c5 13 bf
       -0.020075142 0.1671657 0.19208755 -0.577238
0000f0 3a 17 f3 3e d6 8f eb bc 7b 0b 8f 3e 7b 1b 43 3d
       0.47478658 -0.02875511 0.27938446 0.04763363
000100 f2 a0 8c be e8 67 b0 be 73 07 1f 3e 9a a1 62 3e
       -0.27466542 -0.34454274 0.15530185 0.22131959
000110 0d eb f1 bd fd 83 a9 bd 7f 62 5d be 99 70 72 3d
       -0.118124105 -0.08277128 -0.21619605 0.059189413
000120 92 bb 9c 3d 90 31 f5 3e dd 1f dc 3c fc 8c 9d be
       0.07652964 0.47889376 0.026870662 -0.30771625
000130 e6 b0 8d bd 1b 4a 83 3c 15 28 84 3e f4 d2 c9 bd
       -0.06918506 0.016026547 0.2581183 -0.09854689
000140 05 05 84 bd 5e 70 87 be 03 43 65 3e 5f fe 69 be
       -0.0644627 -0.26452917 0.22388844 -0.22850941
000150 5f 7e 34 be 34 15 a9 3e c2 50 cf bd 0d 2a dc be
       -0.17626332 0.3302399 -0.10122825 -0.43000832
000160 00 54 bb 3e ee 80 bf be 20 06 97 3d 6c ac 13 be
       0.36587524 -0.37403053 0.07374215 -0.14421242
000170 0d 18 02 3d b2 56 49 be b5 23 29 3e 14 6c 0e 3e
       0.031761218 -0.19661978 0.16517527 0.13908416
000180 45 b5 2a 3d da 7f 9f be bd f2 bf bd 38 f0 b8 bd
       0.04167678 -0.3115223 -0.093724705 -0.09030193
000190 4a 31 2f ba 98 d9 81 3d bc 12 0b be 88 b7 80 3e
       -0.0006683065 0.06340331 -0.13581365 0.25140023
0001a0 0c 2c 72 3e 8b d1 84 3e d7 81 48 3d 83 c2 3d 3d
       0.23649615 0.2594112 0.04895195 0.04632808
0001b0 32 e5 74 be 59 61 30 3e 8f 7c 2f be 74 2b 0e be
       -0.23915556 0.17224635 -0.17137359 -0.13883764
0001c0 c8 63 5c 3d 75 87 22 be 24 1e 81 3d 4f 2c 86 bd
       0.053806096 -0.15871985 0.06304577 -0.0655142
0001d0 3d c0 58 bc 97 6c 58 3e 03 7f 79 be d8 be 38 3d
       -0.013229427 0.21135174 -0.24364857 0.045103878
0001e0 d8 96 dc 3d 7f ef a4 be 22 99 97 3d 03 82 6d 3e
       0.10770959 -0.3221397 0.07402255 0.23194127
0001f0 cb 65 2d 3e e5 bf 88 bd d8 85 ab be 6e 8e c4 be
       0.16933362 -0.06677226 -0.33500552 -0.38389915
000200 03 af 71 be 29 d9 75 3d 4f 10 a3 bd 0f d0 30 be
       -0.23601918 0.060021553 -0.07962095 -0.17266868
000210 b3 a3 41 be 91 06 99 3e 8e 29 3f 3d 03 ae ae 3e
       -0.18910103 0.29887822 0.04667049 0.34117135
000220 d3 49 8a 3d 75 b3 29 bf 95 db f7 bd 61 93 06 3e
       0.06752362 -0.66289455 -0.12102429 0.13142158
000230 cb 4f 9a be 72 06 e8 3c 64 e6 22 3d fb 29 f4 3d
       -0.30139002 0.028323386 0.0397705 0.1192207
000240 55 72 2b 3e 91 47 a7 3e 61 c4 a4 bc 96 27 9a 3e
       0.16742833 0.32671788 -0.020113172 0.30108327
000250 8f 8c a9 3c 63 fd 44 3e b0 41 da 3e b2 ee c7 bc
       0.020696906 0.19237284 0.4262824 -0.024405811
000260 fe 2d 3b 3e 2c 5a 74 3e c6 d3 9f 3d a3 ca fd bd
       0.18279263 0.23862523 0.078040645 -0.123921655
000270 23 8e df be a8 27 bb be d3 57 9a 3e bc bd a3 be
       -0.4366313 -0.36553693 0.3014513 -0.31980693
000280 86 d0 4a 3e 4c 0e dc 3e 5e 37 55 3c 1a 0c 88 3d
       0.19806108 0.42979658 0.013013689 0.06642933
000290 25 a1 20 3e 01 9a 0d be 42 b0 a5 3c 81 15 8e 3e
       0.15686472 -0.13828279 0.020225648 0.2775078
0002a0 bb 4f cf 3e 89 69 f2 3d 65 b0 52 bd 32 9f bf bc
       0.40490517 0.118365355 -0.051437754 -0.02339134
0002b0 40 14 87 be 73 0a 1b bd 36 49 a9 3e 0c b9 46 be
       -0.26382637 -0.037851762 0.33063668 -0.19406527
0002c0 a8 47 5d 3e c1 37 61 3e ed 27 92 be 92 cc 03 3e
       0.21609366 0.21993925 -0.28546086 0.12871006
0002d0 64 d3 c0 3c 84 d6 39 bd 25 ec 96 3e 6a c4 12 3e
       0.023538299 -0.045370594 0.2947704 0.14332739
0002e0 7b 20 72 be f0 1d 81 3d 08 1f b9 3d 42 6b 0e 3e
       -0.23645203 0.06304538 0.09039122 0.13908103
0002f0 9f 12 39 bd 01 09 6b 3e 44 65 c9 3d d5 1a 65 3d
       -0.045183774 0.22952653 0.09833768 0.055933792
000300 22 de 2c 3e f5 af fd bd ea 1e e4 3b 1a c6 b4 bd
       0.16881612 -0.12387077 0.006961693 -0.088268474
000310 a4 99 71 bb 59 bd d2 3c ff 6b d4 be 4e 4b 1b 3e
       -0.0036865259 0.025725054 -0.41488644 0.15165445
000320 a6 6a d3 bd 0f dc 9e be 98 87 48 3d 43 0a b2 3d
       -0.10323076 -0.31027266 0.048957437 0.086933635
000330 c7 7b a9 be 19 7a d9 3d 85 fb c7 3e bb b3 84 3e
       -0.33102247 0.106189914 0.39059082 0.25918373
000340 4e 6d d0 bd 4d d2 4a be 91 37 0c 3d 2f 56 43 be
       -0.10177098 -0.19806786 0.03423268 -0.19075845
000350 7e fe 37 3e e0 13 8f 3e 48 9f f7 bb de 37 c5 bd
       0.17968175 0.2794485 -0.0075568296 -0.096297964
000360 65 af ce bb 61 d0 8f bd 96 ac 3e 3c 53 f3 8f be
       -0.0063075298 -0.07022167 0.011637827 -0.2811533
000370 64 63 0a 3e 45 b5 05 3d ef f8 69 be 8d 68 f2 3d
       0.13514477 0.032643575 -0.22848867 0.11836348
000380 62 d5 67 be ac 58 ff bd 12 e8 be bd 82 11 1f bf
       -0.22639993 -0.12468085 -0.09321608 -0.6213609
000390 12 af 0b 3e 67 d9 4d 3e 28 55 8c be f8 42 7a 3e
       0.13641003 0.20102464 -0.2740872 0.24439609
0003a0 f2 96 46 3e 67 76 50 be 07 24 02 3e a5 3b 30 bd
       0.19393519 -0.20357667 0.12709056 -0.04302563
0003b0 b0 34 47 be 6a 27 dd 3e 77 81 10 3e ba 26 5d 3d
       -0.19453692 0.43194133 0.14111887 0.05399201
0003c0 dd b4 a7 be 21 4b 07 be da 26 ab 3e 56 15 76 3e
       -0.32755175 -0.13212253 0.3342808 0.24031577
0003d0 f9 78 2b 3e 17 b3 2e 3e 75 01 ba 3e 24 55 59 be
       0.16745366 0.17060505 0.36329237 -0.21223885
0003e0 87 5a 19 3d 66 78 a0 bd cc 11 1c 3e bb 58 91 3d
       0.03743985 -0.07835464 0.15241164 0.07097002
0003f0 d1 0e 9b 3e dc 35 2e 3d 5b 77 13 bf 09 2b 9f 3e
       0.30284742 0.042531833 -0.57603997 0.3108752

encoder.layers.1.self_attn.in_proj_bias f4 [48]
000000 0f bf 54 be 14 76 80 bd 53 25 46 bd b0 bc 7e b9
       -0.20776008 -0.062725216 -0.04837544 -0.00024293619
000010 32 86 6b 3e 05 74 b5 bd d1 99 b4 3d fa e0 d5 3d
       0.2300041 -0.088600196 0.08818401 0.104433015
000020 c5 18 e1 39 f8 40 39 be 04 1d b5 3d 18 24 f5 3d
       0.000429338 -0.1809119 0.08843425 0.11969775
000030 3a 51 01 3d d9 ec 8c 3d 13 62 94 be 75 07 c7 bd
       0.031571604 0.068811126 -0.28981075 -0.09718219
000040 61 f5 39 3b 26 0b ea ba 92 b0 28 ba c3 97 18 ba
       0.0028375017 -0.0017856106 -0.00064350024 -0.0005820954
000050 bd 3f ce ba fe 69 e4 ba 8e 41 79 3a 59 80 01 3a
       -0.0015735548 -0.0017426608 0.00095083646 0.0004940085
000060 42 df 2a bb 19 1a e6 b9 42 41 3f ba cd 6f 43 ba
       -0.0026073013 -0.00043888463 -0.0007295796 -0.0007455319
000070 00 03 41 bb 16 4b c3 3a 89 85 09 ba b8 0a 87 3b
       -0.002945125 0.0014899697 -0.00052460335 0.004121151
000080 e8 4f cc bc 48 15 96 bd bc cc 7b bd fd 15 fa bc
       -0.024940446 -0.07328278 -0.061474547 -0.030528063
000090 8d 4a b8 bd 97 fa 0d be ac 2b a8 bc 64 9a 22 3d
       -0.089985944 -0.13865124 -0.020528637 0.03969802
0000a0 12 7b 29 bc 43 65 b1 bd 70 18 21 3d 36 63 11 bc
       -0.010344284 -0.08661892 0.039329946 -0.008873751
0000b0 b2 17 99 3b d0 04 d1 bd 9d ae 01 3c c4 bb 9e 3a
       0.004672014 -0.10205996 0.007915166 0.0012110402

encoder.layers.1.self_attn.out_proj.weight f4 [16, 16]
000000 0d 5b 06 3c 3e 9c 08 bc 24 0a 4c bc f0 d6 26 3d
       0.008200419 -0.008338032 -0.01245359 0.040732324
000010 70 9e 6c 3d 4e d9 0e 3d d3 fd 07 be 0b c2 20 3e
       0.057768285 0.034875207 -0.1328042 0.15699022
000020 9a b9 f5 3d f1 e7 c1 3b 62 b1 31 3e bf c6 4a 3c
       0.11998291 0.005917542 0.17352822 0.012376486
000030 2e 0a 32 be a6 fb 16 be b3 33 17 3e 27 5e 68 bc
       -0.17386696 -0.14744434 0.14765815 -0.014182604
000040 e2 1f db 3d 68 78 11 be 3a 7f d2 bc 94 38 ae 3e
       0.106994405 -0.14206088 -0.025695432 0.3402754
000050 bb ff b1 bb 63 03 5c 3e 66 88 1d 3d 41 6f 67 be
       -0.005432097 0.21485667 0.038460158 -0.22601034
000060 82 2a 08 3d d4 83 62 3e d4 b9 a4 bd 25 fa 0b 3e
       0.033243664 0.22120601 -0.080432564 0.13669641
000070 c0 3d 15 3e 15 2b 56 3d 6f 4f b9 3d 32 0b 05 3e
       0.14574337 0.05228718 0.09048354 0.12992552
000080 d1 23 34 be a9 8e bd 3d 5b e9 36 be c3 aa a6 bd
       -0.17591788 0.09255726 -0.17862456 -0.08138039
000090 ce 75 db bd 49 bf ab 3d 33 3d 3c be 31 58 5e 3c
       -0.10715829 0.08386094 -0.1838272 0.013570831
0000a0 cc 81 e9 bc 56 59 c1 bd 2e 7b 0f 3e 0c 26 32 3d
       -0.028504275 -0.094408676 0.14011833 0.043493316
0000b0 da a8 13 3d 9b 51 30 bb 73 ef 97 3d 06 f1 33 3e
       0.0360497 -0.002690411 0.07418718 0.17572412
0000c0 c7 71 8b bd 00 be 39 3e da b7 82 3d 2d 74 6f 3e
       -0.06808811 0.18138885 0.06382723 0.23384161
0000d0 da 9f d0 3b 42 d9 b0 bc 2f b2 99 3d ca 9b 43 3d
       0.006366712 -0.021587972 0.07504689 0.047755994
0000e0 87 86 ea 3c 48 3e 07 3e bd 8f a3 bd d9 d8 68 3d
       0.0286286 0.13207352 -0.079864 0.056847427
0000f0 a4 a6 05 bd 92 de 3e 3d 06 9b 06 be d4 41 00 3e
       -0.032629624 0.04659898 -0.13145074 0.12525111
000100 cb ae 78 bd c6 8f ba 3c 1e ac 85 bc e3 c6 de bc
       -0.06071357 0.022773635 -0.016317423 -0.027194446
000110 b6 74 3a bd ec 74 5c 3d 45 d9 14 3d 5c 05 01 3e
       -0.04552146 0.053822443 0.036340017 0.125997
000120 63 f7 b2 bd 20 cb 31 be 05 9d 06 3e 7a 73 62 be
       -0.087385915 -0.17362642 0.13145836 -0.22114363
000130 01 98 d8 bd dc e2 95 bd ca c6 7e bc 22 17 ff 3d
       -0.105758674 -0.073186606 -0.015550325 0.12455584
000140 16 33 dd bd f8 6e 6e 3e 13 69 06 be 24 4d 01 be
       -0.108007595 0.23284519 -0.1312602 -0.12627083
000150 1f 34 5a bd 38 0c 41 3d 33 a8 0b be f0 37 7d 3d
       -0.053272363 0.047130793 -0.13638382 0.061820924
000160 ad bb db 3d d5 96 93 3d a5 b7 06 3d d7 72 fe bd
       0.10729156 0.07206503 0.03288998 -0.12424248
000170 a4 6d f2 3d 8a 2c ce bd f0 6a 1c 3e 00 07 7c bd
       0.118373185 -0.10067089 0.15275168 -0.061530113
000180 e7 85 85 bd 62 cd 73 3c ee 0a 6c 3d a8 18 c8 3d
       -0.065196805 0.01488051 0.05762761 0.09770328
000190 e6 6d 74 3e 40 ce c2 bd 29 29 ad 3c f0 de 93 38
       0.23870048 -0.09511995 0.02113779 7.0510316e-05
0001a0 1d cf fe bd 46 57 6d bb de 64 ce be 9e 75 3b 3d
       -0.124418475 -0.003621535 -0.4031133 0.045766465
0001b0 71 71 a1 3d 96 95 92 3d a4 4f f8 bd 76 7e 8c 3c
       0.07882965 0.071574375 -0.12124565 0.017150145
0001c0 62 15 f4 3c 93 0e 05 3e ae b8 ed bc 9a 5a 8d 3d
       0.029795352 0.12993841 -0.029018726 0.069020465
0001d0 fe 24 f6 3d 79 20 63 3d 09 e6 a6 3e f9 97 8b bc
       0.120187744 0.05545089 0.32597378 -0.01704024
0001e0 7d 6c a1 bd 0b a8 4b 3e 4e 7a 93 bd 7d ee 84 3e
       -0.078820206 0.19888322 -0.07201062 0.25963202
0001f0 00 8e b9 bd 89 1d 87 bc ba b7 59 3d 5b f5 34 be
       -0.090602875 -0.016493576 0.05315373 -0.1767172
000200 f2 06 26 bc 7d 11 22 bd f5 59 7a 3c a0 0e bf 3c
       -0.010133492 -0.03956746 0.0152802365 0.023322403
000210 9d f5 43 bc 73 44 d1 bb 50 3b b1 3c d9 09 a9 bb
       -0.011960414 -0.0063863336 0.021634728 -0.0051586446
000220 81 1d 04 bb 8f d5 9b bc 22 4b 9c bc 3d 8b 24 bd
       -0.0020159187 -0.019022731 -0.019078795 -0.04017185
000230 24 1f 41 bc 2d 9d 8a 3c c2 87 d7 b9 1d 18 3d bc
       -0.01178721 0.01692065 -0.00041109143 -0.011541394
000240 bf 8d eb 3c e5 91 08 bc 9d 7e 0d be a0 70 58 be
       0.028754113 -0.008335565 -0.1381783 -0.21136713
000250 26 0d 2a 3c 39 34 04 be ff c5 69 bd 96 13 1e 3c
       0.010379111 -0.12910546 -0.05707359 0.009648224
000260 c0 a9 a9 be bc 5a 83 3b 59 34 f8 3b c3 09 b1 bd
       -0.3313732 0.004008619 0.0075745997 -0.0864444
000270 a9 1c 1d 3e c6 b0 63 be 20 95 59 bd cb c5 bd 3b
       0.15342964 -0.22235402 -0.053120732 0.005791401
000280 72 33 93 bc 5a a6 c4 bc b7 4d 89 bc b3 48 6a bc
       -0.017968867 -0.024005104 -0.01676069 -0.014299559
000290 dc c9 64 bc df d9 d9 3c b2 5d ed 3a b1 71 c6 3b
       -0.013964143 0.026593147 0.0018109588 0.0060560335
0002a0 cf db 92 bc c2 a6 1a 3c 64 6c 02 3d be b0 02 3d
       -0.017927079 0.009439172 0.03184165 0.031906836
0002b0 9c 21 8c 3c 3e 2e 85 bc 34 06 bd ba e8 7d cb bc
       0.01710587 -0.016257402 -0.0014421404 -0.02484031
0002c0 20 e9 8c bd 10 ec c7 bd dc 3e a7 bd 7d 30 94 3d
       -0.068804026 -0.09761822 -0.08166286 0.07235811
0002d0 a8 bb ee bd c1 12 dc bb 41 7c 37 3e f3 e3 33 be
       -0.11656886 -0.006716103 0.17918493 -0.17567424
0002e0 0a d5 5a 3d 20 13 9f 3b 77 c0 2a be 9f a2 64 3e
       0.053425826 0.004854575 -0.16674982 0.2232766
0002f0 99 a2 71 3e c9 72 00 bc 91 d3 f6 3d 09 f9 de 3d
       0.23597182 -0.007839867 0.12052072 0.108873434
000300 c5 33 08 bd 0b 13 8c 3c f2 fb 99 3d ca 85 56 bd
       -0.033252496 0.017098924 0.07518758 -0.052373685
000310 00 e9 91 bd 0c b6 c9 bd 7f 16 7e be c0 25 14 3e
       -0.07124519 -0.09849176 -0.24813269 0.14467525
000320 b5 2b 67 3e 8f 30 95 bb 66 b3 15 3e d3 15 71 3e
       0.22575267 -0.004552908 0.14619216 0.23543482
000330 9d 24 3f be 55 a8 4b be 86 a4 82 bc 3e 6c 40 3e
       -0.1866631 -0.19888432 -0.015947592 0.18791291
000340 18 1f 03 be 8a 11 8b 3d 76 70 af be 9c 63 5f bc
       -0.1280483 0.06790455 -0.34265488 -0.013634589
000350 31 f8 38 be 81 4a c9 3d 7e 51 80 bc 54 80 b6 bd
       -0.18063428 0.098286636 -0.015663859 -0.089111954
000360 02 ba 6a be 51 91 d8 3c b0 2c 3e bd 99 17 33 3d
       -0.22922519 0.02643648 -0.046429336 0.043723676
000370 0a bc 80 3d 8f 42 81 be 26 75 78 bd 84 93 1c be
       0.062858656 -0.25246093 -0.060658596 -0.15290648
000380 f3 5c 10 3e cf 17 d4 bb 22 71 60 3c 5e 18 08 bd
       0.14097957 -0.006472565 0.013698848 -0.033226363
000390 6d 6d dc 3d a0 9b ca bc 84 ca 09 3d e3 c3 c8 3d
       0.10763059 -0.02473241 0.0336404 0.098029874
0003a0 88 bb 39 be 75 ae 00 3e 85 fa ac 3d b9 2f b9 3c
       -0.18137944 0.1256655 0.0844622 0.022605764
0003b0 bb 2b 3b 3e 09 93 bf 3b e3 af bf 3c 40 19 bd 3d
       0.182784 0.0058463854 0.023399299 0.09233332
0003c0 4c b6 a2 bd 0c c7 8f 3e b7 38 9b bc 25 44 10 3d
       -0.079449266 0.28081548 -0.018947942 0.035221238
0003d0 60 f0 09 be a5 93 91 bd 01 66 89 bc ed f4 9a 3d
       -0.13470602 -0.07108239 -0.016772272 0.07566247
0003e0 71 fd 39 be 64 eb 46 3d a5 c3 99 3d a7 56 0c bd
       -0.18163086 0.04856433 0.07508019 -0.034262326
0003f0 04 49 53 bd bd 2c 5a bd c5 ff 58 bc 95 eb 5a 3d
       -0.051583305 -0.053265322 -0.013244574 0.053447325

encoder.layers.1.self_attn.out_proj.bias f4 [16]
000000 17 96 fb 3d b1 a2 3c be 50 23 10 3e 66 5a ad bd
       0.12284487 -0.18421437 0.1407597 -0.08464508
000010 74 f1 2f 3d 9a 5b 63 3e 69 ab a6 be 25 ab 27 be
       0.042954877 0.22202912 -0.3255265 -0.1637388
000020 8f f9 ef 3c 88 6b 6e 3e 48 97 42 bc 2b ad 6a be
       0.029293803 0.23283207 -0.011876889 -0.22917621
000030 41 4a 3f 3e 25 ff d5 3d 07 52 bd bd 35 d2 ef 3c
       0.1868067 0.104490556 -0.09244161 0.02927504
