log/20231223_124920/best_recall.pth (torch, 53389 bytes, 38 tensors)

encoder.layers.0.self_attn.in_proj_weight f4 [48, 16]
00000000: b2ac 023e 0920 723e 94e5 19be 529c 213e
00000010: 21d8 333d 6e13 9abe 21cd 0a3e b760 093e
00000020: 619f 90bd 6e9d a3be 480c dcbd 0be4 61be
00000030: 6669 fc3d 55a7 83be 716c e4bd f601 1ebe
00000040: 0a44 453e 29e1 1abe bd4b cb3d 80d6 4bbd
00000050: e4dc 99be 3b0b f53d b686 23be 85db 7c3e
00000060: dc44 773b e023 d43c 603b db3c 44f5 a53d
00000070: d51a 43be 3f61 0bbe cd60 5b3e b249 63be
00000080: 7ee5 03bc 710c 023e d27e a9be e877 55be
00000090: 7260 a2bd 7b2e 22bd 0031 ec3d a42c 723e
000000a0: d007 13be ffb3 513e 774a 6c3e f0d1 83be
000000b0: b229 9dbe f54e 3f3d 6934 85bd c322 f83d
000000c0: cf70 88be 9e83 5c3d d7b7 10bc 85cc 743e
000000d0: aebf 3b3e b16a 3abe ebe9 ca3e 9b2a 393e
000000e0: 5f31 303e 2035 e83d 2dfa c23b 25ea 86be
000000f0: bd69 c63e 720d 0c3c d0e6 9b3d f05c 3bbe
00000100: 88b3 04be 54e7 2abe bbe7 583e f31a 4b3e
00000110: b589 d8bd fef7 3e3c 9f2a 6abe cdd4 873e
00000120: 4276 ecbd f7fc 7abc 2468 4b3c fa50 6fbe
00000130: 7a17 65be bb26 8e3e c517 863e 9869 9cbe
00000140: d6f3 58be 41a7 57be 9606 993e 57e9 423d
00000150: 1692 cfbc 2e9f bc3e 0dd1 d1bc 7336 77bc
00000160: f3d5 443e 4119 37be 4234 1d3e 2bd0 1fbe
00000170: edb6 b13e 26cd 7bbe c0cb a5bd c0be 9f3e
00000180: 045b 0c3e 1c0b 273d 8c2e c8bd 47d1 17be
00000190: b737 d33d 2d80 493e f385 e3bd 98f4 9f3d
000001a0: 30da 353e cf34 943e 45c4 3bbe cd15 b3bb
000001b0: 9a59 4ebe bdd1 b03e 0163 873e 783d 53bd
000001c0: 70c3 1dbe dcc0 89bc 6c57 7abd c0b4 37be
000001d0: fc73 0bbe 15ae 5c3e 1c57 93be 3eda 283d
000001e0: 3c3b 2cbd 0878 ddba c391 9abb fe64 14be
000001f0: 3ed6 e6bd c3d4 a5bd bc89 ba3d 30e5 5fbe
00000200: 06f5 24be 1609 61be 2e3f 2e3e 4bef 00be
00000210: e75e 88be e2ee d63d 7803 8dbc e891 ad3d
00000220: 258f 4b3c 350f 9dbe 91ad 87be db37 dc3d
00000230: b151 debd f747 18be a7bb 39be 444f 93be
00000240: bee1 073e 4826 523d 6401 27be 06a0 533d
00000250: 1c92 533d d8de 2b3e 58a1 913e 12fd 0c3e
00000260: 2d00 813b e0db be3d 20d6 ba3c 789a e93b
00000270: fded 56be 1bc2 30be 3b09 2c3e 2dcc 543d
00000280: 0129 533e f037 9e3e 6c86 13be b84a 9b3e
00000290: 5ed2 0a3e 61ee 7d3d f3ec 14be 99fa 9f3e
000002a0: 0876 92bd 8aa1 f5bd 9c82 633e 75cc d3bd
000002b0: 0b93 f6bd cf99 00bd 87ab 823c 47aa ba3c
000002c0: 7909 b1bc bd85 bd3e feba 56bd 9de8 2a3d
000002d0: 8246 fdbc 24ef ef3d cace 9b3e 9e01 4f3d
000002e0: f965 06be 6697 953e 6587 8e3e 920c b43c
000002f0: d73e 863d ab8c 9e3e 10c5 1a3c 08af 593e
00000300: d718 803e 1007 c6bd 6876 3b3e 8c11 5e3e
00000310: 85f2 6dbe 700a c9bd 0f66 26be bdc4 4c3e
00000320: 89c6 66bc fe8e 03be ff27 073f eb67 29bd
00000330: ef68 fb3d 40e6 07be 61c9 213e 995e 223e
00000340: 2c59 993d 6083 82be cee6 62be f257 89be
00000350: 5bad 843e 054e b63c 527a 9c3c a616 7abe
00000360: 7a6b a53e 10f9 8bbe 5dde d7bd 82e6 3abe
00000370: 0a60 66bd 3ffe 8ebe 7061 913d f57b 76bd
00000380: 04a6 1bbe 987e 7bbc 9bca ba3c bd21 e4bd
00000390: a5dc 4b3e 15c5 023e 3b9c 75be ed87 9c3e
000003a0: da65 36bd 44d6 633d fd59 873e ad32 55be
000003b0: 419c 973e b528 b23d ffa0 ca3b 0d09 58bd
000003c0: c31c 6dbd 489b 1b3e c102 b83e 218e 4a3d
000003d0: 2f7e c53d f7fb 453e 1396 d43e f636 02be
000003e0: 80c1 b73e 46af 093e 5797 e7bc c88a 533c
000003f0: a19e 9e3e 4873 30be 6d9f 26be 6dc4 5c3e
0.1276119 0.23645033 -0.15028983 0.15782288 0.04390729 -0.3009295 0.13554813 0.134158
-0.07061649 -0.31956047 -0.1074453 -0.22059648 0.12324791 -0.25713602 -0.11153496 -0.15430436
0.19264236 -0.15124954 0.09926555 -0.04976511 -0.3005134 0.11965033 -0.15969357 0.24693115
0.0037730252 0.025896013 0.02676171 0.08103421 -0.19053204 -0.13611315 0.21423645 -0.22196081
-0.008050321 0.12700059 -0.3310457 -0.20846522 -0.07928552 -0.03959511 0.115327835 0.23649842
-0.14358449 0.2047882 0.23075281 -0.25746107 -0.30695873 0.04670616 -0.06504137 0.12116005
-0.26648566 0.053836457 -0.008832893 0.23906143 0.18334839 -0.18204762 0.3963159 0.18082659
0.17206334 0.11338258 0.0059502334 -0.26350513 0.38752547 0.0085481275 0.07612383 -0.18297172
-0.1295911 -0.16689807 0.21182148 0.19834499 -0.105731405 0.011655806 -0.22867821 0.26529542
-0.115459934 -0.015319101 0.012414966 -0.23370734 -0.22372237 0.27763924 0.2619001 -0.30549312
-0.21186766 -0.21059896 0.29887837 0.04758581 -0.025338214 0.36840194 -0.025612378 -0.015088665
0.1922224 -0.17880727 0.15351966 -0.15606754 0.34709874 -0.24589977 -0.08095503 0.31200218
0.13706595 0.04078208 -0.09774503 -0.14825927 0.10313361 0.19677801 -0.11109533 0.078103244
0.17759013 0.2894654 -0.1833659 -0.0054652453 -0.20151368 0.34535018 0.2644272 -0.051572293
-0.15406585 -0.016815595 -0.06111853 -0.17940044 -0.13618463 0.21550782 -0.28777397 0.041223757
-0.042048678 -0.0016896734 -0.004717083 -0.1449165 -0.11271332 -0.08097222 0.09108302 -0.21864772
-0.16109094 -0.21976122 0.17016289 -0.12591283 -0.26634905 0.10494782 -0.017213568 0.08475095
0.012424265 -0.30675665 -0.26499608 0.10752841 -0.10855425 -0.14871202 -0.1813799 -0.28771412
0.13269708 0.05130604 -0.16309124 0.051666282 0.051653013 0.16784227 0.28443408 0.13768414
0.0039367885 0.093192816 0.02280718 0.00712901 -0.20989223 -0.17261545 0.16800396 0.05195253
0.2062111 0.30902052 -0.14406747 0.30330443 0.13556811 0.061994914 -0.14543514 0.31245878
-0.07151419 -0.11993702 0.22217792 -0.103417315 -0.12039765 -0.031396683 0.015950931 0.022786273
-0.021610962 0.37016097 -0.052424423 0.041725744 -0.03091741 0.11715534 0.30431205 0.05053865
-0.13124837 0.2921707 0.27837673 0.02197865 0.065549545 0.30966696 0.009446397 0.21258175
0.2501895 -0.09669316 0.18306887 0.21686381 -0.23237045 -0.09816444 -0.1624987 0.19996925
-0.01408542 -0.12847516 0.52795404 -0.04135887 0.12275874 -0.13271427 0.15799476 0.15856399
0.07487711 -0.25490856 -0.22158358 -0.2682491 0.2591351 0.022254 0.019101296 -0.24422702
0.3230856 -0.27338457 -0.10540459 -0.18251994 -0.056243934 -0.2792835 0.07098663 -0.06017681
-0.15200049 -0.0153500065 0.022801688 -0.111392476 0.19908388 0.12770493 -0.23985378 0.30572453
-0.044530727 0.05562426 0.26435843 -0.20820113 0.296114 0.086991705 0.006183743 -0.052743006
-0.057888757 0.15195954 0.359396 0.04945195 0.09643208 0.19334398 0.41520748 -0.12716278
0.35889816 0.13445768 -0.028270407 0.012911506 0.309804 -0.17231476 -0.16271754 0.21559305

encoder.layers.0.self_attn.in_proj_bias f4 [48]
00000000: 8b8c d2bd 6e63 80bb 8cfe c8bc 03f6 013d
00000010: 7d8b 1abd 2200 953d e069 bf3c 36e5 3bbd
00000020: 1e02 05be 20aa cabc 7e60 a139 cc1e 6c3d
00000030: 83f5 ad3d 443d 8fbd c2fd 883d c0ef 8d3d
00000040: c0e3 4f3a 8f5e 27bb 4db0 193b fa23 193b
00000050: 4f6c d439 2faa 883a 33e2 e738 666d db39
00000060: 3707 65ba 1c7c 2b3a f91a 483a caa6 923a
00000070: 01bd 79ba 0403 18bc 3636 753b 604a 96bb
00000080: ae2d d0bc bc3b d8bd 0547 9a3d 7c5c c13c
00000090: c4dd 1a3e 4004 4ab6 b0d1 8abb 11d9 71bd
000000a0: ab0f 793c fad3 2d3d 290f 353c b05e 31bd
000000b0: 2ce0 b9bb 4421 553c 4eb5 363c deb8 5e3d
-0.10280713 -0.003918103 -0.02453544 0.031728756 -0.037730683 0.07275416 0.023365915 -0.04587289
-0.12989089 -0.024739325 0.00030780205 0.057646558 0.08494093 -0.06994107 0.066890255 0.06930494
0.0007930361 -0.002553854 0.002345103 0.002336739 0.00040516487 0.0010426695 0.00011057071 0.00041852443
-0.0008736732 0.0006541626 0.0007633414 0.0011188623 -0.000952676 -0.009278063 0.0037416345 -0.004586503
-0.025412407 -0.105582684 0.07533077 0.02360367 0.1512366 -3.010282e-06 -0.0042364225 -0.0590449
0.015201489 0.042438485 0.011050978 -0.04330319 -0.0056724753 0.013008419 0.011151625 0.05437552

encoder.layers.0.self_attn.out_proj.weight f4 [16, 16]
00000000: e663 31be 2e4d 6fbc 5194 e53d 2544 2abe
00000010: e3a9 5bbe dde8 26be 79e8 d9bd ef73 02bc
00000020: 494b 2e3e 97d7 66bd 0aa4 643e df65 563e
00000030: 381b 3f3e 960f bfbc 3ba0 113d 7387 a8bd
00000040: 6245 9b3b 8a4c 22bd 9809 b13d 7f7c 093e
00000050: d9c7 edbd ae0f b13d e9f1 eebd ceca 94bd
00000060: 4839 f9bd 8344 433e fb7e 58be 8f4f 343e
00000070: 7e06 23be c54e 9a3d ab31 183e c211 833d
00000080: 59b0 4c3d 7cee 3bbe 4f7c ea3d e02f bfbd
00000090: 78ab 09be 6f68 92bd 7d76 bdbe 2422 8d3e
000000a0: c042 323e 059c 00bd 1c65 95bd c2ab b13b
000000b0: 8f94 5bbc 801f 16be 4ca7 89bc ca2c 3c3d
000000c0: 4637 26bd 384f 753d 8e06 533e bbba 5d3d
000000d0: 5d0d 153e 2821 a53c b092 c43d 3244 bfbd
000000e0: 1542 1b3e 3fe7 0f3d fbaa c03d 2547 15bc
000000f0: 1a56 153e 81a8 283e 21cf cbbd ebe8 4e3e
00000100: 9e61 3e3e 6eca 353e 52cc edbd caea 22be
00000110: ba56 f53b ffb6 123d 3665 fd3d 9aec c53d
00000120: 1711 2bbd 9ed8 84bd b6b0 943d b7ed f4bd
00000130: d0ff 913e 736b 93be 2ca5 66be ab31 09be
00000140: 2841 2fbc 290d 14bc 411e 223d f745 7cbe
00000150: b833 093e 1e89 eb3d 9806 5fbe 6d2e bdbd
00000160: 360c 6fbd d0d6 babd c668 b7bd 5add 57bd
00000170: a664 bcbb ff04 d0bd 6526 f1bc bc07 1bbe
00000180: b3fe a3bd 7fdd ef3c 4b5b b2bc d4b5 0dbe
00000190: 2f82 98be 06b6 b9bd 6325 c2bc d638 1cbe
000001a0: 2591 103e e82b cbbc be3c c8be 689c 12be
000001b0: 33b4 813d deac 4d3e bf3e b4bb e42c a9bc
000001c0: 0493 b23d 386a e0bd e490 a9be dcef 58be
000001d0: 72aa 0bbd 5efd 253e 06a3 623e 0d71 4a3d
000001e0: 178e 8f3e 80f3 823c d53a b6bc a09d 2bbd
000001f0: 9cb4 62bd 661c 4f3e 9ede 11bd 0f0e cebd
00000200: f8ef dbbc bbdd 04bd 9218 893e 5a24 b83d
00000210: 0e3d a33d 8722 f1bd d4dc 383e 64e3 5ebe
00000220: 9d43 163d ee2e 4ebe d7a0 cabb 2a1e 993d
00000230: fab5 d63d 539e cebd e9e5 b9bd 0927 31bd
00000240: 93ca aa3d 6484 723e b4fb 7ebd 9ca4 183e
00000250: 7e10 6bbe 704a 49ba 2b44 2abe c741 66bc
00000260: bbad 43be 98ec 6c3e c598 bb3d 3ebb 1dbc
00000270: 48d0 c5bc e804 01be 4910 073d 87fb 3fbe
00000280: 50e5 9bbd 2e28 33bd f4dd dfbd 3050 babd
00000290: a9a2 773e 466d 31be 50ed 133d 9c27 003e
000002a0: 0a68 903e ba4c 46bd 7284 e43d 04c1 8abe
000002b0: ddde 06be c363 413d 6dd9 1d3e da34 393d
000002c0: d33f 9e3d b916 b9bd 63b8 e9bd 1a5f 7e3d
000002d0: 1e9d f33d 737f 72bd ac91 703e 6c9d 9bbd
000002e0: 5373 2dbd 7c8a 62bd 9707 d03d 9111 03be
000002f0: af62 d73d 3e88 453d 66f2 963d a29d bc3c
00000300: b5fa 573e c9eb 1bbd 39c3 383e 77d6 6abc
00000310: e245 a73d 3770 ffbc c978 3bbe 0d91 9dbd
00000320: 2da5 083e 6d1d 6dbd 1b52 3dbe baa8 03be
00000330: 0693 acbd 4042 e7bd 1a6f 79be b828 15bd
00000340: 8527 913d 90ae 243e 3ecd 87be 9f93 d3bc
00000350: 2404 1bbd 6d1e 193e 6e29 cf3c ef4e ef3d
00000360: 33db a3bd cee2 8c3e 4ed9 20be 59fd 763d
00000370: ed88 88bd ceb1 cdbd 33ff 47bd bace d13d
00000380: e849 e73b 71fe b8bd f4b2 583e 15c0 14be
00000390: fee6 67be d243 1c3e e2a3 eb3d 8a00 0cbe
000003a0: 7d7c 38be 5e88 d7bd 62be 193e df90 bebd
000003b0: 988d 483e 15b3 70be 6b4a 053e 1d9c 0ebd
000003c0: 025c 47be baa0 713e 1b29 84bd a29a 593e
000003d0: 44f3 c5bd 3e1d 2bbe 01c5 0b3e d57b 9dbd
000003e0: 932c aabc bc44 083e 61e5 a83e b472 9a3d
000003f0: 3941 13be 7560 e1bd 07aa 083d f27e aa3e
-0.17323264 -0.014605803 0.1120993 -0.16627558 -0.21451525 -0.16299768 -0.10640044 -0.007962211
0.17020907 -0.056357946 0.22328201 0.20937298 0.18662727 -0.023322862 0.0355532 -0.0822896
0.0047384957 -0.039623775 0.08644408 0.13426398 -0.116103835 0.08645569 -0.116672345 -0.072652444
-0.12169129 0.19069104 -0.21142189 0.17608474 -0.15920445 0.07534555 0.14862697 0.063998714
0.049972866 -0.18352693 0.11449491 -0.09335303 -0.13444316 -0.071488254 -0.37004462 0.2756511
0.17408276 -0.03139879 -0.07294676 0.0054220865 -0.013402118 -0.14660454 -0.016803406 0.04594115
-0.040580057 0.059890002 0.20607969 0.05413316 0.14555879 0.020157412 0.09598291 -0.09339179
0.15161927 0.035132643 0.09407612 -0.0091112 0.14583626 0.16470529 -0.09951616 0.20206039
0.18591926 0.17753002 -0.11611237 -0.15909877 0.0074871453 0.03581905 0.1237282 0.09664269
-0.041764345 -0.06486629 0.072602674 -0.11959403 0.28515482 -0.28792915 -0.22523946 -0.13397853
-0.010696687 -0.009036341 0.039579634 -0.24636064 0.13398635 0.115007624 -0.21779859 -0.09237371
-0.058361255 -0.091230035 -0.08955531 -0.05270133 -0.005749303 -0.10157203 -0.029437253 -0.15139669
-0.080075644 0.029280422 -0.021772048 -0.13838893 -0.29786822 -0.09067921 -0.023699468 -0.15256056
0.14117868 -0.02480121 -0.39108843 -0.14317477 0.063331984 0.20085475 -0.005500644 -0.020651288
0.08719447 -0.109577596 -0.33118355 -0.21185249 -0.034098096 0.16209933 0.22132501 0.04942422
0.28038093 0.01598525 -0.02224485 -0.04189837 -0.055348024 0.20225677 -0.035612695 -0.10061275
-0.026847824 -0.03243802 0.26776558 0.089913085 0.0797063 -0.11774164 0.18052989 -0.2176643
0.036685575 -0.2013509 -0.0061837244 0.074764565 0.10483928 -0.10088792 -0.09077055 -0.043250117
0.08339419 0.23683316 -0.06225176 0.14906543 -0.2295551 -0.00076786336 -0.16627567 -0.0140537685
-0.19109242 0.23137128 0.09159998 -0.009627162 -0.024147168 -0.12599528 0.032974515 -0.18748294
-0.07612097 -0.04373949 -0.10931006 -0.09097326 0.24183144 -0.17326841 0.03611499 0.1251511
0.28204376 -0.048413016 0.111580744 -0.27100384 -0.13170953 0.04721428 0.15414973 0.04521642
0.07727017 -0.09037537 -0.11412122 0.062102415 0.11895202 -0.059203576 0.2349307 -0.07598385
-0.04234631 -0.05530785 0.10157698 -0.1279967 0.10516869 0.048225634 0.073704526 0.023024384
0.21091731 -0.03806666 0.18043222 -0.014333359 0.08167626 -0.031181438 -0.18307795 -0.07693682
0.1334426 -0.05788939 -0.18488352 -0.12857333 -0.0842648 -0.11291933 -0.24358788 -0.036415786
0.07087616 0.16082215 -0.26523775 -0.025827227 -0.037845746 0.14953013 0.02528831 0.11684977
-0.08000793 0.27516788 -0.15707895 0.060300205 -0.066667415 -0.10043679 -0.04882736 0.10244508
0.007058371 -0.09032906 0.21162015 -0.14526398 -0.2264671 0.15260246 0.115058675 -0.1367208
-0.18016239 -0.10524057 0.15014032 -0.09304976 0.19585264 -0.23505814 0.1301667 -0.03481685
-0.19468692 0.23596469 -0.06453153 0.21250394 -0.0966554 -0.16710374 0.1364937 -0.07689635
-0.020773208 0.1330747 0.32987502 0.07541409 -0.14380349 -0.11004726 0.033365276 0.33299977

encoder.layers.0.self_attn.out_proj.bias f4 [16]
00000000: 78af f53d 4287 493d 2e17 33bd 7f11 2bbd
00000010: ad44 c43d 3ecf 0d3d 2d8a 423e bb3a 37bd
00000020: e70d 653c 2d6b e53d cd3f 173b 04ec eabd
00000030: b617 043e e419 9fbd 2909 f6bc b759 c5bd
0.11996359 0.049201258 -0.043723278 -0.041764732 0.09583411 0.03462147 0.18998022 -0.044733744
0.013980365 0.11202083 0.00230788 -0.11470798 0.1289967 -0.0776861 -0.030033665 -0.096362524

encoder.layers.0.linear1.weight f4 [64, 16]
00000000: e88f 57bd 66fe 573e bb84 7b3d 364b b33c
00000010: f8d9 9738 09fc 3a3e d6ba 343e f9d3 973e
00000020: 0f11 43bd 85d1 0b3e 8472 b5be 73f4 453d
00000030: 8b0e a03d 904e aa3e 347f 393d 9072 053e
00000040: a787 33be 7073 0dbe 57c9 243d b955 3e3d
00000050: 2117 163e 70ad de3d 9d17 96bd 932d a4bd
00000060: 93ea 3cbd fd47 68bd fc00 94be 91ad 013d
00000070: c273 c5bd 11e4 763e 37f9 003c 84fa bebd
00000080: 0196 1a3d 5a07 d03e bec1 fc3d b7c6 2b3e
00000090: f0cd 093e 169f cebc 0106 be3d e4e1 1bbd
000000a0: 04eb 3f3e 8f7d 21be 9209 0c3e ef26 bb3d
000000b0: b2b4 b9be 1e72 a9bd c567 063e 9fd2 94bb
000000c0: 7236 edbd 69b9 683d 1a39 6c3e fbff 8bbd
000000d0: c495 7bbe a649 8fbe 07e4 78be 3e7e d03d
000000e0: aa03 4cbd 5dc3 8d3d 299f 58bd a31c 99be
000000f0: acb5 123d a9dc 81bd cd6c a03d c7ee 973e
00000100: c3a7 34bd cf76 08be a1f4 2b3e c9ff 94bd
00000110: 3596 98be b5e4 cb3c 37e7 80bd f7e1 583e
00000120: fe11 593d 055e 513d 80ad 073e b261 9b3a
00000130: a74b 673d 9705 a5bd 0d35 05be 604c f7bd
00000140: a26a cd3d 621d 313e 3180 97bd 9587 4dbe
00000150: 48b9 b33d efb6 e4bb 7ada 213e 9418 1b3e
00000160: a626 0c3d e326 cabd f1eb 2dbe 320c 1abe
00000170: a378 30be 1eaf 3fbe fb0f 62be 829a 4f3d
00000180: c640 453e 2cd6 df3d 4037 aabd c25c 1abe
00000190: 7bcf 44bd 9aec 2fbe e480 8a3d 256b a43d
000001a0: 14aa e0bd 6d36 1a3d 8c1e 6e3e c692 353e
000001b0: 2e85 51be 56dd 95bd 1965 2e3d aa1f 073e
000001c0: 48a1 5e3e e6e4 72be ea0d 0e3d a068 a5bd
000001d0: 4a1a d6bc bc6b 023e bd74 0e3e 1291 4abe
000001e0: 2c94 4a3e 1a54 00be 5c9d 813d c961 d93d
000001f0: a658 88bc 7de6 893e 3646 9c3d 2c60 8a3d
00000200: b41d e23d d34f 64bd c077 92bd 7932 4ebe
00000210: a7d0 0fbe a09d 4fbb f9cc 1fbe 747f c13b
00000220: 53fc 4a3e 39ca 2abc de5c af3e 8e8f 413e
00000230: b25a bdbe ee3f aa3e c2ca 29be 8a2c eb3c
00000240: ef36 27be 33c1 9f3d dc4b f0bd 433d a33c
00000250: e1b7 743e a049 38be 2ee3 51bd ddf8 2e3e
00000260: 8f1a 693e 5314 923e 613c 173e 7834 3b3d
00000270: 3196 87be 5bb7 cdbd 1b8d 38be 053f 873c
00000280: 2f91 42bd 1ad7 0ebe d839 88bd f434 f1bd
00000290: 8ff4 8e3d 55be f73d f57e 913e 6426 5ebd
000002a0: 95b1 b43d 27e7 943d 0a41 fa3b fcde 113e
000002b0: 4284 bbbc 2557 86be f16d 9abd 5f0d a53d
000002c0: 670d 1fbe e6b8 203e 822a acbd 1fba 283e
000002d0: 2ef5 32be 4b3b 97bd b212 6ebe 3274 103e
000002e0: 4f1b 8abe a9bf 7d3b 2586 4fbd 6c3a ad3d
000002f0: 1364 a4bd b8f0 85bd d0c2 563d baac e1bd
00000300: 9fd9 e2bd fdb1 6cbd facc 233e 990b 53be
00000310: ab1b bb3d ffaf db3c 36c2 793d 49e5 9c3d
00000320: 9ac8 20ba d57a 15be be2c 42be 37ee 103e
00000330: 4577 0a3e 5cfb 553e f86b 2cbe f4f9 3c3d
00000340: 9a72 d6bd 4f66 dabc 3fa5 c53d e67e dfbd
00000350: 1f34 4dbd 1553 e33d 2e49 44bd 563e 823d
00000360: f284 fabd d110 873d 5dec 93be 5428 3abe
00000370: 486d 5ebe ac33 1ebd 6ebf 5b3e 09c7 b3be
00000380: 7b05 49be f0f6 32bd 0639 093e f2b0 413e
00000390: 3259 d93b aecb 64be 8abb 293a 7e1f 1a3c
000003a0: 81e1 e7bd ad2d 2b3e a1ae e5bc 8644 103d
000003b0: 4307 fe3d 1eaf c83e 2a93 0abd 18c4 203e
000003c0: d6d6 c6bd 4bdc 22bd a4a8 e4bc a676 553d
000003d0: 5f90 1abb 552d 18be 17e3 a53d dbe1 f03d
000003e0: e36e bc3c 8e7c 4e3e 3e8d 1a3f d53a 693d
000003f0: 05ef bd3d d0ab 1f3e efdb 023e 04da 933d
-0.052627474 0.21093139 0.06140588 0.02188645 7.240841e-05 0.18260206 0.17649397 0.2965391
-0.04762369 0.13654144 -0.3543893 0.048328828 0.07815274 0.33263063 0.045287326 0.13031983
-0.17532216 -0.13813567 0.040231075 0.04646847 0.1465726 0.10872924 -0.073287226 -0.08016505
-0.046122145 -0.05670928 -0.28907 0.031659666 -0.0964122 0.24110438 0.007871917 -0.09325126
0.03774071 0.4063061 0.12341641 0.16775022 0.13457465 -0.025222342 0.09278489 -0.038057223
0.18741995 -0.15770553 0.13675526 0.09138285 -0.36270672 -0.08273719 0.13125522 -0.0045417096
-0.1158265 0.056817446 0.23068658 -0.06835934 -0.2456885 -0.27985877 -0.24305736 0.10180329
-0.04980818 0.06922028 -0.052886162 -0.2990466 0.035817787 -0.06340916 0.07833252 0.2967436
-0.044105303 -0.13326572 0.16792537 -0.0727535 -0.298021 0.02488933 -0.06294101 0.21179949
0.052995674 0.051115055 0.13249779 0.0011854677 0.056468632 -0.08057707 -0.13008519 -0.12075114
0.10030104 0.17296365 -0.073974974 -0.20071252 0.08775574 -0.006979815 0.15805998 0.15146095
0.034216546 -0.09870698 -0.16984536 -0.15043715 -0.1723352 -0.18719146 -0.22076409 0.05068446
0.1926299 0.10929522 -0.08311319 -0.15074447 -0.04804943 -0.171801 0.06762865 0.08028249
-0.1096994 0.03764956 0.2325384 0.17731771 -0.2046096 -0.07317607 0.042576883 0.13195673
0.21741211 -0.2372013 0.03468124 -0.08076596 -0.026135582 0.1273641 0.1391172 -0.19781902
0.19783086 -0.12532082 0.06328842 0.10614354 -0.016643833 0.2693366 0.07630579 0.067566246
0.11040822 -0.05574019 -0.07151747 -0.20136441 -0.14044438 -0.0031679645 -0.15605535 0.005905086
0.19822817 -0.01042419 0.3425054 0.18902418 -0.36983258 0.332519 -0.16581252 0.028707761
-0.16329549 0.07800522 -0.11733219 0.019926673 0.23898269 -0.17996836 -0.051242046 0.17087121
0.22764038 0.2853113 0.14769126 0.045704335 -0.26481774 -0.10044738 -0.18022577 0.016509542
-0.04750174 -0.13949242 -0.06651658 -0.11777678 0.069802396 0.1209685 0.28417173 -0.05423583
0.088229336 0.07270651 0.007637148 0.14245218 -0.022890214 -0.2623836 -0.07540501 0.08059191
-0.15532456 0.15695533 -0.08406545 0.1647725 -0.17476341 -0.07384356 -0.23249319 0.14106825
-0.2697396 0.0038718975 -0.05066504 0.08458409 -0.080269 -0.06540054 0.05243188 -0.11019273
-0.11076664 -0.05778693 0.15996161 -0.20609893 0.091361366 0.02681732 0.06097623 0.0766092
-0.00061334076 -0.14597638 -0.1896238 0.14153372 0.1352206 0.20896667 -0.16838062 0.04613681
-0.10471077 -0.026660113 0.09650659 -0.10912876 -0.050098535 0.11099831 -0.047921352 0.06359546
-0.122323886 0.06595004 -0.28891268 -0.18179446 -0.21721375 -0.038623497 0.21459743 -0.3511279
-0.19630997 -0.04369253 0.13400659 0.18915156 0.0066329474 -0.22343323 0.0006474784 0.009406922
-0.11322308 0.16716643 -0.028037371 0.0352216 0.12403729 0.39196104 -0.033831753 0.15699804
-0.097089455 -0.03976087 -0.027912445 0.052115105 -0.0023584587 -0.14861043 0.080999546 0.117618285
0.023002094 0.20164701 0.6037177 0.056940872 0.09274105 0.15592885 0.1277921 0.072193176

encoder.layers.0.linear1.bias f4 [64]
00000000: 1f53 223e 951c 6abe df35 4cbe 2ffc 853d
00000010: 627b 89be 8fe1 c0be deae 89be 5cdc 17be
00000020: 2b3a 97be 7a63 c0bd 7e43 90be 619e 963d
00000030: fe30 113e 0c43 7f3d ed3a 3ebc dd60 1a3e
00000040: 81ca afbe ab27 1fbe 9152 0ebd 11ba 17be
00000050: 5302 fcbd 35ce f4bd 6ef1 c63c 4bb0 24be
00000060: 862c 03bd 7bec 35bd 64cb 5b3d e187 abbe
00000070: 8064 13be b04d 93be 4946 84bd 9d20 2e3e
00000080: f2d0 a83d ec17 94be 7f73 88bc 669e 39be
00000090: 4a70 bbbd 3de9 2ebe 824b 3c3d e0eb 1ebc
000000a0: 38b7 203d a61e 35be d1cb f9bd 5467 873d
000000b0: 5845 00bd 7226 41bd d1a4 54be cbfa 4cbe
000000c0: c6e9 843c d1c9 023c 5883 be3d b406 9a3d
000000d0: f9b7 4bbd 2c33 a1be 68f2 7cbe ce8d a1bd
000000e0: 2d11 cebe 9286 08be 82f2 60be 3017 15be
000000f0: 7d66 52be c0bb 89be e2b8 b2be 0633 5ebe
0.1585202 -0.22862466 -0.19942425 0.06542241 -0.26851946 -0.37672088 -0.26891226 -0.14830154
-0.29536566 -0.09393974 -0.28176492 0.07354427 0.14178845 0.0623198 -0.011610729 0.15076013
-0.34334186 -0.15542476 -0.03474671 -0.14817072 -0.12305131 -0.11953393 0.024285045 -0.16082875
-0.032024883 -0.04441498 0.053660765 -0.33502105 -0.14393806 -0.28770208 -0.06458718 0.17004628
0.08242978 -0.289245 -0.016656635 -0.1812683 -0.09152277 -0.17081161 0.045970447 -0.009699792
0.03923723 -0.17687473 -0.12197078 0.06611505 -0.03131613 -0.047155805 -0.20765997 -0.20017545
0.016224753 0.007982687 0.093023956 0.0752081 -0.049735997 -0.31484354 -0.24701846 -0.07888375
-0.4024748 -0.13332585 -0.2196751 -0.14559627 -0.20546909 -0.26901054 -0.3490668 -0.21699151

encoder.layers.0.linear2.weight f4 [16, 64]
00000000: c575 943c 2cc7 5abd 2394 92bd df59 c43d
00000010: 329f 13bd 5d3c 573d 48b8 8abc 4ea5 823c
00000020: 787a 94bc 2db9 3f3e 6053 8e3d f486 acbd
00000030: 6314 4abd 7a20 e43d 2fe9 45bd 249f 94bc
00000040: 8e91 0e3e 0d65 683d 317e 1e3e 2347 34bd
00000050: 4ce6 e23c 4df7 fdbd 7306 553e acf3 10be
00000060: 0332 82bc 52fd 98bd 52d7 53be ee40 10be
00000070: 19e2 87bd 21b6 6b3c 3de6 d03c 8786 2ebb
00000080: 542f 523d a9e3 c83c 2f49 ecbd d133 babd
00000090: 42e1 9dbd 4671 25be 1a5e 253d 821b 9d3d
000000a0: a759 123e 6a0a f33d 5360 2dbe 78a1 f0bc
000000b0: 2933 46bd db1d 4c3e 83b9 f1bd f21d e93d
000000c0: 272d 963d 0dc4 c93d ec18 8ebd f60b 36be
000000d0: 8701 03be 0a96 a83d b7fa 523d 25ac 1bbe
000000e0: 59e5 ee3d 5116 763d 33ae 8b3d c987 cd3d
000000f0: f785 183e 3800 0cbc 021d 293d f456 6cbc
00000100: d127 78bd 3844 cf3d c0c1 2a3d b338 a03d
00000110: 427c f1bc f645 7cbc 7288 613d 74a0 a7bc
00000120: 4c6e 2fbc c306 3f3e 424b 08be 01fd 403d
00000130: 8e38 c0bd cbae 59bd fc58 b1bc 0604 103c
00000140: 5867 1b3b 9ecf 52bd ce48 15bd b46d a0bd
00000150: 247c 17be 87f6 263e 6055 4e3d 0ff7 4c3d
00000160: c91a 9f3c 84e1 20be ee78 943e 0b86 8d3b
00000170: c152 a73d d0e1 ffbc 3144 90bd fbf0 23bd
00000180: 5263 b13d 9a46 5bbd 5af4 00be 79c4 34bd
00000190: 7117 a73c 1014 5dbd bf67 d03d 511c 253e
000001a0: cbc3 803d 2768 44be 43d6 bdbd b559 a0bd
000001b0: f365 683e 84bc 02be 7ca0 4639 b38f 7a3d
000001c0: 1cf3 01be 87d9 813d 7c0b 203e b630 04be
000001d0: 62cc fcbc 4db2 7abd fc84 b53d 4523 d1bd
000001e0: ee70 013e 5e6f 3dbc 1e20 17bc 3b68 013e
000001f0: 8088 5cbd 7520 c8bc a476 41be ab6d 013e
00000200: 8155 563d 3ad0 bcbc 9b56 1fbc 0865 debd
00000210: 5418 223e b35a ec3d e9a4 4d3d b6fe 96bd
00000220: 917f 8a3c decd 83bb 05af 6d3d 1c78 17bd
00000230: 89fb 32bd 008f c13c cf78 0b3e 3425 9bbd
00000240: f297 4f3d cb4d 87bc 0add 8bbd b31f 44bd
00000250: 0621 7c3d 77f0 a33d 7aab 3a3e 0310 22bd
00000260: 0220 0b3c 1ad5 1fbd 7b11 2dbd 493f 1c3d
00000270: 4fde 6abd f282 18bd 39e4 fcbd c114 9cbe
00000280: 55ad 483d 72f1 14be 332e afbd b78a ddbc
00000290: eac9 a1bd 5470 b53d b8ed 3ebe fce3 b33d
000002a0: bdea 5c3d afb2 56be 9a7b a63b d3f9 46be
000002b0: cfc5 8fbe 9fcb 243c 0cce 6abc 8a25 01be
000002c0: c125 63be 9256 c0bd ebe0 95bd 99f5 7c3c
000002d0: 7f90 1f3c 311c 9f3c 4105 07be 90fb ddbd
000002e0: dc09 1b3d 6e02 c83d 0089 98bd 3761 183e
000002f0: ce1e b9bb 6cbc f8bd d835 95bc 3797 4b3c
00000300: ee8d a8ba e400 053d 8bbe b2bd 1ae5 58be
00000310: d3db c8ba a51d 86bd bfc6 cfbc 69b6 84bc
00000320: 9215 493d b561 ba3d 0581 973d dc97 ecbd
00000330: 8dc5 473d 540d 003e dc4a 163e b6a1 51bc
00000340: 1835 433d 68e8 e93d 22ad c83d 8356 053d
00000350: 2aff c03d 25a2 f5bd 6411 2ebd 155c a53d
00000360: 1ee3 293c 1ea4 fa3d a7b0 0dbd c0e7 ba3a
00000370: e27f 883c 89c0 583d 5698 e23c 8070 3dbd
00000380: 0e93 5639 23dc 853d 05a8 fcbd 02ed 983d
00000390: 9105 8d3d b4eb e6bd efa2 853e ce5d f13d
000003a0: 5fd3 c33d 59a7 4c3d 1bb2 f53b 44eb 293d
000003b0: 3c6d 463e 6352 763d 3159 1fbe f40a 293d
000003c0: 5358 6ebe bfcb 10be daaa 293e 80e8 3f3e
000003d0: 5528 9d3d ef79 04be b33e 3abe 22a1 943e
000003e0: 14c3 ff3c b570 9cbd 5672 acbd 3dd9 a93d
000003f0: 8a71 22bb 2551 4ebd 8ef2 6dbd 1601 0c3d
0.018122563 -0.0534126 -0.07157161 0.09587454 -0.036040492 0.0525478 -0.016933575 0.015947964
-0.018124804 0.18722983 0.06949496 -0.08424178 -0.04933585 0.11139007 -0.048318084 -0.01814229
0.13922712 0.056736995 0.15477826 -0.044013154 0.027697705 -0.124006845 0.20803241 -0.14155453
-0.015892988 -0.07470192 -0.20687607 -0.14087269 -0.066349216 0.014386685 0.025500411 -0.0026630478
0.051314667 0.02452262 -0.11537396 -0.090919144 -0.0770898 -0.16156492 0.040372945 0.07671262
0.14292012 0.11867221 -0.16931276 -0.02937387 -0.048388634 0.19933264 -0.11802962 0.11382665
0.07332831 0.09851847 -0.06938347 -0.17778 -0.12793551 0.08231743 0.05150863 -0.15202387
0.11664838 0.060079876 0.06820335 0.100356646 0.14894854 -0.008544974 0.04128743 -0.014425028
-0.060584847 0.101204336 0.04168868 0.078233145 -0.029478196 -0.015397539 0.055061765 -0.020462252
-0.010707449 0.18654923 -0.13309959 0.047116283 -0.09385787 -0.05314521 -0.021648876 0.008790022
0.002371272 -0.05146753 -0.036446385 -0.07833424 -0.1479345 0.1630498 0.05037439 0.0500403
0.019421952 -0.15711027 0.28998512 0.0043189577 0.08170081 -0.031235605 -0.070442565 -0.04002474
0.08661522 -0.053534128 -0.12593213 -0.044132683 0.02039692 -0.05397421 0.10176038 0.16124083
0.062873445 -0.19180356 -0.09269383 -0.0782961 0.2269514 -0.12767226 0.00018942537 0.0611722
-0.12690395 0.06340318 0.15629381 -0.12909207 -0.030859176 -0.061205197 0.088632554 -0.10211805
0.12640736 -0.011562197 -0.009223966 0.12637417 -0.053841114 -0.02442954 -0.18892914 0.12639491
0.052327637 -0.023048509 -0.009725238 -0.10859114 0.15829593 0.11540737 0.0502061 -0.07372801
0.016906532 -0.004022344 0.05802824 -0.03697978 -0.043696914 0.023627758 0.13620304 -0.07575455
0.050682016 -0.016516587 -0.06829269 -0.047881793 0.06155493 0.080048494 0.18229476 -0.03956605
0.008491518 -0.03902159 -0.042253 0.03814629 -0.057340916 -0.037234254 -0.123482175 -0.30484584
0.048993427 -0.14545229 -0.08553734 -0.027043683 -0.0789984 0.088593155 -0.1864537 0.08783719
0.0539348 -0.209666 0.0050806524 -0.19431238 -0.28080603 0.010058313 -0.014331352 -0.12611976
-0.2218237 -0.09391512 -0.0731829 0.015439414 0.00973904 0.019422622 -0.13185598 -0.10838997
0.0378512 0.097660884 -0.07448006 0.14880835 -0.005649424 -0.121453136 -0.018214151 0.012426189
-0.0012859681 0.032471552 -0.087277494 -0.21181145 -0.0015324302 -0.06548623 -0.025363324 -0.016200261
0.049092837 0.091006674 0.073976554 -0.115524024 0.048772383 0.12505084 0.14676994 -0.012794903
0.047658056 0.11421281 0.097986475 0.032553207 0.09423669 -0.11993817 -0.042497054 0.08074204
0.01036909 0.12238334 -0.034592297 0.0014259741 0.016662542 0.05291799 0.02766053 -0.046249866
0.00020463413 0.06536128 -0.12336735 0.07467081 0.06885827 -0.112754256 0.2610087 0.1178547
0.095618 0.049964283 0.0074980385 0.041484132 0.19377607 0.060137164 -0.15561368 0.04127021
-0.2327588 -0.14140223 0.16569081 0.18741035 0.07673708 -0.12937139 -0.1818798 0.29029185
0.03122095 -0.07638685 -0.08420245 0.08293388 -0.0024786913 -0.050370354 -0.058092646 0.034180723

encoder.layers.0.linear2.bias f4 [16]
00000000: c072 153d b92e 303d 0cb4 a1bd c2f9 52bc
00000010: 1ffa 193e ee08 3cbe b9ba a2bd 5937 acbd
00000020: eedd 143d ea03 5bbd d467 28bd 96a6 babd
00000030: 932b b3bd 498a b3bd 238b 0e3e dcb0 21bd
0.036486387 0.04301331 -0.07895669 -0.01287693 0.1503682 -0.18362781 -0.07945771 -0.08408994
0.03634446 -0.05347053 -0.041114643 -0.09113805 -0.087485455 -0.0876661 0.13920264 -0.039475307

encoder.layers.0.norm1.weight f4 [16]
00000000: 2f55 643f c1a9 463f 799e 613f 12d3 413f
00000010: 05b8 6d3f 3d9e 4c3f 4b0b 763f f83f 4f3f
00000020: a35c 6c3f 9366 7f3f 7f67 0440 f8b2 3d3f
00000030: 668e 4c3f 81a4 473f 92be 5a3f 307a 763f
0.8919248 0.77602774 0.88132435 0.7571269 0.92858917 0.7992895 0.9611098 0.80956984
0.9232885 0.9976589 2.068817 0.7410121 0.7990478 0.7798539 0.8544704 0.96280193

encoder.layers.0.norm1.bias f4 [16]
00000000: 01d7 513e 55ee 80bc e2a3 72bd 761b b53c
00000010: 1ba4 183e 0484 86bd 8c77 1cbe c35f 76be
00000020: 7b34 9aba d0b2 8abd c351 313e bb59 24be
00000030: c7c7 0b3e 9c98 6ebe bc72 2e3e 4177 2abd
0.20492174 -0.015738646 -0.059238322 0.022107821 0.14906351 -0.06568149 -0.15279979 -0.24059968
-0.0011764908 -0.06772387 0.17316346 -0.16049854 0.13650428 -0.23300403 0.17035955 -0.041617636

encoder.layers.0.norm2.weight f4 [16]
00000000: dd2c 5e3f 3ec6 563f e6d0 743f ce43 683f
00000010: b39f 6c3f d22c 603f 9a74 3b3f f18f 683f
00000020: 775b 963f 43ba 4b3f 20ce d73f a902 423f
00000030: 0263 7a3f c18c 5f3f cf4b 743f 0e27 4d3f
0.86787206 0.83896244 0.95631254 0.9072846 0.9243118 0.8756839 0.73224795 0.9084464
1.1746663 0.7958109 1.6859779 0.7578531 0.97807324 0.8732415 0.95428175 0.8013772

encoder.layers.0.norm2.bias f4 [16]
00000000: e7d7 563e 3a85 9fbc 5c48 a9bd 69f7 913c
00000010: b376 bd3d e7f3 8d3d 0a2d 01be aecf dbbd
00000020: 9741 093d 2231 59bd 9831 753d 294d 8bbd
00000030: 2fe8 a33c ccb9 3dbd 24aa bf3d cc11 9ebd
0.20980798 -0.019472707 -0.082657546 0.01781817 0.09251156 0.06931286 -0.12614837 -0.10732971
0.033509817 -0.053025372 0.05986175 -0.068018265 0.020008175 -0.046319768 0.093586236 -0.07718238

encoder.layers.1.self_attn.in_proj_weight f4 [48, 16]
00000000: e5e2 8a3e 7224 023e 1590 18bd 7b4c eb3e
00000010: 9c9c 1d3d 23f6 60be 6656 133d e8ac 773d
00000020: 72ce 123d 9587 7ebb 70b9 1dbd 6405 b0bd
00000030: 4d6a 1c3e 646b 95bd d713 a6be 43e8 273e
00000040: a8a9 453e 7322 5dbd 3df7 833d 8d72 1cbe
00000050: 5a8a c7bd f9f3 343e 9eaa 95bd 3a60 423e
00000060: 8eec 713e 2306 86bd 749f 18be 165b b93c
00000070: 81bb 42be cee4 01be 3e64 aa3e 7141 acbe
00000080: 8d26 62be 6ceb f53d 6b2e 32be 3254 bebd
00000090: 1f2d 4abe 0193 023e 528f 383e d1c4 d43e
000000a0: 1ffe 7dbe 0275 f33d f371 5c3e e382 f2bd
000000b0: 6699 a8be cb49 f43d 6610 eebd 3735 733e
000000c0: c99a 72be 0dc2 3c3d 19f7 043e 7d3e 5c3e
000000d0: 549f bf3d 48f4 63be 7187 0e3e 9c42 d83d
000000e0: c9ad 62bd ce60 1d3d caef 90bd 2153 98be
000000f0: ef17 b03e 425b a0bd 25a4 653e b565 41be
00000100: 8397 1bbe 92ea 82be ea9d 093e 99f9 653e
00000110: e2c7 03be 9eae b7bc d950 87bd 1a12 573e
00000120: 1659 c13d cb1c c5bc 489d 06bd 3d38 04be
00000130: 0f30 4abe 52d8 973e c1aa 5c3d ce92 20be
00000140: dab2 34be c434 4fbe 5fb1 2b3e b504 21be
00000150: bc53 8ebc db43 993e 02e3 d2bd 0ce4 9fbd
00000160: bd90 4f3e eae7 a9be a0af c5bd 3c87 88be
00000170: ee3e 823e 6497 9cbe 46ef 9c3d 7635 583d
00000180: 73ac c33d c6e3 16be d5c1 4ebe 97f0 96be
00000190: 74ce 3b3e 5dd5 8a3d 0db0 b3bd 8dd1 013e
000001a0: bcef 313e 2728 923e 6047 54be de19 25be
000001b0: 7532 90bd 725e 763e 65c5 373e 7fc9 ebbd
000001c0: 633d 4ebe 41c9 83be b00d a1bd b499 5a3d
000001d0: e1e1 1ebe 8336 493e f41e 53be 869e a53a
000001e0: 9a7b bb3d 4878 aa3d 0301 5b3d 4100 39bd
000001f0: 364d 1e3d 3b76 f7bc a30d a7bd 74b4 05bd
00000200: 08ed 28be 737e d6bd 73f1 573e ff09 6abe
00000210: 6996 11be 172a 983e d431 843d ea32 823e
00000220: 55d3 8bbb c586 c0be c1ff a4be 8cef 253e
00000230: 6c7e 04bb 6b80 4b3d 57c4 31be 08d2 c0bd
00000240: 6702 863e 4b9e 2c3e 432e 71be 556b 593e
00000250: 6b83 9e3d 4307 c73e e848 413e f1a5 433e
00000260: 74c9 cdbd 1a20 593e c3fa 7f3c 9713 673d
00000270: 4289 c5be f039 f3bd 6154 9d3e f739 6a3c
00000280: 7b73 af3e 19b0 ea3e 6839 92be 98e5 7d3e
00000290: 3cb5 873e 540a 97bc cc08 adbd db8d ec3e
000002a0: 0599 253e efa6 babc 59f8 bebc 97ce fdbc
000002b0: 122d 8abe 194c abbd 0352 423e d9c0 75bd
000002c0: 9f50 103d a141 563e f8be 96bc 952a 26be
000002d0: 7c47 2b3d 0831 933d 4a77 9e3e 513d bd3d
000002e0: c34b 5abd bca3 433e 4215 4b3c b63b 863d
000002f0: ebe7 703c 8ce3 2f3e 05b8 5c3d 8100 c53d
00000300: 6e6f 7a3d 6470 26be 5284 923e 0a31 3d3e
00000310: f156 89be ba2a 83be 9a9b 06bc 5901 273e
00000320: 0716 eabd 1837 f9be cde9 7c3e d984 413d
00000330: decf e1bc 8b89 38bd 35cc 5e3e be21 093e
00000340: 9a76 f9bd 2591 05be da72 89bc bcc8 61be
00000350: 064d b53d a690 2c3e 80ad c139 063f 97bd
00000360: 5607 483e 6072 9ebe 9107 243e 7de4 83be
00000370: 03af 003e 3d5b 80be a058 2cbe bba5 4f3d
00000380: b831 4bbe 2e0c 48bc 9011 203e 8c45 eabe
00000390: 0b5c 783e 149e e93c 4d4d 2abe bec4 093e
000003a0: d315 5e3c 634a 1fbd 7c41 f83d a06f 12be
000003b0: 6fdc a53d e7ca 2e3e e3f6 613d 3d2e 20be
000003c0: e7f1 9bbe 4ad4 dd3d e6bc a43e a098 ca3d
000003d0: 9451 b3bb b5fe 443e 88dd c33e 8911 94be
000003e0: a7ce 203e f738 84bb 0e3d 873d e98b c6bd
000003f0: be69 9d3e 65a5 46bd 46d8 7bbe c142 813e
0.27126232 0.12709215 -0.037246782 0.45956787 0.038479432 -0.21968894 0.035971068 0.06046763
0.035841413 -0.0038838137 -0.038506925 -0.08594778 0.15274926 -0.07295874 -0.32437012 0.16397195
0.19303 -0.05398793 0.06443641 -0.15278073 -0.09743185 0.17671193 -0.07307933 0.1898202
0.23625395 -0.06544139 -0.14904577 0.022626441 -0.1901684 -0.12684938 0.33279604 -0.33643678
-0.22085018 0.12007794 -0.1740052 -0.09293403 -0.19743775 0.1275139 0.18023422 0.4155641
-0.24803971 0.11887552 0.21527843 -0.11841371 -0.32929534 0.119281374 -0.116242215 0.23750769
-0.23691858 0.0460835 0.12984885 0.21508212 0.09356561 -0.22261155 0.13918854 0.1055958
-0.055341516 0.0384224 -0.07076986 -0.29750922 0.3439326 -0.07829906 0.22425897 -0.18886454
-0.15194516 -0.25569588 0.13439146 0.22458495 -0.12869218 -0.022422131 -0.06607217 0.21002999
0.0944082 -0.024061581 -0.03286484 -0.12912078 -0.19744895 0.29657227 0.05387378 -0.15681002
-0.17646351 -0.20234972 0.1676688 -0.15724452 -0.017373912 0.29934582 -0.102972046 -0.07807168
0.20270057 -0.3318475 -0.096526384 -0.26665676 0.25438637 -0.30584252 0.07662825 0.05278536
0.095543765 -0.14735326 -0.20191129 -0.2948043 0.18340474 0.06778977 -0.087738134 0.12677594
0.17376608 0.2854626 -0.20730352 -0.16123149 -0.07040874 0.24059466 0.17946394 -0.11513042
-0.20140605 -0.25739482 -0.07863939 0.05336924 -0.15515853 0.19649701 -0.20617276 0.0012635745
0.091544345 0.08323723 0.05346776 -0.045166258 0.038647853 -0.030207744 -0.08156898 -0.032642797
-0.1649667 -0.10473337 0.210882 -0.22855376 -0.14217533 0.29719612 0.064548165 0.2542947
-0.004267136 -0.3760282 -0.32226375 0.16204661 -0.0020216955 0.049683016 -0.17360054 -0.0941506
0.26173708 0.16857259 -0.23552804 0.2123235 0.0773991 0.38872728 0.18875468 0.1910627
-0.1004819 0.21203652 0.015623751 0.056415167 -0.38581282 -0.11876285 0.30728438 0.014296046
0.34267792 0.45837477 -0.28559422 0.24794614 0.26505458 -0.018437542 -0.084489435 0.46201977
0.16171654 -0.022784678 -0.02331178 -0.030982299 -0.2698751 -0.08364124 0.18976597 -0.059998367
0.035233136 0.20923473 -0.018401608 -0.16227181 0.04181622 0.07187086 0.30950385 0.09240211
-0.05329491 0.19105428 0.012395205 0.06554358 0.014703731 0.17176646 0.053886432 0.09619237
0.061141424 -0.16253811 0.28616577 0.18475738 -0.26824144 -0.25618535 -0.008215809 0.16309108
-0.11429983 -0.48674846 0.24698563 0.047245834 -0.02756494 -0.045053046 0.21757586 0.13391778
-0.121808246 -0.1304365 -0.016778398 -0.2204923 0.08852582 0.16852054 0.00036941096 -0.07385068
0.19534048 -0.30946636 0.16018511 -0.2576026 0.12566762 -0.2506961 -0.16830683 0.050695162
-0.19843185 -0.012209935 0.156317 -0.45756185 0.24253862 0.02851776 -0.1663105 0.13453957
0.013555008 -0.0388893 0.12121865 -0.14300394 0.08098685 0.17069589 0.05516709 -0.15642639
-0.30457994 0.108315066 0.32175368 0.09892392 -0.0054723714 0.19237788 0.38254952 -0.28919628
0.15703832 -0.004035111 0.06603442 -0.096946545 0.30744737 -0.048497576 -0.2459422 0.25246242

encoder.layers.1.self_attn.in_proj_bias f4 [48]
00000000: 51e1 4d3e db92 c1bd 5a35 97bd 8879 95bd
00000010: f9cc 1d3e a71f 11be 7245 0d3e 8354 743e
00000020: 38d6 b0bd 7782 1d3d 82fa d03d 2cc1 0a3e
00000030: e496 8fbe 2b08 dfbd dacd 0abe 8755 dcbd
00000040: d326 e33a 589b 89bb cd4f 323a f778 d0b9
00000050: 26d7 32bb c3fa 8dba 3300 533a 8bcf 603a
00000060: 38fc 86ba f834 c138 c4c0 d13a a569 9f38
00000070: 620f fd3a e5b2 ceb8 de01 2aba 5f38 b6ba
00000080: 4d48 09be 852e fdbc 231c 2bbc ed58 0c3e
00000090: e625 133d 81ad 983b ba10 cf3c 4603 2cbd
000000a0: 191e 15bd e3d7 83bd ec30 32bd e71b a0bc
000000b0: e393 0d3e d7ee f4bb 6f24 bfbd 53f2 6dbd
0.20105483 -0.094518386 -0.07383223 -0.07298571 0.15410222 -0.1417223 0.13796023 0.23860364
-0.08634609 0.0384545 0.102040306 0.13550252 -0.28044808 -0.1089023 -0.13555089 -0.107585005
0.0017330296 -0.0041994266 0.00068020524 -0.00039762977 -0.0027288883 -0.0010832179 0.0008049041 0.0008575848
-0.0010298556 9.212823e-05 0.0016002883 7.601389e-05 0.0019306953 -9.856167e-05 -0.00064852636 -0.0013902298
-0.13406487 -0.030905971 -0.01044372 0.13705797 0.035924815 0.004659355 0.02527653 -0.04199531
-0.036405656 -0.064376615 -0.043503687 -0.019544555 0.13825946 -0.007474761 -0.09333121 -0.058092427

encoder.layers.1.self_attn.out_proj.weight f4 [16, 16]
00000000: a48c 01be dc44 12bd d942 abbc fdf3 fdbb
00000010: 029d 8abe f80e 34bd 5316 65be 0d6d 80bd
00000020: 59a3 773e 6c40 0ebe 97f7 e23d 257c 7f3e
00000030: 95aa db3d 577e dabd 44c9 413a 79e9 4cbe
00000040: 5fd4 68bc a3e1 f7bd 6842 f13d ad8d 933e
00000050: 949b 08be d9b5 ee3d 3836 0bbe 05ec 82be
00000060: 4ad6 1ebd f701 da3c 8163 06be b49d b53d
00000070: da0f 62be 7031 5b3e 6ee8 853e 3691 993d
00000080: 9585 0f3e 3bc5 1fbe 2f0f 763e d52f 38be
00000090: 701b af3d 6048 9f3a 4a30 74be 2695 3f3e
000000a0: 7541 f63d 2ea2 7fbd 1ef8 acbc c0b5 e3bc
000000b0: 5b81 a13b a0ce 23be 1388 07bd fa95 f33d
000000c0: 6d5b ce3c 1d90 a73d 80f0 333e 4c9f d43d
000000d0: fd48 4e3e b4ca 193e e971 963c 58ed bd3c
000000e0: 50c8 b73d a589 2f3c 880f 82bd a769 b1bc
000000f0: 1593 ab3d 33e5 dc3d 6f2f 2ebd f99a 313d
00000100: 3da9 5d3e d2a2 b93d 161a 87bd 5576 20be
00000110: afe6 f63c 92ff 363e 606b e53d e6c4 903d
00000120: b687 d4bd c85e ce3c ee14 e33c 6744 53be
00000130: 62d9 6d3e bf8d 4bbe 3d28 f2bd a8ec 65be
00000140: 2446 b4bd f067 3bbd 84ca 943d ec64 bbbd
00000150: 67f2 3d3d f658 db3d 65fd 70be dc6d 0d3d
00000160: 8ed6 203e 8d86 c1bd 4cc6 48be f0c2 f7bc
00000170: 7eab c83d 6219 06bc 836d a3bd 2406 ddbd
00000180: 3817 bebd e26f 59bb 0b21 08be 4fe8 193d
00000190: 0b2c c9bd 61cc 6d3d 538d fd3d 91d6 0abe
000001a0: 8094 1ebe 2610 eeba 29d0 8bbe 54b1 77be
000001b0: 9d8d 783c 4da9 983d ad71 a23d 2476 1bbe
000001c0: 4ec7 853e ee15 66bb da6c abbe a29c b2bd
000001d0: 60e6 eabd 580d ea3d 20b6 603e 178b c83d
000001e0: d1ca 1bbd 9080 e2bd 6996 ae3d 5db1 393d
000001f0: 8759 2ebe 8094 82bd f295 5f3e 6bec 0ebe
00000200: 8454 41bd 0ca9 b4bd 8cc8 903d dbd2 9c3d
00000210: 9f3c 053e 4d6c c2bc d416 3f3d 4f17 3ebe
00000220: 113b 05bd d25d 12be 60ea f9bb 4766 153d
00000230: c657 d93d ed05 debd 0efd 4d3d 81cc b9bd
00000240: be32 713e 52bc b13d dfab ebbd cdce 053d
00000250: 01ab f83d 83aa 103e f2d6 37be 37fe 3cbd
00000260: 368b a0be e174 443e 21be 11be 323e ab3d
00000270: a968 a7bd 93bf 2dbd d4ab c63d f299 53be
00000280: 650e 1cbe 1b91 733d 74d7 2cbd 519a 1abd
00000290: 26fc 283e 4ab1 08be d326 363d ba7c 0d3e
000002a0: 5e43 873d 3c09 b0bd fe61 fe3d 0fff 55be
000002b0: 0b8c e53d 2aad 64bd 2412 8d3d e49d 563c
000002c0: dfd0 bf3d 3535 f93d f725 86bd c306 29bd
000002d0: e0ee 12be a8b7 a0bd 6a83 9e3e c96d 183d
000002e0: ceca cc3c 75f4 02be 65f3 00bd 7556 c33c
000002f0: 1472 483e 7c24 d33d 853d 483e 8d4c a03c
00000300: 3ea2 353e 508b 1abd 9535 ef3d 250f 15bc
00000310: 544d 573e 3ac2 c4bd 150d 66be 97f6 08be
00000320: c503 1d3e c9d3 803d f8ad 39be 076c aabd
00000330: 3808 84bd f704 293c 0c32 26be 92e9 1cbe
00000340: 293d 243e f7d4 e53c aba2 88be 0013 9e3d
00000350: e4e1 35be bc93 453d 06ee b23c 5825 c9bc
00000360: af7e c8bd 7275 923e 55e0 04be 32d5 ac3d
00000370: 2354 f2bd 46a9 31be bc47 c2bc eb59 c83d
00000380: 79ce b0bd 5630 923d 0843 36bc 494d 3cbe
00000390: c930 38be 5bb2 843d 84e6 cc3d 64fe 4bbc
000003a0: 3bf5 7fbe 67e0 053d a094 0f3e b85b ecbd
000003b0: 3d4c 8f3e d5ba 1dbe da17 243e 0f1f 05be
000003c0: 034e 253d 341a 053e 47f0 fbbd 51ad 253e
000003d0: abd6 66be ebff 6bbe 4f1c 1a3e 5a9a 35be
000003e0: ae90 10be 7710 1e3e b5da 5a3e 7020 1bbd
000003f0: 18b2 46be 197a 7ebe ef97 5d3e bd64 803e
-0.12651306 -0.0357102 -0.020905899 -0.007750033 -0.27072912 -0.043959588 -0.22371797 -0.062708
0.24183406 -0.13891762 0.1108238 0.24949701 0.10725895 -0.10668629 0.00073923566 -0.20010938
-0.014210789 -0.12103584 0.11780244 0.28819028 -0.13340598 0.116557784 -0.13594902 -0.25570694
-0.03877858 0.026612265 -0.13123895 0.0886797 -0.2207636 0.21405578 0.26153892 0.074984
0.14015801 -0.15602581 0.2402923 -0.17986996 0.08550155 0.0012152307 -0.23846546 0.1870924
0.12024204 -0.062410526 -0.021114405 -0.027796626 0.0049287505 -0.1599679 -0.033088755 0.1189384
0.02519008 0.08181784 0.17572212 0.10381946 0.2014503 0.15018731 0.018364863 0.023184463
0.089737535 0.010713969 -0.063506186 -0.021656824 0.08377663 0.10785904 -0.042525705 0.043360684
0.2164659 0.09064259 -0.065967724 -0.1567014 0.030139295 0.1787093 0.11202121 0.070688054
-0.10377447 0.02519168 0.027719941 -0.20631562 0.23227456 -0.1987829 -0.11824081 -0.22453558
-0.08802441 -0.04575342 0.07265189 -0.09150109 0.04637375 0.10710327 -0.23534162 0.0345286
0.15706846 -0.09449492 -0.19606894 -0.03024432 0.097983345 -0.008184763 -0.07979872 -0.10792187
-0.092817724 -0.003317826 -0.13293855 0.037575062 -0.09822854 0.05805624 0.12380471 -0.13558413
-0.15486336 -0.0018162772 -0.2730725 -0.24188739 0.015170482 0.074541666 0.07931838 -0.15181786
0.2612862 -0.0035108286 -0.33481485 -0.087212816 -0.11469722 0.11428326 0.21944475 0.09792154
-0.038035218 -0.110596776 0.08524782 0.045335162 -0.1702634 -0.063759804 0.21834543 -0.13957374
-0.04719974 -0.08821306 0.07069501 0.07657405 0.13011406 -0.023733282 0.04665263 -0.18563579
-0.032527033 -0.14293602 -0.0076268166 0.036474492 0.106124446 -0.10840974 0.05029016 -0.09072209
0.23554513 0.086784974 -0.11507391 0.032667924 0.121419914 0.14127545 -0.17953089 -0.046140876
-0.3135621 0.19185211 -0.14232685 0.08361472 -0.08174259 -0.042419028 0.09700742 -0.20664194
-0.15239866 0.059464555 -0.04219766 -0.037744824 0.16502437 -0.1334888 0.04447062 0.1381711
0.06604646 -0.08595511 0.12421034 -0.20898078 0.11208352 -0.055829205 0.06888226 0.0130991675
0.09366011 0.121683516 -0.0655021 -0.041266214 -0.14348936 -0.0784753 0.30959636 0.037214074
0.024999049 -0.12788565 -0.03148212 0.023844937 0.19574767 0.10309693 0.19554718 0.019567752
0.17737672 -0.037730515 0.11680142 -0.009097849 0.21025592 -0.09607358 -0.22465928 -0.13375317
0.15333469 0.06290395 -0.1813277 -0.08321386 -0.0644688 0.010316125 -0.16230029 -0.15323475
0.16038956 0.028055651 -0.26686606 0.07718468 -0.17761952 0.048236594 0.021842014 -0.02455394
-0.09789788 0.2860523 -0.12976201 0.08439101 -0.11832454 -0.17349729 -0.023715846 0.097827755
-0.086331315 0.071381256 -0.01112438 -0.18388857 -0.1798736 0.06479331 0.10004905 -0.012450788
-0.24995892 0.03268471 0.1402154 -0.115409315 0.27987853 -0.15403302 0.16024724 -0.13000129
0.0403576 0.12998277 -0.12301689 0.16179396 -0.22542827 -0.23046844 0.15049861 -0.17734662
-0.14117691 0.15435968 0.21372493 -0.03787273 -0.19403875 -0.24851264 0.2163999 0.25076857

encoder.layers.1.self_attn.out_proj.bias f4 [16]
00000000: dfca e7bc ff8a 5abb 3c51 0cbd 3ad7 223c
00000010: 960e c93c 504b c63d b66b 6abd 49b5 6f3d
00000020: ed1f d6bd d4ff 04bd 6d54 90bc ee66 f2bd
00000030: 8454 f83d 01f9 07be ea0d de3c a8cb 533d
-0.028294979 -0.0033347008 -0.03425716 0.009939009 0.024543088 0.096823335 -0.057231627 0.058522496
-0.10455308 -0.03247054 -0.017618382 -0.118360385 0.12125495 -0.13278581 0.027106244 0.051707894

encoder.layers.1.linear1.weight f4 [64, 16]
00000000: 2380 1d3e 7ae7 6e3e 4c72 393d ae52 eabd
00000010: 12c4 d2bc 7e7c 3b3e 177c 3c3e 2fb1 963e
00000020: 98bd dfbd 0e7f 0fbd 5c0b b7be 0d2b 883e
00000030: b3fc 053e efb6 783e 1fcc 9a3d 1be7 413e
00000040: e358 75be b01c 2cbe c8ad 15be 402f 01be
00000050: 2ad8 833e 372b 853e 2718 debd 09f7 c53c
00000060: 3604 d1bc 3606 ff3d 4758 88be 1604 dd3d
00000070: 7131 14be d5ce 923e d386 26be 9628 42bd
00000080: b5e9 013e fdce 943d f7a6 973e d509 e03d
00000090: 682d d33d 228b a93d f7d3 e83d 7ca8 1b3b
000000a0: 211e 9f3e 6af4 45be eceb 8a3d 629b 12be
000000b0: 073b 5abe 54d7 14be 6eb8 cd3d e101 8f3d
000000c0: 4df6 bdbd bb6c df3a 7055 bd3e d155 29be
000000d0: ca2f 93be cddd 36be a976 97be e336 643d
000000e0: ef8d 64bd cada 233d 4c02 68be 9c23 ecbd
000000f0: 0788 9a3d 4b01 003e e20f 0d3e f5b8 e43c
00000100: b6ef ee3d c9d0 14bd 085b 46bd 4f64 a7bd
00000110: e239 47be b268 8abd d5c1 ff3d ef64 bb3c
00000120: ab54 a53d 3663 933d 7906 8d3e 4e47 1fbe
00000130: fb44 603d e837 9fbd 9478 efbe f881 073d
00000140: 6adc 80bd f78c 253e 2f50 b43c 2077 30be
00000150: 6a15 2cbc 14c8 08bd 9d2e 893e ecde 623e
00000160: 238f 08bc 5c9e 4dbd 6c22 31be d77d eebc
00000170: d0a7 87be e45f 00be a4ee b9bd 87c7 ac3a
00000180: 4ea4 c63d 55b8 013e 2753 66bd 9958 6ebe
00000190: b654 27be d222 b7bd 453d 043e 60dd 6c3d
000001a0: 7718 113c 7dd1 79bd b6cb 243e f5ef d83d
000001b0: a8e9 87be 66b3 8b3d dc42 8b3c e526 0e3e
000001c0: a47d 073e 48f7 303d 3fa0 3b3e 3f17 603d
000001d0: 0211 223d aa7c 89bc 36ad 9fbb 3299 4cbe
000001e0: bb40 c43c e78c 17bd 066d eabc fc66 993d
000001f0: 224c 6ebd 580b 323e 2f5f 3e3e bce7 7c3d
00000200: 2cbe 0f3e ca81 80bd e4bf f0bd 7944 19be
00000210: c27c 6cbe a4b7 29bd ece9 9dbc 38af ddbd
00000220: 9f83 e03d 16c3 5fbd b80d 873e a234 3a3e
00000230: 32a3 23be 6096 7f3e ee22 49bd 5e26 903d
00000240: 836e 51bd c860 853d f001 393c 9b83 f33d
00000250: 0bb9 3f3e a57e d7bd 9445 7e3d 9ef3 be3d
00000260: 7bf5 c43d 8fdd e33d 1bd7 4d3d 7a9f f23c
00000270: 6475 6fbc 9d14 2abe a38c 43be 251d 2fbe
00000280: a19a 1ebe 7d58 efbd c6d4 9cbd d526 4dbe
00000290: a098 2cbd 51d0 4d3e b37e 363e 202e 51bc
000002a0: 512b d83d 91fe 203e e0fa c1bd 5032 a13e
000002b0: 530c d73d abe3 ccbd 518b 96be af4e d33d
000002c0: bb51 a1be b7e5 313e 97b9 80be 25ea 893d
000002d0: 10f7 20be 2f27 61bd f117 c4bd 99e1 ea3d
000002e0: 5443 96bd 0aec 2a3d e05d d9bd 1764 c23a
000002f0: 696d 7fbe df37 023c cfff eebc 2f66 dcbd
00000300: 7f4e b6be feaa 2b3e 96dd b73d 5366 91bd
00000310: 0dca 9f3c 05aa febd f4f1 08be 9cdd 6b3d
00000320: e7a4 0b3e a626 8dbd ac87 ddbd 98d5 10bd
00000330: fdc1 da3d 67d7 473e 8514 61be f920 063e
00000340: 095b 96be f26d f3bc f1d2 9ebe 62fd 8abe
00000350: c0e7 1c3e a376 c13d d01c f63b 5527 15bb
00000360: d06a e9bd d207 bdbc ca52 e4bc 4827 153e
00000370: 5848 43be ec7f 383d cf04 983d fc74 babd
00000380: a340 2ebe 65fe f1bd c0f4 603d 37b4 ec3d
00000390: e282 36be ff41 2bbe b7f6 033e 06c1 e33d
000003a0: fd73 b63d 0330 d93c c887 263e 1946 c9bc
000003b0: 435b e53c 6ee9 663e 6d7c 02be b8d3 1a3e
000003c0: a8bf 06be 3170 a83d 78c1 383d c307 7bbd
000003d0: c379 49be d018 82bd 13d3 933d d8e6 a53e
000003e0: 89e1 2cbd 904b 123e 5731 833e 2fd4 d6bb
000003f0: d7ee 423e f8c0 a03e d2c7 603e 2bd3 293c
0.15380912 0.23330489 0.045275018 -0.11441551 -0.02572826 0.18309209 0.18406712 0.29432055
-0.10924834 -0.03503328 -0.35750854 0.26595345 0.13084678 0.24288534 0.07558464 0.18935816
-0.23959689 -0.16807818 -0.14617074 -0.1261568 0.25750858 0.26009533 -0.108444504 0.024165647
-0.025514703 0.124523565 -0.2662985 0.10791795 -0.14471985 0.28673425 -0.16262369 -0.047401987
0.12686808 0.072660424 0.29619572 0.10939375 0.10311395 0.082784906 0.11368554 0.0023751548
0.31077674 -0.19331518 0.0678328 -0.14317086 -0.2131158 -0.14535266 0.10044943 0.0698278
-0.09275494 0.0017045954 0.36979246 -0.16536643 -0.28747398 -0.17858048 -0.29582718 0.055716407
-0.05579942 0.040003575 -0.22657126 -0.115302294 0.075454764 0.12500493 0.1377559 0.027920226
0.11666815 -0.036331926 -0.048426658 -0.08173429 -0.19455674 -0.0675825 0.124881424 0.022875277
0.0807279 0.07196657 0.27544 -0.15554544 0.054753285 -0.07774335 -0.4677168 0.033082932
-0.06292041 0.16167055 0.02201089 -0.17232943 -0.010503152 -0.033393934 0.26793376 0.2215535
-0.008334908 -0.05019985 -0.17298287 -0.02911274 -0.26495218 -0.1253658 -0.0907872 0.0013182022
0.096993074 0.12667973 -0.056231644 -0.23275985 -0.16340908 -0.08942188 0.12913997 0.057828307
0.0088559305 -0.0609908 0.16093335 0.10592643 -0.26545453 0.06821327 0.016999654 0.13882025
0.13231522 0.043204576 0.18322848 0.05470967 0.039567 -0.016783077 -0.0048729433 -0.19980314
0.023956647 -0.03699961 -0.02861644 0.07490346 -0.058178075 0.1738714 0.18590997 0.061744437
0.14037389 -0.06274755 -0.1175535 -0.14967526 -0.23094466 -0.0414349 -0.019276582 -0.10824436
0.10962605 -0.054629408 0.26377654 0.1818414 -0.15980223 0.24959707 -0.049105577 0.07038568
-0.051130783 0.065126 0.011291966 0.11890336 0.18722932 -0.105222024 0.062078074 0.0932381
0.09617134 0.11126243 0.05025397 0.02961706 -0.01461539 -0.16609426 -0.19096617 -0.17100962
-0.15488674 -0.116868 -0.07657771 -0.20034344 -0.042137742 0.20098998 0.1782177 -0.012767345
0.10555137 0.1572211 -0.09471679 0.31483698 0.105003975 -0.10004362 -0.29403165 0.10317742
-0.31507668 0.17372786 -0.25141594 0.06734113 -0.15719247 -0.05496901 -0.09574879 0.114688106
-0.073370606 0.04172901 -0.10613608 0.0014830854 -0.2494408 0.007947891 -0.029174713 -0.107616775
-0.35606763 0.16764447 0.08977811 -0.07099595 0.019505525 -0.124347724 -0.13373548 0.05758439
0.13637124 -0.06892137 -0.10816893 -0.03535995 0.106815316 0.19515763 -0.21980484 0.13098516
-0.2936633 -0.029715512 -0.3102031 -0.2714644 0.1532278 0.09446456 0.007510759 -0.002275904
-0.11397326 -0.023075018 -0.027871508 0.14565766 -0.19070566 0.04504387 0.07422792 -0.09104344
-0.17016844 -0.118161 0.05492091 0.11557811 -0.17823365 -0.16724394 0.12887083 0.11120801
0.08908842 0.026512152 0.16262734 -0.024569558 0.027997619 0.22549984 -0.12742777 0.15119827
-0.13159049 0.08224524 0.04510638 -0.0612867 -0.19675355 -0.06352389 0.072179936 0.32402682
-0.042207275 0.14286637 0.2562358 -0.006556056 0.19036423 0.31397223 0.21951225 0.010365288
