20231223_014541/best_recall.pth (torch, 53389 bytes, 38 tensors)

encoder.layers.0.self_attn.in_proj_weight f4 [48, 16]
0.1691215 0.29125232 -0.02340592 0.35341164 0.037825696 -0.17150249 0.24627796 0.17293802
0.05566073 -0.1825458 0.07799318 -0.1412931 0.2505251 -0.124508604 -0.16218743 0.07742153
0.07621162 -0.2594179 0.087598264 0.07234651 -0.16822262 -0.03144825 -0.049117785 0.15557364
0.14267884 0.108368546 -0.046805944 -0.06780189 -0.22442563 -0.28405622 0.08389758 -0.11823569
-0.05484131 0.13003184 -0.2607938 -0.1287746 -0.15957381 -0.012695272 0.106667235 0.28597763
-0.15891653 0.08529179 0.32138562 -0.26766193 -0.25731915 0.036504082 -0.04695439 0.09294973
-0.308821 -0.10123559 -0.07810903 0.15601836 0.22481337 -0.3527322 0.25809124 0.033579018
0.06964312 -0.02132789 -0.11588906 -0.4250181 0.2460875 -0.14385384 -0.008809641 -0.21072613
-0.06836888 -0.112232625 0.22911625 0.2814538 -0.10502643 0.12708504 -0.11835163 0.27412724
-0.056611214 0.032603446 -0.0025962773 -0.072386086 -0.24308954 0.38422793 0.29728746 -0.21752208
-0.24178737 -0.38951173 0.20923115 -0.03691448 0.0111552095 0.15475866 -0.14554003 -0.16158283
0.06210787 -0.28609142 -0.025488256 -0.3434377 0.21284667 -0.42323446 -0.12090139 0.2223908
0.09671953 0.0175495 -0.1422441 -0.34421405 0.23436911 0.13024078 -0.2386023 0.03414771
0.075287975 0.45956144 -0.3065006 -0.07301681 -0.27496487 0.28383902 0.1662215 -0.0696595
-0.13382018 0.015120585 -0.024827717 -0.058400653 -0.16430397 0.34900033 -0.21981792 0.06674185
0.02286116 0.16121665 0.090055026 -0.041142248 -0.05140447 0.033423934 0.08330079 -0.11309097
-0.13739708 -0.188564 0.1293636 -0.26103303 -0.07262737 0.22403345 -0.11571939 0.121802665
0.016254129 -0.19192293 -0.40980732 0.2264143 -0.13694222 -0.070020296 -0.2062264 -0.23453495
0.11719021 0.10565626 -0.06089368 -0.06883058 -0.036336735 0.31570095 0.26432994 0.3266443
-0.0058103926 -0.056843568 0.30534434 0.10953768 -0.17026226 -0.048737865 0.30702156 -0.062876515
0.21432683 0.27208337 -0.039239768 0.1958872 0.20322055 0.16718249 0.07815085 0.45552033
0.08936702 -0.1971632 0.16177918 0.029279755 -0.11073474 0.07363161 0.13816415 -0.07464931
-0.09981284 0.3101678 -0.08911567 0.0066117696 0.013394737 0.006215356 0.30134037 0.03175963
-0.12760326 0.22700655 0.19966792 0.03535222 -0.007505593 0.27227268 0.034794707 0.13797364
0.24703334 -0.09363148 0.08730829 0.12569901 -0.21400616 0.026163314 -0.14178416 0.21886611
0.012686922 -0.39678994 0.34866574 0.08007536 -0.09011532 -0.026237218 0.40280214 -0.0393558
0.03795263 -0.2342932 -0.22040182 -0.16828123 0.2038674 -0.016251324 -0.16329382 -0.30322912
0.20141944 -0.17644209 0.032299664 -0.28660175 0.042733807 -0.35315102 -0.08688156 0.08668379
-0.2038142 -0.12898433 -0.05879342 -0.11472592 0.33160472 0.021137094 -0.2641032 0.15450272
-0.08789333 0.12447075 -0.004747024 -0.21080564 0.1165559 0.0054041445 0.014035689 -0.055870876
-0.0834883 0.27021474 0.1899262 0.03763168 0.11821769 0.21917173 0.30458266 -0.2484634
0.38586128 -0.07668342 -0.021500416 0.06335842 0.15586099 -0.19215694 -0.11500241 0.16782518
00000000: 302e 2d3e 061f 953e c6bd bfbc 5ff2 b43e
00000010: 1eef 1a3d 599e 2fbe 4a30 7c3e aa16 313e
00000020: 81fc 633d 49ed 3abe e3ba 9f3d 23af 10be
00000030: d344 803e 5efe febd 7614 26be 2e8f 9e3d
00000040: d614 9c3d 6cd2 84be b866 b33d 682a 943d
00000050: 8d42 2cbe e1cf 00bd bb2f 49bd b24e 1f3e
00000060: 671a 123e 54f0 dd3d 97b7 3fbd b8db 8abd
00000070: d5cf 65be d16f 91be 7fd2 ab3d 8e25 f2bd
00000080: 48a1 60bd 1127 053e c486 85be 7ddd 03be
00000090: 5167 23be d5ff 4fbc 5a74 da3d a96b 923e
000000a0: 04bb 22be 76ad ae3d a88c a43e fc0a 89be
000000b0: 56bf 83be 4e85 153d 3f53 40bd 6e5c be3d
000000c0: c91d 9ebe 9b54 cfbd a1f7 9fbd 47c3 1f3e
000000d0: 7a35 663e 5199 b4be 8924 843e 278a 093d
000000e0: 0da1 8e3d d4b7 aebc 3e57 edbd f99b d9be
000000f0: 5dfe 7b3e 6c4e 13be 5056 10bc 97c8 57be
00000100: fc04 8cbd 38da e5bd 739d 6a3e b61a 903e
00000110: 1918 d7bd 9522 023e 5762 f2bd 685a 8c3e
00000120: 29e1 67bd 318b 053d 4e26 2abb 283f 94bd
00000130: 77ec 78be 86b9 c43e 1036 983e 1cbe 5ebe
00000140: 1c97 77be 156e c7be b140 563e a333 17bd
00000150: 57c4 363c 0e79 1e3e 7208 15be f875 25be
00000160: d264 7e3d 937a 92be bfcc d0bc 11d7 afbe
00000170: 7af4 593e 30b2 d8be 269b f7bd 6aba 633e
00000180: e414 c63d f8c3 8f3c 70a8 11be d33c b0be
00000190: 75fe 6f3e d75d 053e 2954 74be 78de 0b3d
000001a0: 9530 9a3d a34b eb3e a6ed 9cbe d689 95bd
000001b0: 32c8 8cbe 5953 913e f835 2a3e a4a9 8ebd
000001c0: 2808 09be 55bc 773c 7f63 cbbc 8635 6fbd
000001d0: 4d3f 28be 2cb0 b23e f317 61be f3af 883d
000001e0: 5447 bb3c fa15 253e c56e b83d c684 28bd
000001f0: 7e8d 52bd 89e7 083d 9b99 aa3d 3d9c e7bd
00000200: d2b1 0cbe ec16 41be e477 043e 1fa6 85be
00000210: a9bd 94bd 0669 653e 4afe ecbd ad73 f93d
00000220: 6127 853c 7287 44be 44d2 d1be 26d9 673e
00000230: 953a 0cbe cd66 8fbd 032d 53be ee29 70be
00000240: 6c01 f03d 4f62 d83d a76b 79bd 0cf7 8cbd
00000250: d4d5 14bd 8ea3 a13e 4156 873e ec3d a73e
00000260: 1b65 bebb cdd4 68bd 1856 9c3e 4b55 e03d
00000270: 3b59 2ebe 5ba1 47bd ee31 9d3e 67c5 80bd
00000280: 7e78 5b3e 834e 8b3e e1b9 20bd a796 483e
00000290: 0c19 503e e331 2b3e 8e0d a03d f639 e93e
000002a0: 0e06 b73d 26e5 49be 71a9 253e 19dc ef3c
000002b0: e5c8 e2bd 2bcc 963d e77a 0d3e bde1 98bd
000002c0: ad6a ccbd 50ce 9e3e 4782 b6bd 8ba7 d83b
000002d0: 9975 5b3c 2faa cb3b 4949 9a3e 6316 023d
000002e0: 6eaa 02be 6874 683e bf75 4c3e 7dcd 103d
000002f0: 7af1 f5bb 5367 8b3e e584 0e3d f648 0d3e
00000300: 4ff6 7c3e ddc1 bfbd b0ce b23d 3eb7 003e
00000310: 6e24 5bbe 7254 d63c de2f 11be 701e 603e
00000320: cfdc 4f3c 0d28 cbbe 5184 b23e 8dfe a33d
00000330: 628e b8bd 6fef d6bc 153c ce3e 8c33 21bd
00000340: 3874 1b3d 8eea 6fbe 04b1 61be ea51 2cbe
00000350: 9ec2 503e 7f21 85bc 7f36 27be d940 9bbe
00000360: e640 4e3e 3cad 34be a74c 043d 77bd 92be
00000370: a509 2f3d 36d0 b4be f6ee b1bd 4587 b13d
00000380: abb4 50be 7814 04be 5fd1 70bd 6cf5 eabd
00000390: 18c8 a93e b327 ad3c 8938 87be f635 1e3e
000003a0: 6b01 b4bd 85ea fe3d ec8c 9bbb 6fdd 57be
000003b0: dcb4 ee3d 4015 b13b f2f5 653c dcd8 64bd
000003c0: eafb aabd 9659 8a3e 047c 423e ad23 1a3d
000003d0: 1e1c f23d 8e6e 603e 42f2 9b3e 316d 7ebe
000003e0: 9c8f c53e 320c 9dbd a421 b0bc 0fc2 813d
000003f0: 069a 1f3e cac4 44be 6286 ebbd 5dda 2b3e

encoder.layers.0.self_attn.in_proj_bias f4 [48]
-0.1437785 0.27805868 0.09344138 0.06827148 -0.11835294 0.14884295 -0.030674774 -0.16330943
-0.107492514 -0.023660982 -0.09842348 0.00070565473 -0.0042177853 0.100705184 -0.034108315 0.042552788
-0.0014358057 0.0010963848 0.00046081713 0.00047086095 0.0005462026 0.0008093226 -0.0033599508 0.0015149192
0.0010185614 0.00022253094 -0.00032038672 -0.0017697708 -0.0010686214 0.0010813496 -0.0024364896 -0.00049593934
-0.07303503 -0.037675716 0.1241093 0.0956216 0.09865002 -0.016467879 -0.0009508505 -0.07749556
-0.07791094 0.018733239 -0.0052516744 0.024091348 0.043590136 -0.062310033 0.018117163 -0.04718518
00000000: ac3a 13be b55d 8e3e 325e bf3d ebd1 8b3d
00000010: 0763 f2bd 496a 183e aa49 fbbc 963a 27be
00000020: 0925 dcbd add4 c1bc 4092 c9bd b0fb 383a
00000030: 5935 8abb 853e ce3d 29b5 0bbd d54b 2e3d
00000040: a531 bcba 92b4 8f3a d499 f139 e3dd f639
00000050: 092f 0f3a b828 543a 9f32 5cbb 4190 c63a
00000060: 4081 853a 3257 6939 94f9 a7b9 a7f7 e7ba
00000070: fc10 8cba 12bc 8d3a 83ad 1fbb ed01 02ba
00000080: 6493 95bd da51 1abd 042d fe3d 42d5 c33d
00000090: 0609 ca3d a5e7 86bc 7f42 79ba feb5 9ebd
000000a0: c58f 9fbd 7376 993c 3d16 acbb 385b c53c
000000b0: 928b 323d ce38 7fbd 726a 943c 3f45 41bd

encoder.layers.0.self_attn.out_proj.weight f4 [16, 16]
-0.11411142 0.07220149 0.2539272 -0.080315635 -0.24257149 -0.14670366 -0.11635588 0.01457788
0.19151576 -0.16387671 0.13302913 0.104180545 0.15621474 -0.124187835 0.0230039 -0.19144917
-0.03743756 -0.20440036 0.25137374 0.13798502 -0.118431196 0.15432042 -0.03724061 -0.23113294
-0.0155108925 0.12596785 -0.26939645 -0.011229807 -0.18637791 0.088142045 0.115025036 -0.032534763
0.12303429 -0.09450084 0.0025127367 -0.04326296 0.15936337 -0.074211195 -0.23273806 0.33867484
0.14167088 -0.14262998 0.009894046 -0.00030749757 0.04009129 -0.2193122 -0.0139165865 0.065981306
-0.014149923 0.06726388 0.18573849 0.16021074 0.23503461 0.10986723 0.17583127 -0.016740615
0.053779546 -0.06971727 0.09570621 -0.03854723 0.15835294 0.14524575 0.05171929 0.1300946
0.20581678 0.04958748 -0.044718686 -0.25033167 0.09305291 0.07392467 0.124359794 0.13528484
0.006955992 0.025079584 -0.038185254 -0.2021418 0.19537938 -0.18296212 0.012052391 -0.22888218
-0.19173409 0.12712213 0.08377087 -0.13849911 -0.07585261 0.17790996 -0.22029024 0.016456584
0.010796902 -0.085572526 -0.069228016 0.07738032 0.08262337 -0.04600541 -0.15346462 -0.07160936
-0.121543124 -0.11062806 -0.15976964 -0.07493583 -0.19618198 0.07261888 0.06226972 -0.18229133
0.0088603385 0.020379258 -0.31324235 -0.17341557 0.011895613 0.22507034 0.1356073 -0.14768144
0.05316923 0.086941294 -0.40852177 0.03946298 -0.12141276 0.12515795 0.1775617 0.11858705
0.20427914 -0.09107276 0.046838857 0.08711195 -0.012060271 0.044738047 -0.121219814 -0.017425315
-0.06785097 -0.050710205 0.118674316 0.17263965 0.2184449 -0.06581026 0.37523887 -0.26237422
-0.002277156 -0.09735474 -0.042986237 -6.1919345e-05 0.030760592 -0.11789616 0.07025917 -0.18484016
0.1465721 0.13507691 -0.13610636 0.09986306 -0.042124305 -0.06282007 -0.12048282 0.066786386
0.045977697 0.307874 -0.088876694 0.019762533 0.076946385 0.094628565 0.018310538 -0.17915343
-0.042706575 -0.07883733 -0.095373936 -0.17746413 0.17760937 -0.2233554 0.11846149 0.057724714
0.2287967 -0.049377073 0.17860788 -0.16770197 -0.030294325 0.033882927 0.10285371 0.017757388
0.11473383 -0.005011268 -0.042763446 -0.14761962 -0.060485028 -0.124050125 0.07155004 0.01013352
0.09942913 -0.13672492 -0.03414434 -0.31374478 0.13288179 0.07200948 0.16405119 -0.075722516
0.15293315 -0.1871137 0.23701091 0.045221046 0.1954486 0.001384862 -0.125171 -0.30084932
-0.10245132 -0.11478845 -0.12350899 -0.1752602 -0.17866842 -0.27408847 -0.20139782 -0.1929347
0.06496317 0.08270037 -0.3476021 0.15163946 -0.14075892 0.23524028 0.057397325 -0.09265705
-0.256789 0.19550766 -0.07533741 0.075655445 -0.042163573 -0.27955228 -0.11242184 0.16846976
0.0009308446 -0.118189014 0.14961302 -0.22918484 -0.12488072 0.16141191 0.03926081 -0.20500584
-0.28579056 -0.027338982 0.18746214 -0.05728779 0.16696754 -0.29985902 0.07454955 -0.11159497
-0.119186714 0.109697685 -0.005163647 0.13137867 -0.2467672 -0.17793557 0.052422453 -0.11982664
-0.12286328 0.121842526 0.21856892 0.012902322 -0.16898358 -0.06074238 0.13859142 0.3093655
00000000: 40b3 e9bd 60de 933d bf02 823e 867c a4bd
00000010: a964 78be 7c39 16be fe4b eebd 0fd8 6e3c
00000020: b51c 443e 4ccf 27be ca38 083e 9c5c d53d
00000030: c2f6 1f3e 3156 febd ad72 bc3c 400b 44be
00000040: 2058 19bd 544e 51be 0fb4 803e f24b 0d3e
00000050: 0e8c f2bd 2c06 1e3e 9c89 18bd 1dae 6cbe
00000060: 6621 7ebc b7fd 003e 55ee 89be 39fd 37bc
00000070: dad9 3ebe d183 b43d 3f92 eb3d 2c43 05bd
00000080: 67f9 fb3d a889 c1bd baac 243b 8034 31bd
00000090: 2730 233e 0afc 97bd e352 6ebe ca66 ad3e
000000a0: 2c12 113e 980d 12be a31a 223c a037 a1b9
000000b0: c436 243d 6193 60be 6502 64bc 3521 873d
000000c0: 14d5 67bc a5c1 893d 3b32 3e3e 490e 243e
000000d0: eaac 703e 1202 e13d 1d0d 343e 9d23 89bc
000000e0: f147 5c3d eec7 8ebd 9e01 c43d b3e3 1dbd
000000f0: 4627 223e 4dbb 143e 9bd7 533d 8537 053e
00000100: a2c1 523e 3e1c 4b3d f12a 37bd 792b 80be
00000110: 8692 be3d d165 973d 59b0 fe3d 1c88 0a3e
00000120: 17ef e33b b373 cd3c 2468 1cbd 43fe 4ebe
00000130: 8811 483e 6c5a 3bbe 6477 453c 1760 6abe
00000140: f155 44be 4e2c 023e 1090 ab3d b6d2 0dbe
00000150: 9d58 9bbd 072e 363e c493 61be f5cf 863c
00000160: 7de5 303c a640 afbd 6bc7 8dbd 9379 9e3d
00000170: 7136 a93d 2b70 3cbd d425 1dbe eea7 92bd
00000180: 9aeb f8bd f790 e2bd a79a 23be f577 99bd
00000190: eee3 48be 35b9 943d 890e 7f3d 94aa 3abe
000001a0: f42a 113c 67f2 a63c 4d61 a0be da93 31be
000001b0: d1e5 423c d778 663e a4dc 0a3e ce39 17be
000001c0: fbc7 593d 470e b23d c429 d1be efa3 213d
000001d0: 41a7 f8bd 6829 003e bcd2 353e c4dd f23d
000001e0: 8d2e 513e 5b84 babd 1ada 3f3d c067 b23d
000001f0: 7198 45bc 3e3f 373d 1842 f8bd 89bf 8ebc
00000200: 73f5 8abd 81b5 4fbd 850b f33d 73c8 303e
00000210: 05b0 5f3e 88c7 86bd 4f1f c03e ea55 86be
00000220: 573c 15bb ec61 c7bd 5612 30bd b2da 81b8
00000230: a3fd fb3c 8b73 f1bd 0ae4 8f3d bd46 3dbe
00000240: ff16 163e 9a51 0a3e 775f 0bbe 0185 cc3d
00000250: 898a 2cbd cfa7 80bd b2bf f6bd 4dc7 883d
00000260: 1c53 3c3d a9a1 9d3e fc04 b6bd 09e5 a13c
00000270: 1196 9d3d 9fcc c13d fbff 953c ff73 37be
00000280: 17ed 2ebd 7775 a1bd 6953 c3bd 28b9 35be
00000290: 3bdf 353e 47b7 64be f09b f23d c070 6c3d
000002a0: af49 6a3e 9d3f 4abd fce4 363e 11ba 2bbe
000002b0: ce2b f8bc d3c8 0a3d f7a4 d23d f177 913c
000002c0: 92f9 ea3d 9035 a4bb b928 2fbd 9929 17be
000002d0: 26bf 77bd fe0d febd d488 923d 1007 263c
000002e0: 80a1 cb3d 9e01 0cbe efda 0bbd 28a3 a0be
000002f0: 2a12 083e b579 933d 09fd 273e 6814 9bbd
00000300: 829a 1c3e bc9a 3fbe fdb2 723e b439 393d
00000310: ae23 483e 4284 b53a d42c 00be ec08 9abe
00000320: ffd1 d1bd 3516 ebbd 48f2 fcbd 6977 33be
00000330: dbf4 36be 5355 8cbe 3b3b 4ebe ad90 45be
00000340: 690b 853d d05e a93d e7f8 b1be 6047 1b3e
00000350: 1b23 10be d4e2 703e 7519 6b3d fbc2 bdbd
00000360: d979 83be 2933 483e 804a 9abd 3ef1 9a3d
00000370: b6b3 2cbd 7a21 8fbe 6c3d e6bd 5683 2c3e
00000380: ec03 743a 150d f2bd 2834 193e 6eaf 6abe
00000390: 77c1 ffbd 2a49 253e f1cf 203d 0ded 51be
000003a0: 2453 92be 00f6 dfbc 13f6 3f3e 9aa6 6abd
000003b0: 8af9 2a3e 1f87 99be 6fad 983d e78b e4bd
000003c0: 2a18 f4bd 2ea9 e03d cf33 a9bb 2188 063e
000003d0: 8ab0 7cbe be34 36be edb8 563d ab67 f5bd
000003e0: be9f fbbd 9388 f93d 88d0 5f3e 4364 533c
000003f0: 080a 2dbe 00cd 78bd e9ea 0d3e 2865 9e3e

encoder.layers.0.self_attn.out_proj.bias f4 [16]
0.12280718 -0.1192497 0.06290702 -0.05939426 0.051585693 0.012557924 -0.03286473 -0.09536012
0.018478276 0.059875026 0.04493932 -0.05066802 -0.021546042 -0.087816924 -0.05721176 0.034689285
00000000: 5582 fb3d 3039 f4bd 65d5 803d 6547 73bd
00000010: 854b 533d c0bf 4d3c 2b9d 06bd 2b4c c3bd
00000020: c15f 973c 843f 753d 4b12 383d 4589 4fbd
00000030: 5381 b0bc 5cd9 b3bd e156 6abd 5a16 0e3d

encoder.layers.0.linear1.weight f4 [64, 16]
0.019355258 0.024713714 0.10055264 0.060728207 0.16037315 0.06631474 0.14383663 0.11936357
-0.1249523 -0.06784924 -0.20745516 0.17640255 0.21437666 0.388105 0.008998405 0.22184825
-0.19058995 -0.22023733 0.22242373 -0.10515838 0.25453624 0.17825155 -0.1912858 -0.055594794
-0.10135339 0.032180324 -0.16612425 0.19300485 -0.17652777 0.15813084 -0.22351068 0.061752193
-0.00747463 0.31234834 0.28916672 0.33038202 0.047479626 -0.030197946 0.105402246 -0.020743966
0.09381945 -0.09618633 0.36060977 -0.07314187 0.013364899 -0.22744605 -0.037788715 0.07367025
-0.27796078 -0.0962007 0.1642865 -0.08507689 -0.20563704 -0.25104672 -0.19656383 0.24543245
-0.079436794 0.18788998 -0.19483586 -0.17232673 -0.052791756 0.11685226 0.22314161 0.16896851
0.100747176 -0.14399303 0.27742165 -0.13990112 -0.32780656 -0.095977366 -0.015536315 0.117102206
-0.04461435 0.22896388 0.35247815 -0.07409218 0.06298087 -0.12438769 -0.2150317 -0.0467507
-0.098392345 0.08013771 -0.013475914 -0.12262147 0.050547812 0.124967024 0.2895369 0.25824887
0.0097424155 -0.06520721 -0.104667425 -0.16807996 -0.060160503 -0.18267551 -0.28572232 0.040568568
0.110123485 0.07340813 -0.08011062 -0.10428748 0.049615487 -0.24787803 0.043421123 -0.06942836
0.016860401 0.13212909 0.13674796 -0.035780273 -0.10620927 -0.31264517 -0.047791116 0.21889338
0.1777476 -0.09811684 0.26924708 0.14889546 -0.072561346 0.120386176 0.052652236 -0.16239049
0.06580365 0.076719254 0.08734703 0.038731404 -0.12612073 0.311497 0.0768756 0.030657705
0.10371177 -0.21084568 0.060754057 -0.15221907 -0.24723817 0.027532164 -0.26427636 -0.010928912
0.16202797 0.18091534 0.5129899 0.10446732 -0.15628524 0.23818883 -0.24320184 0.18394844
-0.052795496 0.11369768 -0.1790372 0.08630028 0.12455426 -0.22230138 0.013810701 0.055951007
0.13802566 -0.03321241 0.2810601 0.09736905 -0.15591769 0.039642595 0.09656769 -0.16089213
-0.0880668 -0.047628094 0.026080595 -0.22932665 0.0659027 0.2652677 0.08058478 0.03831307
-0.06399547 0.27722278 -0.34626403 0.23245244 0.014670634 -0.06771871 -0.07096451 0.227137
-0.24394353 0.16564965 -0.12725475 0.08686649 -0.1203995 0.02927347 -0.22556995 0.09463484
-0.06700737 -0.07659896 -0.23692225 -0.07508919 -0.08982719 0.06979131 0.009225312 -0.33163145
-0.25021538 0.035107773 -0.033079322 -0.0357598 0.002275689 0.08053208 -0.032760248 0.040514782
0.029187834 -0.13677438 -0.23983042 0.08226215 0.20601903 0.31171435 -0.12831637 0.21227646
-0.27918953 0.30124235 -0.15091257 -0.050417427 -0.039371297 0.04675148 -0.078464255 -0.10358311
-0.15211076 0.24018279 0.028930612 -0.1477099 -0.032530505 -0.18086201 -0.01085361 -0.040891696
-0.10861391 -0.22267981 0.1639805 0.16730978 0.03486489 -0.3749571 0.2753577 -0.10278887
0.086184956 0.09288738 0.19702022 -0.18332835 0.031356897 0.07867382 -0.15556733 0.22503053
-0.15447223 -0.009826934 0.043094724 -0.095759064 0.083748996 0.036369167 0.11508744 0.26624125
0.00424538 0.12563425 0.22349665 0.030851321 0.20356628 0.24864638 0.1342955 0.023608372
00000000: eb8e 9e3c 6a74 ca3c 8bee cd3d 24be 783d
00000010: dc38 243e 06d0 873d e949 133e e374 f43d
00000020: fee6 ffbd 8bf4 8abd 206f 54be dfa2 343e
00000030: 8e85 5b3e b3b5 c63e 0c6e 133c 302c 633e
00000040: 032a 43be e585 61be 0cc3 633e 475d d7bd
00000050: 9352 823e 9387 363e 6de0 43be 5eb7 63bd
00000060: 5e92 cfbd 84cf 033d 7a1c 2abe 10a3 453e
00000070: b2c3 34be 0ded 213e fcdf 64be deef 7c3d
00000080: beed f4bb 1fec 9f3e a90d 943e d527 a93e
00000090: ff79 423d af61 f7bc 22dd d73d 40ef a9bc
000000a0: 6924 c03d 57fd c4bd d8a1 b83e 68cb 95bd
000000b0: 73f8 5a3c 9ee7 68be 57c8 1abd 6ee0 963d
000000c0: e050 8ebe df04 c5bd b83a 283e cb3c aebd
000000d0: 8492 52be 3289 80be 0748 49be a552 7b3e
000000e0: c2af a2bd 3b66 403e 0d83 47be 6b76 30be
000000f0: 2b3c 58bd 3d50 ef3d 3c7f 643e 1506 2d3e
00000100: 8954 ce3d e972 13be 360a 8e3e 3d42 0fbe
00000110: 43d6 a7be c88f c4bd 078c 7ebc 48d3 ef3d
00000120: 89bd 36bd 8275 6a3e 0478 b43e a4bd 97bd
00000130: 1dfc 803d f9be febd 4531 5cbe a97d 3fbd
00000140: ed81 c9bd 3d1f a43d 14ca 5cbc f720 fbbd
00000150: 390b 4f3d b6ee ff3d 2e3e 943e 3239 843e
00000160: a79e 1f3c 5c8b 85bd e05b d6bd 271d 2cbe
00000170: dc6a 76bd 4a0f 3bbe 324a 92be 3a2b 263d
00000180: 6c88 e13d 0057 963d 0911 a4bd ad94 d5bd
00000190: 9c39 4b3d bdd3 7dbe 59da 313d 7530 8ebd
000001a0: d31e 8a3c d94c 073e a807 0c3e 568e 12bd
000001b0: 3f84 d9bd 0713 a0be 9ec0 43bd 9625 603e
000001c0: 7803 363e 7bf1 c8bd c1da 893e 0d78 183e
000001d0: 0b9b 94bd 078d f63d dfa9 573d b149 26be
000001e0: 10c4 863d fc1e 9d3d 00e3 b23d d2a4 1e3d
000001f0: cb25 01be 897c 9f3e f470 9d3d de25 fb3c
00000200: d666 d43d eee7 57be 3fd9 783d 51df 1bbe
00000210: 012c 7dbe 228b e13c 3b4f 87be 2e0f 33bc
00000220: a9ea 253e df41 393e 4e53 033f f6f2 d53d
00000230: 3d09 20be c6e7 733e e709 79be fb5c 3c3e
00000240: 1740 58bd 54da e83d 8755 37be 34be b03d
00000250: 4e16 ff3d f9a2 63be 4746 623c e22c 653d
00000260: 9956 0d3e bc09 08bd 1ce7 8f3e 6d69 c73d
00000270: e3a8 1fbe 4660 223d 48c5 c53d e8c0 24be
00000280: 5e5c b4bd ad15 43bd f9a6 d53c 9bd4 6abe
00000290: fff7 863d 2bd1 873e a209 a53d 2aee 1c3d
000002a0: 0f10 83bd 25f0 8d3e 8549 b1be 0308 6e3e
000002b0: 195d 703c 1bb0 8abd d755 91bd 9a96 683e
000002c0: 55cc 79be 10a0 293e 124f 02be 0fe7 b13d
000002d0: 0394 f6bd ebce ef3c cffb 66be e9cf c13d
000002e0: 293b 89bd eadf 9cbd bf9b 72be 5cc8 99bd
000002f0: 51f7 b7bd bfee 8e3d c325 173c 99cb a9be
00000300: 3b1c 80be 2bcd 0f3d 2f7e 07bd de78 12bd
00000310: ba23 153b 01ee a43d 9c2f 06bd d4f2 253d
00000320: 531b ef3c 950e 0cbe 1b96 75be 0f79 a83d
00000330: a7f6 523e 0699 9f3e 5e65 03be 005f 593e
00000340: eef1 8ebe 703c 9a3e d388 1abe 8182 4ebd
00000350: cc43 21bd 7b7e 3f3d deb1 a0bd 6223 d4bd
00000360: ecc2 1bbe 7af2 753e e4ff ec3c 4441 17be
00000370: b53e 05bd e433 39be 57d3 31bc 0d7e 27bd
00000380: f870 debd 2d06 64be 81ea 273e 4153 2b3e
00000390: 7dce 0e3d 61fa bfbe affb 8c3e f982 d2bd
000003a0: bd81 b03d bd3b be3d abbf 493e 6dba 3bbe
000003b0: 1770 003d bd1f a13d 0b4d 1fbe 676e 663e
000003c0: f82d 1ebe 2601 21bc 1884 303d 541d c4bd
000003d0: 9884 ab3d d6f7 143d f7b2 eb3d c650 883e
000003e0: d41c 8b3b 44a6 003e 4edc 643e e9bb fc3c
000003f0: ae73 503e 289d 7e3e c284 093e 5866 c13c

encoder.layers.0.linear1.bias f4 [64]
0.1186918 0.067734346 -0.20380999 0.083084345 -0.030948957 -0.25764972 -0.24856825 -0.09607214
-0.28488305 -0.22036766 -0.15097111 0.071798556 -0.081724286 0.09882454 0.04856433 0.14558506
-0.11628316 -0.15513267 -0.006193417 -0.07829235 -0.19920488 -0.21542391 -0.14801292 -0.16679244
0.020812387 -0.17627703 -0.0027773704 -0.2114646 -0.1091872 -0.23463088 0.037164543 0.10828968
0.045181423 -0.14000396 0.053015642 -0.11148188 -0.1490448 -0.057253845 -0.013265803 -0.16353756
0.032813434 -0.29692373 -0.13552652 0.08127071 -0.08983278 0.053213146 -0.15229614 -0.11521106
-0.102345645 -0.042702552 0.14513783 0.17952126 0.12132513 -0.26010388 -0.16259223 -0.07002024
-0.33750322 -0.088030174 -0.09801199 -0.119340666 -0.002770884 -0.18129605 -0.27488986 -0.25873747
00000000: b014 f33d 4eb8 8a3d 91b3 50be 2028 aa3d
00000010: ab88 fdbc aaea 83be ad88 7ebe 78c1 c4bd
00000020: 31dc 91be 0fa8 61be 2c98 1abe 1f0b 933d
00000030: 105f a7bd 8564 ca3d 64eb 463d 4014 153e
00000040: de25 eebd 19db 1ebe 26f2 cabb bd57 a0bd
00000050: 5dfc 4bbe 1698 5cbe b390 17be a3cb 2abe
00000060: bd7e aa3c f781 34be 8b04 36bb 2d8a 58be
00000070: 8a9d dfbd 1443 70be d939 183d fbc6 dd3d
00000080: 2810 393d 335d 0fbe ee26 593d 9d50 e4bd
00000090: 339f 18be 0283 6abd d058 59bc 6476 27be
000000a0: 6167 063d 6306 98be 77c7 0abe 4271 a63d
000000b0: 40fa b7bd 07f6 593d 85f3 1bbe c7f3 ebbd
000000c0: 989a d1bd dfe8 2ebd 039f 143e 6cd4 373e
000000d0: 4f79 f83d 562c 85be 947e 26be c666 8fbd
000000e0: 39cd acbe 2a49 b4bd 83ba c8bd e168 f4bd
000000f0: b897 35bb aca5 39be 5dbe 8cbe 3d79 84be

encoder.layers.0.linear2.weight f4 [16, 64]
-0.13363536 -0.15971242 0.17082968 -0.08575616 -0.067092486 0.062201012 0.035357848 -0.09376215
0.11892927 -0.011247911 -0.030849388 -0.04329844 -0.06234583 0.00079832744 0.07070104 -0.06159349
0.00795673 0.049832825 0.12722266 -0.07452098 0.106592655 0.0032482047 0.04201586 0.005397761
0.06283341 -0.025491208 -0.007379023 0.10653086 -0.017655756 0.02274393 0.1384826 -0.1313432
0.030827023 0.08453416 -0.12142437 0.038209684 -0.081154406 -0.11385274 0.018783737 0.024688868
0.11066459 -0.0239112 -0.09473488 -0.05691136 -0.10043236 0.13028236 -0.1404109 0.01939649
-0.031289715 0.07262604 -0.068285964 -0.32342646 -0.11571528 0.23440365 -0.13021109 -0.049890846
0.011730137 -0.07587084 0.07926126 -0.059226394 0.19101176 0.035836868 0.1029943 -0.08870076
0.008294097 -0.029399756 0.08394825 -0.036336787 -0.060439914 -0.117833585 -0.13594568 -0.046494037
-0.122802496 0.008335334 -0.0677763 0.10536186 -0.15303938 0.093602434 -0.11302921 0.07542544
0.019132525 -0.0647695 0.03096592 0.016589217 0.040092494 0.06307959 0.0010230785 -0.0035014006
0.026834754 -0.117089674 -0.022101816 0.00927166 -0.023924988 -0.06415896 -0.013825422 -0.17207178
0.006865134 -0.14905638 0.070989616 -0.08469209 -0.033617612 -0.23861387 -0.06476932 0.08454574
-0.09413816 -0.008977437 0.11071765 -0.07492564 -0.059370644 -0.03286271 0.24544838 0.06202913
0.039039746 0.050374214 -0.0705764 -0.16350311 0.20668289 -0.03169444 0.031146383 -0.065572575
-0.064807154 0.15496176 0.039396908 0.15666972 0.06371174 -0.015446008 -0.020739922 0.1967472
-0.009766831 0.07451873 0.051286034 -0.111676075 0.24929288 -0.05724375 -0.018805536 -0.009914063
0.08999329 0.07376878 0.027134094 -0.0024448542 -0.12845868 0.04346262 0.15572658 0.12740646
-0.0006901454 0.015738644 0.10179076 -0.046367276 0.20607768 -0.024725795 0.08852709 -0.088069536
0.061483584 0.20210601 -0.021562127 0.087144904 0.0035421243 -0.042108554 -0.09276351 -0.17139864
0.09944828 -0.09055421 -0.09824505 0.06858071 -0.08166836 0.04881952 -0.086868145 -0.025070012
0.10381958 -0.011011506 0.123673804 -0.08872579 -0.045649845 0.07689361 -0.055429846 -0.13576308
-0.08192122 0.050445225 0.03169301 0.06834909 0.023198707 0.15747945 0.029098962 -0.0053803152
0.073266685 0.004111447 0.12932496 0.05931236 -0.10613207 0.047217343 -0.06619329 0.042618245
-0.02000448 -0.13893594 0.011060864 -0.13912411 -0.28962946 -0.031055853 -0.06938819 -0.049118083
-0.094929844 0.0011744144 0.1817492 -0.11945627 -0.030236177 0.08058748 0.15343851 0.09600806
-0.07041438 0.0997878 0.19269909 -0.033374898 0.06254981 -0.11747776 0.023661407 0.0027109042
-0.05867226 0.15044272 0.043068558 0.078629896 0.12175677 -0.046910673 -0.018336033 0.13514574
0.0063146753 0.19639578 0.019116104 0.024492053 0.011694395 -0.022656213 0.07006357 -0.02299243
0.0039133965 0.02590284 -0.08849907 0.0273028 0.011644285 0.04086633 0.024312545 -0.11763132
-0.08369269 0.09884089 0.10067759 0.05794531 0.08712045 0.049139954 -0.1685989 0.16630515
-0.09238746 -0.045124725 0.007824625 0.012652183 -0.046240572 -0.08527041 -0.10583556 -0.0046187285
00000000: b5d7 08be a78b 23be faed 2e3e eda0 afbd
00000010: c967 89bd 7dc6 7e3d 64d3 103d 5f06 c0bd
00000020: 3091 f33d 2849 38bc dbb7 fcbc b459 31bd
00000030: 575e 7fbd d946 513a b5cb 903d 7549 7cbd
00000040: f25c 023c 811d 4c3d a846 023e 759e 98bd
00000050: 404d da3d d5df 543b d318 2c3d b3df b03b
00000060: ceae 803d f0d2 d0bc bbcb f1bb da2c da3d
00000070: cea2 90bc 7a51 ba3c 62ce 0d3e d57e 06be
00000080: f488 fc3c 3f20 ad3d 57ad f8bd c281 1c3d
00000090: 4834 a6bd a02b e9bd 5ae0 993c 4f40 ca3c
000000a0: 1ea4 e23d 6ce1 c3bc 5c04 c2bd e31b 69bd
000000b0: 7baf cdbd bd68 053e e0c7 0fbe 63e5 9e3c
000000c0: a529 00bd f6bc 943d 83d9 8bbd 2798 a5be
000000d0: 22fc ecbd 8307 703e 0e56 05be 585a 4cbd
000000e0: c32f 403c 2c62 9bbd ba53 a23d 6097 72bd
000000f0: 9698 433e aec9 123d adee d23d bea8 b5bd
00000100: f7e3 073c c2d7 f0bc 0fed ab3d e2d5 14bd
00000110: d88f 77bd bc52 f1bd 5835 0bbe 8870 3ebd
00000120: e07f fbbd ed90 083c 4dce 8abd f5c7 d73d
00000130: 5bb6 1cbe a2b2 bf3d dc7b e7bd a778 9a3d
00000140: d0bb 9c3c dfa5 84bd 3eac fd3c 1ce6 873c
00000150: 0738 243d df2f 813d d118 863a c177 65bb
00000160: 8fd4 db3c b6cc efbd de0e b5bc 29e8 173c
00000170: 56fe c3bc c665 83bd 0684 62bc 9633 30be
00000180: ebf4 e03b 3ca2 18be 0163 913d 0c73 adbd
00000190: 9fb2 09bd 3257 74be c7a5 84bd 5126 ad3d
000001a0: 82cb c0bd 1a16 13bc efbf e23d 9d72 99bd
000001b0: a22e 73bd 0d9b 06bd d256 7b3e 4212 7e3d
000001c0: 24e8 1f3d 3155 4e3d 5c8a 90bd 5c6d 27be
000001d0: aea4 533e 07d2 01bd b326 ff3c ea4a 86bd
000001e0: 9db9 84bd 4cae 1e3e a75e 213d 076e 203e
000001f0: 4d7b 823d 4111 7dbc c5e6 a9bc 1978 493e
00000200: 0f05 20bc 479d 983d 4e11 523d 6db6 e4bd
00000210: a246 7f3e 6c78 6abd 110e 9abc 986e 22bc
00000220: 674e b83d 1614 973d 5248 de3c d939 20bb
00000230: ac8a 03be dc05 323d ca76 1f3e d776 023e
00000240: e0ea 34ba 54ee 803c ad77 d03d 9deb 3dbd
00000250: 0706 533e c08d cabc b14d b53d cd5d b4bd
00000260: 36d6 7b3d e1f4 4e3e 0fa3 b0bc 0779 b23d
00000270: fc22 683b 057a 2cbd ccfa bdbd 2083 2fbe
00000280: 8aab cb3d 7c74 b9bd b334 c9bd 0b74 8c3d
00000290: be41 a7bd faf6 473d ede7 b1bd a05f cdbc
000002a0: 5c9f d43d 9b69 34bc b148 fd3d deb5 b5bd
000002b0: 55fb 3abd 667a 9d3d 680a 63bd 7a05 0bbe
000002c0: 50c6 a7bd a79f 4e3d 88d0 013d 9cfa 8b3d
000002d0: 370b be3c 4b42 213e f260 ee3c 5b4d b0bb
000002e0: d80c 963d 51b9 863b c36d 043e 84f1 723d
000002f0: c55b d9bd f966 413d 5990 87bd 7890 2e3d
00000300: 6fe0 a3bc 3945 0ebe a038 353c 8d76 0ebe
00000310: 504a 94be d868 febc 651b 8ebd 0b30 49bd
00000320: 946a c2bd cfee 993a 761c 3a3e 7da5 f4bd
00000330: dcb1 f7bc 0c0b a53d fc1e 1d3e e09f c43d
00000340: 6a35 90bd 8c5d cc3d e952 453e 1eb4 08bd
00000350: 1d1a 803d 2e98 f0bd 91d5 c13c 6da9 313b
00000360: 5352 70bd a80d 1a3e a868 303d b608 a13d
00000370: 9d5b f93d 6825 40bd 7335 96bc a563 0a3e
00000380: 56eb ce3b fa1b 493e 6099 9c3c 8fa3 c83c
00000390: d999 3f3c 8699 b9bc 7d7d 8f3d 9f5a bcbc
000003a0: f33b 803b 3132 d43c 003f b5bd 1faa df3c
000003b0: acc7 3e3c 7463 273d 1a2b c73c b1e8 f0bd
000003c0: 1367 abbd 186d ca3d 0d30 ce3d 1058 6d3d
000003d0: 356c b23d fa46 493d 31a5 2cbe e64b 2a3e
000003e0: a335 bdbd b4d4 38bd db32 003c 1a4b 4f3c
000003f0: c166 3dbd 41a2 aebd 50c0 d8bd b458 97bb

encoder.layers.0.linear2.bias f4 [16]
-0.007817153 0.036415495 0.012289848 -0.066561595 0.07050205 -0.120658755 -0.07091869 -0.0015492216
-0.004025551 -0.07096825 0.031243749 0.06279654 0.007584069 0.11064102 -0.057754673 -0.025245303
00000000: 8413 00bc 6a28 153d 5c5b 493c 7251 88bd
00000010: 6163 903d f01b f7bd d13d 91bd 400f cbba
00000020: c5e8 83bb cd57 91bd e4f2 ff3c 799b 803d
00000030: c883 f83b c297 e23d 2a90 6cbd 3dcf cebc

encoder.layers.0.norm1.weight f4 [16]
0.8789062 0.9757963 0.96708304 0.7298013 1.0354553 0.8580354 0.8887737 0.99719185
0.8332701 0.96592027 1.9267284 0.8715531 0.9298605 1.0743034 0.85724485 0.8879297
00000000: ffff 603f c9cd 793f c192 773f 42d4 3a3f
00000010: cd89 843f 35a8 5b3f ac86 633f f747 7f3f
00000020: 3051 553f 8d46 773f 099f f63f 1b1e 5f3f
00000030: 560b 6e3f c682 893f 6674 5b3f 5c4f 633f

encoder.layers.0.norm1.bias f4 [16]
0.28391168 0.011524732 -0.026870562 0.028236432 0.13581675 -0.04457357 -0.023447659 -0.07941581
0.020189535 -0.019773003 0.037173435 -0.076184854 -0.039125714 -0.12836134 0.094439976 -0.07686706
00000000: df5c 913e 3bd2 3c3c a71f dcbc 1750 e73c
00000010: 8c13 0b3e c792 36bd 4e15 c0bc c2a4 a2bd
00000020: 8664 a53c fefa a1bc 2c43 183d ce06 9cbd
00000030: 4942 20bd 2871 03be bf69 c13d 7a6c 9dbd

encoder.layers.0.norm2.weight f4 [16]
0.9251639 0.7613452 0.9256543 0.90447843 1.0896537 0.81019604 0.88975435 0.8690881
1.19471 0.941679 1.4920808 0.92484677 0.9322045 0.88392997 0.77134 0.87768114
00000000: 8bd7 6c3f 85e7 423f aef7 6c3f e68b 673f
00000010: c679 8b3f 0269 4f3f f1c6 633f 8f7c 5e3f
00000020: 42ec 983f e011 713f 81fc be3f c2c2 6c3f
00000030: f4a4 6e3f 3c49 623f 8a76 453f b6af 603f

encoder.layers.0.norm2.bias f4 [16]
0.19373962 0.051992953 0.051679607 -0.027860994 0.08037122 0.012910874 -0.033073362 -0.01054228
-0.0034093386 -0.029793568 0.020990295 -0.017797342 -8.639151e-05 -0.036634844 0.052931625 -0.03247329
00000000: ae63 463e 90f6 543d ffad 533d bd3c e4bc
00000010: ab99 a43d 2188 533c ef77 07bd 87b9 2cbc
00000020: 366f 5fbb a411 f4bc d7f3 ab3c bbcb 91bc
00000030: 172d b5b8 6b0e 16bd d5ce 583d b602 05bd

encoder.layers.1.self_attn.in_proj_weight f4 [48, 16]
0.17382216 0.16099063 -0.14615194 0.19374032 0.14594764 -0.11523662 0.17170699 0.18569446
0.022850487 -0.11341306 0.044943396 -0.10519484 0.2285873 -0.23368363 -0.056535874 -0.032629203
0.12699658 -0.14305042 0.19790801 0.07684496 -0.38307393 0.08512426 0.039238006 0.13113515
0.118364416 -0.0044281436 0.012087404 0.15673225 -0.27444786 -0.101772815 0.2686931 -0.19392978
0.010183674 0.21287185 -0.21648654 -0.11135693 -0.29811224 0.11500946 0.085705906 0.25474083
-0.22735684 0.27569443 0.12372311 -0.23958798 -0.2961707 0.18436474 0.043697078 0.045591135
-0.42043954 -0.03750927 0.09481207 0.24882421 0.3177092 -0.24896935 0.28646088 0.08604574
0.1134827 0.09386009 -0.20649406 -0.3584576 0.22604367 -0.045963615 0.04668718 -0.1396894
-0.007680427 -0.19899637 0.2089559 0.30946302 -0.1884819 0.117492534 -0.120648324 0.3363107
-0.21059103 0.20138985 -0.20732139 -0.20631784 -0.12372467 0.2128841 0.25029612 -0.23924018
-0.2568264 -0.38709065 0.27969489 0.0765164 -0.184905 0.28866085 -0.10560579 -0.2240541
0.20320399 -0.21907307 -0.04120479 -0.21765377 0.10183437 -0.21019189 -0.062167943 0.2690273
0.02936914 0.018189507 -0.07190961 -0.23601666 0.08459248 0.13765281 0.0020311058 0.14185153
0.11209896 0.3382915 -0.21110317 -0.17911644 -0.17421095 0.18856278 0.12610225 -0.038321197
-0.0038392257 -0.15251438 -0.12893431 -0.16338289 -0.23092923 0.25828218 -0.16101457 0.07533912
0.012361633 0.106937766 0.18397619 -0.058631692 0.061348025 -0.10878745 -0.015775865 -0.1520388
-0.26475698 -0.13285379 0.3387156 -0.05388217 -0.23896295 0.20446566 -0.16354607 0.19659261
0.18422043 -0.22167127 -0.32739606 0.24729113 -0.07453262 -0.083191514 -0.1567472 -0.12609981
0.05764164 0.13544895 -0.12375071 0.04004816 0.059750564 0.35404176 0.39753804 0.18439658
-0.035016418 0.098777406 0.064100355 0.14501141 -0.13869795 -0.1991795 0.09125903 0.031607766
0.22177011 0.2068101 -0.13318999 0.23990327 0.39634365 -0.05534933 0.07641007 0.21485497
0.13119803 -0.04266227 0.10931513 -0.12580252 -0.13090341 -0.07875416 0.05486933 0.10862262
-0.0031279647 0.2973201 0.059227657 -0.04235395 0.09366329 0.09695781 0.27329907 -0.110443786
-0.23161681 0.20369917 0.14255503 -0.047075287 0.00022992092 0.3381487 0.13478045 -0.037122205
0.22753263 -0.15388471 0.24378352 0.14407946 -0.3306914 -0.0984722 -0.29173684 0.28256062
-0.15756424 -0.31918395 0.47839084 0.02502275 -0.10889918 -0.09421111 0.17612556 0.19876155
-0.058723897 -0.15367776 -0.19207266 -0.11681483 -0.01671377 0.11879528 -0.14316699 -0.11069398
0.06646892 -0.28451377 0.2781218 -0.15964386 0.1443105 -0.23486869 0.024140976 0.16271777
-0.23071711 -0.07093593 -0.005439265 -0.12911282 0.26842594 0.14780948 -0.18073405 0.30439797
-0.24719644 0.0035389017 0.025952356 -0.048262075 0.21726586 0.1677381 0.06750807 -0.14280431
-0.17033121 0.19746517 0.39860615 -0.006949598 -0.07733161 0.24301817 0.27102602 -0.09495144
0.077303134 0.043648183 0.1989312 -0.018663002 0.31346965 -0.3251359 -0.11157017 0.18145883
00000000: 70fe 313e bada 243e dba8 15be dd63 463e
00000010: 4c73 153e 2d01 ecbd f5d3 2f3e b026 3e3e
00000020: f230 bb3c 1b45 e8bd 9116 383d 6470 d7bd
00000030: ca12 6a3e c34a 6fbe 2992 67bd 33a6 05bd
00000040: 640b 023e cf7b 12be 66a8 4a3e e460 9d3d
00000050: 4422 c4be a155 ae3d 08b8 203d 4b48 063e
00000060: 0b69 f23d f619 91bb 3f0a 463c 6b7e 203e
00000070: 6e84 8cbe 446e d0bd 2492 893e 8795 46be
00000080: 6dd9 263c 14fb 593e a6ae 5dbe 1a0f e4bd
00000090: 2ba2 98be 148a eb3d 9486 af3d 646d 823e
000000a0: 3bd0 68be d227 8d3e 8b62 fd3d 8d56 75be
000000b0: b0a3 97be 1cca 3c3e b5fb 323d c5bd 3a3d
000000c0: da43 d7be 52a3 19bd d52c c23d c6cb 7e3e
000000d0: c8aa a23e d2f1 7ebe 00ab 923e c038 b03d
000000e0: 9e69 e83d b839 c03d 2e73 53be c187 b7be
000000f0: fe77 673e 5844 3cbd 0e3b 3f3d bd0a 0fbe
00000100: 17ac fbbb b4c5 4bbe 89f8 553e f071 9e3e
00000110: 6601 41be ed9f f03d 7816 f7bd eb30 ac3e
00000120: 2da5 57be 2439 4e3e 0f4c 54be fc44 53be
00000130: 5c63 fdbd 4afe 593e d026 803e 61fb 74be
00000140: c07e 83be bf30 c6be 2b34 8f3e a1b4 9c3d
00000150: bc57 3dbe 5bcb 933e d947 d8bd 706e 65be
00000160: b514 503e b154 60be 5bc6 28bd a1e0 5ebe
00000170: 8a8e d03d 8b3c 57be d0a3 7ebd f2bd 893e
00000180: 8d97 f03c 2902 953c 5845 93bd 5aae 71be
00000190: d23e ad3d dcf4 0c3e 4d1c 053b 8741 113e
000001a0: 2494 e53d 8b34 ad3e 6e2b 58be 4d6a 37be
000001b0: 5b64 32be 9a16 413e f320 013e b0f6 1cbd
000001c0: 859b 7bbb bb2c 1cbe 5b07 04be d84d 27be
000001d0: b678 6cbe 903d 843e 01e1 24be 664b 9a3d
000001e0: 7288 4a3c 3002 db3d 4164 3c3e c927 70bd
000001f0: 1148 7b3d f4cb debd 633c 81bc 0fb0 1bbe
00000200: 3a8e 87be d30a 08be 226c ad3e 8db3 5cbd
00000210: b4b2 74be 725f 513e 9f78 27be 934f 493e
00000220: 48a4 3c3e cbfd 62be 75a0 a7be e339 7d3e
00000230: 8fa4 98bd 5060 aabd 5782 20be 4f20 01be
00000240: a419 6c3d 21b3 0a3e 0371 fdbd 8a09 243d
00000250: 02bd 743d f644 b53e 1b8a cb3e 75d2 3c3e
00000260: 606d 0fbd cf4b ca3d 0c47 833d df7d 143e
00000270: d606 0ebe b6f5 4bbe 04e6 ba3d 2577 013d
00000280: b417 633e 07c6 533e f562 08be 34a9 753e
00000290: 8eed ca3e fbb5 62bd e27c 9c3d f102 5c3e
000002a0: c758 063e a2be 2ebd 9ce0 df3d 60d2 00be
000002b0: 8b0b 06be dc49 a1bd aabe 603d 8975 de3d
000002c0: 8afe 4cbb 573a 983e b398 723d 567b 2dbd
000002d0: 8ad2 bf3d d191 c63d dbed 8b3e 5a30 e2bd
000002e0: f52c 6dbe 8496 503e f2f9 113e 04d2 40bd
000002f0: ed16 7139 d421 ad3e e303 0a3e 740d 18bd
00000300: 50fe 683e f493 1dbe 63a2 793e 9189 133e
00000310: 6250 a9be cbab c9bd 885e 95be c9ab 903e
00000320: 8558 21be 146c a3be a5ef f43e 83fc cc3c
00000330: 8906 dfbd c1f1 c0bd 425a 343e 2688 4b3e
00000340: 7888 70bd b45d 1dbe b2ae 44be 9d3c efbd
00000350: 51eb 88bc f14a f33d 5e9a 12be 86b3 e2bd
00000360: db20 883d caab 91be fb65 8e3e ae79 23be
00000370: 22c6 133e 6b81 70be 4cc3 c53c 7d9f 263e
00000380: 1b41 6cbe db46 91bd dd3b b2bb 2736 04be
00000390: 206f 893e 5e5b 173e 5912 39be 0dda 9b3e
000003a0: 1021 7dbe ebec 673b 099a d43c 74ae 45bd
000003b0: f17a 5e3e 89c3 2b3e ac41 8a3d 4b3b 12be
000003c0: 4e6b 2ebe 4f34 4a3e 1b16 cc3e 74b9 e3bb
000003d0: 0960 9ebd c1d9 783e ecc3 8a3e e775 c2bd
000003e0: 1b51 9e3d 70c8 323d 9fb4 4b3e 27e3 98bc
000003f0: 187f a03e 3678 a6be e77e e4bd 58d0 393e

encoder.layers.1.self_attn.in_proj_bias f4 [48]
0.058833927 -0.15563637 -0.0013817577 0.060084175 -0.04420324 -0.18687217 -0.08738589 0.0077397507
-0.043470286 -0.05338622 0.06220265 0.16320308 -0.021304145 -0.11033919 0.056395102 0.07558589
0.00035011783 -0.0007861293 0.0016225304 0.0002534212 -0.0027106947 -0.0004833546 0.003085927 0.0018189705
0.0021350458 0.00035970515 -0.0009766094 -0.00046488142 0.00043992556 -0.00037189398 -0.0011778215 0.0010631564
-0.016910924 -0.048380353 -0.001890734 -0.11856234 0.004293249 0.10578855 -0.0032357778 -0.04587957
-0.011079437 0.0032828688 0.025673136 -0.0503245 0.09124074 -0.0045198393 -0.061027892 0.028569492
00000000: d8fb 703d 245f 1fbe 181c b5ba d31a 763d
00000010: 750e 35bd 6b5b 3fbe 60f7 b2bd bc9d fd3b
00000020: e60d 32bd 82ab 5abd 35c8 7e3d b51e 273e
00000030: 0886 aebc 83f9 e1bd 8dfe 663d c6cc 9a3d
00000040: 0590 b739 3f14 4eba 16ab d43a 9edd 8439
00000050: e9a5 31bb c26a fdb9 443d 4a3b 866a ee3a
00000060: 20ec 0b3b cf96 bc39 9301 80ba 54bb f3b9
00000070: cfa5 e639 c4fa c2b9 2261 9aba 9c59 8b3a
00000080: c788 8abc 7a2a 46bd 81d2 f7ba d0d0 f2bd
00000090: 62ae 8c3b aba7 d83d 580f 54bb 37ec 3bbd
000000a0: 8786 35bc 6625 573b 7850 d23c 1021 4ebd
000000b0: 6ddc ba3d 291b 94bb 62f8 79bd 910a ea3c

encoder.layers.1.self_attn.out_proj.weight f4 [16, 16]
-0.059909645 0.07500482 0.17784333 -0.07973193 -0.16580035 -0.1550085 -0.02115384 0.0140253175
0.072801895 -0.22109377 0.096251406 0.28443855 0.17673992 -0.16255246 -0.0066570924 -0.14605092
0.040304337 0.010034206 0.18525057 0.15054291 -0.088069655 0.017109282 -0.108263165 -0.09240804
-0.0789892 0.017928675 -0.25504485 0.017479263 -0.08172613 0.23420554 0.084112085 0.012246936
0.1831909 -0.21479492 -0.030864136 -0.11527506 0.06098549 0.14834364 -0.1349474 0.10957102
0.114898086 -0.04260687 0.105646744 -0.057397056 -0.10480539 -0.18379374 0.12575537 0.04292032
-0.15097809 0.18439573 0.0694882 0.20901835 0.032642704 0.028947271 0.079720415 0.08189877
-0.017686628 -0.09450302 0.08176309 -0.2034199 0.2350192 0.06719621 0.04026886 0.086127244
0.21726523 0.041386243 0.005650857 -0.28565848 0.20785673 0.101296104 0.16027668 0.027884616
0.04419585 0.018726064 0.15532398 -0.24798596 0.24454921 -0.20221601 -0.2395794 -0.13890423
-0.1294878 0.04489657 0.16650529 -0.2975935 0.052979376 0.1995024 -0.22788094 -0.027202202
-0.014456566 0.015185856 -0.10430164 -0.02066282 0.07336287 -0.0848584 -0.15269698 -0.1370591
-0.29579923 0.11287906 -0.026824953 0.05082166 -0.0628837 0.043045767 0.056654885 -0.1850681
0.015220303 0.10049831 -0.2945508 -0.0391671 0.09669327 0.21089627 -0.023364512 -0.050114196
0.05793344 -0.15963517 -0.284293 -0.1908644 -0.1782724 0.0034447638 0.10020869 0.12674665
0.18172544 -0.08651014 0.10553692 -0.08225773 -0.122631304 0.12556277 0.06931744 -0.27495477
-0.053403385 0.0729371 0.08254008 0.11744288 0.04358947 -0.04591144 0.20574696 -0.16760772
-0.02511466 -0.10185996 -0.079649255 0.051058736 0.11944855 -0.06476071 0.08174122 -0.14869767
0.17896987 0.16790628 -0.17436454 0.097240396 -0.10432141 -0.1547742 -0.17880298 0.12776102
-0.099186674 0.25179476 0.108924955 0.05018735 -0.06318995 -0.24184784 0.07926044 -0.24173747
-0.12249028 -0.078889266 -0.068856925 -0.2294089 0.20672728 -0.22650309 0.015753224 0.0030489452
0.10730661 -0.06656561 0.05932191 -0.20980561 0.011181029 -0.0016737097 0.109850414 0.005740351
0.07890806 0.25017178 -9.841012e-05 -0.045475848 0.036302652 -0.028367873 0.095690995 0.047956817
0.0648369 -0.14970095 -0.029035702 -0.15875384 0.1066365 0.17834626 0.1216863 0.009123253
0.2188544 -0.13699551 0.16439 0.013041219 0.1155959 -0.02640821 -0.14407565 -0.17852455
-0.00032211072 0.054347426 -0.19715343 -0.25470963 -0.1816982 0.060279205 -0.049892668 -0.18331757
0.21588974 0.16801722 -0.17392446 0.03729182 -0.100220494 -0.01099441 -0.019878553 0.07135868
-0.12789586 0.1899928 -0.11006672 0.020961763 -0.035864353 -0.15076093 -0.12203561 0.14613281
-0.008102338 -0.044586387 0.0822191 -0.18222743 -0.10334931 0.12123013 0.014248713 -0.2590068
-0.06416634 0.13763507 0.18395732 -0.07752256 0.21699984 0.023960836 0.08564499 -0.01179415
-0.10975129 0.10394879 -0.029864423 0.2671667 -0.13606475 -0.13589834 0.25457168 -0.16994108
-0.08257735 0.15547886 0.17919828 -0.028300168 -0.21006523 -0.016498538 0.27360773 0.08809174
00000000: d163 75bd 219c 993d 901c 363e 7e4a a3bd
00000010: 91c7 29be 8cba 1ebe d14a adbc 72ca 653c
00000020: 2919 953d 6866 62be 751f c53d eea1 913e
00000030: 4ffb 343e 2774 26be bd23 dabb 5f8e 15be
00000040: 2916 253d 8366 243c 53b2 3d3e ec27 1a3e
00000050: dd5d b4bd c428 8c3c 14b9 ddbd 6d40 bdbd
00000060: 17c5 a1bd 28df 923c 3d95 82be ac30 8f3c
00000070: 0760 a7bd 94d3 6f3e f542 ac3d 5fa7 483c
00000080: 6596 3b3e 33f3 5bbe c9d6 fcbc 5515 ecbd
00000090: eccb 793d 65e7 173e a72f 0abe c566 e03d
000000a0: b04f eb3d 8b84 2ebd 525d d83d 2d19 6bbd
000000b0: 35a4 d6bd 6d34 3cbe 04c6 003e 38cd 2f3d
000000c0: 009a 1abe 3cd2 3c3e d44f 8e3d e808 563e
000000d0: 5bb4 053d d422 ed3c 7544 a33d 8bba a73d
000000e0: 8ce3 90bc cd8a c1bd 6873 a73d 4e4d 50be
000000f0: e0a8 703e 2b9e 893d f6f0 243d 7b63 b03d
00000100: c77a 5e3e 9f84 293d d32a b93b d441 92be
00000110: 65d8 543e 5574 cf3d 921f 243e 476e e43c
00000120: b506 353d 6767 993c 400d 1f3e 08f0 7dbe
00000130: 1c6b 7a3e b711 4fbe 4d54 75be e93c 0ebe
00000140: 7398 04be 77e5 373d 5d80 2a3e 2d5e 98be
00000150: e700 593d 5b4a 4c3e 9f59 69be 27d7 debc
00000160: 3cdb 6cbc 19ce 783c 199c d5bd 1345 a9bc
00000170: 463f 963d 3eca adbd 995c 1cbe 3959 0cbe
00000180: ff72 97be 232d e73d 01c0 dbbc 5f2a 503d
00000190: 2bc9 80bd c250 303d f40e 683d 7e82 3dbe
000001a0: 945e 793c 0fd2 cd3d 5dcf 96be ae6d 20bd
000001b0: 1f07 c63d 31f5 573e ef66 bfbc 8b44 4dbd
000001c0: 9d4b 6d3d 6777 23be da8e 91be f571 43be
000001d0: 0a8d 36be 8cc1 613b 373a cd3d e0c9 013e
000001e0: 3c16 3a3e 3a2c b1bd be23 d83d be76 a8bd
000001f0: 1f26 fbbd 8793 003e 4df6 8d3d dfc6 8cbe
00000200: 82bd 5abd 0c60 953d c60a a93d e585 f03d
00000210: df8a 323d a20d 3cbd 55af 523e 5ca1 2bbe
00000220: 42bd cdbc f49b d0bd 261f a3bd f722 513d
00000230: 71a1 f43d 43a1 84bd f167 a73d 3444 18be
00000240: e143 373e a0ef 2b3e 9e8c 32be f925 c73d
00000250: 77a6 d5bd 217d 1ebe 2118 37be c9d3 023e
00000260: 6222 cbbd 3eeb 803e 0c14 df3d 4091 4d3d
00000270: bc69 81bd f6a6 77be 4c53 a23d 078a 77be
00000280: 2fdc fabd b290 a1bd dc04 8dbd 2bea 6abe
00000290: 51b0 533e 6df0 67be e80c 813c d0d0 473b
000002a0: 91c3 db3d 8d53 88bd 88fb 723d 48d7 56be
000002b0: a230 373c 6160 dbba 41f9 e03d 8e19 bc3b
000002c0: 8d9a a13d 8416 803e 8861 ceb8 e244 3abd
000002d0: 17b2 143d be63 e8bc a4f9 c33d 5e6e 443d
000002e0: 35c9 843d 354b 19be 48dc edbc 5e90 22be
000002f0: 3d64 da3d 67a0 363e ab36 f93d b279 153c
00000300: 5e1b 603e 8d48 0cbe da55 283e d6aa 553c
00000310: 8bbd ec3d 0856 d8bc 9188 13be 24cf 36be
00000320: f8e0 a8b9 689b 5e3d 97e2 49be 4d69 82be
00000330: 180f 3abe 54e7 763d 415c 4cbd 9ab7 3bbe
00000340: 3312 5d3e b50c 2c3e 4119 32be 4fbf 183d
00000350: 6740 cdbd e621 34bc 59d8 a2bc 8024 923d
00000360: 22f7 02be 798d 423e a96a e1bd 01b8 ab3c
00000370: 80e6 12bd 1361 1abe ceed f9bd d7a3 153e
00000380: abbf 04bc 37a0 36bd 7d62 a83d d499 3abe
00000390: cea8 d3bd 8147 f83d 6f73 693c 8a9c 84be
000003a0: a469 83bd 35f0 0c3e 4f5f 3c3e 26c4 9ebd
000003b0: 3535 5e3e 8449 c43c a466 af3d 403c 41bc
000003c0: 49c5 e0bd 1ae3 d43d 3ca6 f4bc 13ca 883e
000003d0: 8f54 0bbe ef28 0bbe 3857 823e 0905 2ebe
000003e0: 501e a9bd da35 1f3e c17f 373e c1d5 e7bc
000003f0: 571b 57be f127 87bc 5016 8c3e 7169 b43d

encoder.layers.1.self_attn.out_proj.bias f4 [16]
-0.0078072753 0.014413426 -0.029536912 -0.022656145 0.013098927 0.0023427242 -0.004419721 -0.011484119
-0.032733187 0.016851401 0.13619356 -0.014448404 -0.09440438 0.041467033 0.08494516 0.025499778
00000000: 2cd4 ffbb 4a26 6c3c 65f7 f1bc 6199 b9bc
00000010: e29c 563c 6488 193b 4fd3 90bb e327 3cbc
00000020: 3c13 06bd f30b 8a3c 5376 0b3e 00b9 6cbc
00000030: 1557 c1bd 56d9 293d baf7 ad3d e9e4 d03c
