log/20231223_011659/best_acc.pth (torch, 53260 bytes, 38 tensors)

encoder.layers.0.self_attn.in_proj_weight f4 [48, 16]
0.5639408 0.46446285 0.78217506 0.415358 -1.0230367 0.112269156 0.23601383 0.028123276
-0.124565884 -0.1567445 -0.30260605 0.10112691 0.8164275 0.3549038 0.28262702 -0.18711466
0.13269436 -0.124676876 0.0796191 -0.14552565 0.42854968 1.156664 0.14658412 -0.053472377
-0.031221054 0.18615699 -0.35709432 0.2241984 -0.3658123 -0.2101692 0.12011777 -0.77360755
-0.08034123 0.0122863455 -0.5159809 0.0026799042 -0.8362056 -1.0338097 -0.14201073 0.44727033
0.047849633 0.16172157 0.99797094 -0.37097028 -0.3136942 -0.023619903 -0.0814926 0.8032745
-0.27526146 -0.08126608 -0.43901545 0.34309292 1.609643 0.38747644 0.13447213 0.6012872
-0.06382297 -0.021187901 -0.7836575 -0.43618768 -0.06500801 -0.21982743 -0.052715346 -0.19404423
0.1357422 -0.09089761 0.87244064 0.20356648 -1.337658 -0.07130127 -0.04779985 -0.08754501
-0.11569991 -0.0055330666 0.15954667 0.19258799 0.21068545 0.58050114 0.42508036 -0.33921102
-0.18997991 -0.20531574 -0.06106628 0.07200293 0.5933261 0.24725226 -0.30506933 0.80630547
0.11723352 -0.42086607 -0.22709781 -0.53363943 -0.009079646 -0.3619743 0.016397748 0.6042591
0.02298666 0.18849126 -0.3279055 -0.4608304 1.3518633 0.89919424 0.11952208 -0.027011711
0.06538762 0.48793763 -0.75233996 -0.16426809 -0.44638786 0.2352764 0.12441205 -0.45662326
-0.044206724 -0.09161516 0.40485865 -0.26783466 -1.1356102 0.22916886 -0.08091974 -0.77830505
-0.00075268483 0.19678818 0.3981246 0.26600763 0.2443359 0.14085144 0.116688296 -0.43480223
-0.056995504 -0.12680382 0.111598335 -0.2671862 0.8792791 1.1793157 0.09775155 0.7539689
0.013715486 -0.04271574 -0.78605366 0.56533176 -0.3014117 0.017487632 -0.022486897 -0.5919788
0.2519826 0.033469386 0.1694879 0.1125266 -1.1893457 -0.5974124 0.0880267 -0.3526518
-0.08751576 -0.07274305 0.81781906 -0.1799595 0.043302424 -0.023328949 0.22445111 0.27272284
0.60244817 -0.0072322693 0.45436642 0.26102126 -0.044835098 0.9636858 0.069715865 0.21311493
-0.045469105 -0.26439655 -0.3412622 0.44755942 -0.042335246 0.1976027 0.22044519 -0.44431427
0.0070356857 0.3996774 -0.49282104 0.09217855 1.1533552 0.50176156 0.5124934 -0.057294942
-0.007897846 0.36337295 -0.14450252 0.10790323 -0.2714005 0.16478965 -0.081885375 0.11757125
0.04306796 -0.2506912 0.03704174 0.14918642 -1.1801676 -1.3451589 -0.4103831 -0.09128341
0.010629787 -0.12126431 1.0874424 -0.44967917 0.012767779 -0.20706016 0.21457563 0.49151653
-0.63604236 -0.31561318 -1.0863777 -0.6657931 1.3406718 -0.22414921 -0.10552704 0.73486626
0.23936567 -0.19276725 -0.122337475 -0.19215252 -0.528846 -0.6881072 -0.19094299 -0.10038805
-0.14081681 -0.31318352 0.29123923 -0.3900623 -0.5854977 -0.12763363 -0.2673092 0.58208716
0.02924603 -0.4101276 0.32337326 -0.0805229 0.20813857 0.28169551 0.30314386 -0.27274895
-0.7871668 -0.041497182 -0.19637223 -0.44532883 0.06273857 -0.29325956 0.10820433 0.8391184
0.30528238 -0.1481792 0.12893839 0.09177312 -0.050534315 -0.45611987 -0.15172698 -0.10412844
00000000: 6d5e 103f 13ce ed3e a03c 483f cea9 d43e
00000010: def2 82bf 5fed e53d 9cad 713e c962 e63c
00000020: 661c ffbd a181 20be 2eef 9abe a01b cf3d
00000030: 6501 513f f3b5 b53e 7db4 903e fc9a 3fbe
00000040: 08e1 073e 9756 ffbd 570f a33d ad04 15be
00000050: dd6a db3e 910d 943f 261a 163e da05 5bbd
00000060: 4cc3 ffbc f09f 3e3e 11d5 b6be 4494 653e
00000070: c04b bbbe 9836 57be 4e00 f63d 250b 46bf
00000080: f189 a4bd ab4c 493c 5317 04bf 55a1 2f3b
00000090: 9211 56bf e053 84bf 436b 11be 9e00 e53e
000000a0: fafd 433d 579a 253e 067b 7f3f d1ef bdbe
000000b0: 879c a0be 877e c1bc 98e5 a6bd 66a3 4d3f
000000c0: 12ef 8cbe d56e a6bd a2c6 e0be e0a9 af3e
000000d0: c808 ce3f 5063 c63e 10b3 093e f5ed 193f
000000e0: 9eb5 82bd 4092 adbc c79d 48bf fe53 dfbe
000000f0: eb22 85bd 711a 61be 0cec 57bd 88b3 46be
00000100: 0100 0b3e 8728 babd 4558 5f3f bb73 503e
00000110: 6138 abbf 6606 92bd c7c9 43bd cc4a b3bd
00000120: 13f4 ecbd ba4e b5bb 3460 233e c935 453e
00000130: edbd 573e b99b 143f 22a4 d93e 11ad adbe
00000140: 188a 42be 4a3e 52be a320 7abd 4676 933d
00000150: 38e4 173f b22f 7d3e 0c32 9cbe 096a 4e3f
00000160: 2118 f03d c27b d7be 548c 68be 989c 08bf
00000170: ccc2 14bc b254 b9be 9254 863c b9b0 1a3f
00000180: 854e bc3c da03 413e 3be3 a7be f6f1 ebbe
00000190: db09 ad3f 9831 663f fec7 f43d aa47 ddbc
000001a0: f2e9 853d f6d2 f93e 5a99 40bf e535 28be
000001b0: f38c e4be 4cec 703e bfcb fe3d 86ca e9be
000001c0: 1c12 35bd bba0 bbbd a249 cf3e a021 89be
000001d0: ad5b 91bf 3eab 6a3e 40b9 a5bd 003f 47bf
000001e0: d34f 45ba d782 493e fdd6 cb3e 2732 883e
000001f0: 3133 7a3e 5c3b 103e 46fa ee3d 669e debe
00000200: 1e74 69bd dcd8 01be ab8d e43d a1cc 88be
00000210: 6f18 613f d1f3 963f f731 c83d 1b04 413f
00000220: ebb6 603c b3f6 2ebd d03a 49bf 95b9 103f
00000230: a252 9abe 3942 8f3c 7136 b8bc ec8b 17bf
00000240: dd03 813e 3217 093d 3c8e 2d3e 5974 e63d
00000250: 7b3c 98bf 05f0 18bf 5847 b43d c78e b4be
00000260: 763b b3bd 4ffa 94bd 975c 513f 4e47 38be
00000270: e25d 313d 5a1c bfbc 83d6 653e 54a2 8b3e
00000280: 0b3a 1a3f acfc ecbb b7a2 e83e 94a4 853e
00000290: 02a5 37bd 1db4 763f 31c7 8e3d cd3a 5a3e
000002a0: d03d 3abd fc5e 87be ebb9 aebe 8226 e53e
000002b0: b967 2dbd 5d58 4a3e 62bc 613e 297d e3be
000002c0: 9c8b e63b 84a2 cc3e 0a53 fcbe 1cc8 bc3d
000002d0: 25a1 933f 7273 003f c432 033f 1aae 6abd
000002e0: f865 01bc 050c ba3e 78f8 13be 5efc dc3d
000002f0: 02f5 8abe 9ebe 283e 85b3 a7bd 32c9 f03d
00000300: 0768 303d 995a 80be 14b9 173d 53c4 183e
00000310: bb0f 97bf 2b2e acbf bc1d d2be ccf2 babd
00000320: 8f28 2e3c 6c59 f8bd 5031 8b3f 593c e6be
00000330: f22f 513c 9407 54be b7b9 5b3e 0ea8 fb3e
00000340: acd3 22bf 0d98 a1be 6d0e 8bbf 6b71 2abf
00000350: 229b ab3f 5f87 65be 901e d8bd 3220 3c3f
00000360: 461c 753e c764 45be 128c fabd a1c3 44be
00000370: 7462 07bf cb27 30bf 8f86 43be 4098 cdbd
00000380: 4832 10be 9759 a0be 4f1d 953e 3fb6 c7be
00000390: 2de3 15bf 64b2 02be c0dc 88be aa03 153f
000003a0: 5f95 ef3c 3ffc d1be 2e91 a53e 31e9 a4bd
000003b0: 4722 553e 653a 903e ac35 9b3e c0a5 8bbe
000003c0: c383 49bf f3f8 29bd cd15 49be 2402 e4be
000003d0: 147d 803d 1e26 96be 3b9a dd3d 77d0 563f
000003e0: f94d 9c3e 4abc 17be 6d08 043e 8cf3 bb3d
000003f0: 12fd 4ebd 8b88 e9be 515e 1bbe 4b41 d5bd

encoder.layers.0.self_attn.in_proj_bias f4 [48]
-0.26593652 0.2045705 -0.053333297 -0.119739644 -0.045886837 -0.17400582 0.26050562 0.12599838
0.06267621 -0.08558838 -0.6471397 0.13208051 0.2147328 0.14532447 -0.5730495 -0.536338
0.001746794 0.0033317534 -0.0054628835 0.0014265479 0.00057454576 -0.0019883877 -0.00019251206 0.0015549333
-0.0006265952 -0.0027372492 0.002671931 -0.0002494256 -0.0026874056 0.0065586073 -0.003014302 0.012459262
-0.064905286 -0.00992109 0.1056098 0.082123205 0.036815632 0.101575345 0.03167964 -0.09238914
0.06345914 0.08285809 -0.047767203 0.033082243 0.032575693 -0.1093345 0.033618685 -0.04032085
00000000: d528 88be ee7a 513e 0474 5abd 0f3a f5bd
00000010: d6f3 3bbd 952e 32be fe60 853e b805 013e
00000020: 635c 803d f648 afbd f3aa 25bf 1d40 073e
00000030: eae2 5b3e f0cf 143e 5fb3 12bf 724d 09bf
00000040: aef4 e43a 8c59 5a3b fd01 b3bb 01fb ba3a
00000050: 1d9d 163a 9c4f 02bb 10dd 49b9 e7ce cb3a
00000060: 1842 24ba 6c63 33bb 901b 2f3b 56c5 82b9
00000070: 2f1f 30bb 96e9 d63b 998b 45bb ef21 4c3c
00000080: 10ed 84bd 118c 22bc f349 d83d 3630 a83d
00000090: fdcb 163d bc06 d03d 83c2 013d 8436 bdbd
000000a0: def6 813d 81b1 a93d 8ba7 43bd 3f81 073d
000000b0: 176e 053d c4ea dfbd bfb3 093d 7a27 25bd

encoder.layers.0.self_attn.out_proj.weight f4 [16, 16]
-0.03520316 0.062312324 0.16069344 0.07072087 -0.1398922 0.030330727 0.1257857 -0.06820587
0.040555023 0.0004847472 -0.012517301 -0.011398324 -0.004759389 -0.19715723 -0.0028018074 -0.017562076
-0.09193742 -0.044830777 0.09249295 -0.018411338 -0.13357812 0.20045392 0.028223524 -0.13240737
0.054669436 0.007903144 -0.074222855 0.164852 0.19006526 -0.20416293 -0.11055118 -0.09752895
-0.1552681 -0.030494995 0.14151943 -0.043283816 -0.05935196 0.2840567 -0.16099402 -0.14279498
0.0652909 -0.14596485 -0.032042462 0.009048096 -0.049115658 -0.29914218 -0.073803775 -0.11079853
-0.037313137 -0.14297959 0.117071465 0.24678236 0.15590966 0.16994174 -0.040616497 0.041233953
0.027902778 0.101665705 -0.08239362 0.018199772 0.0760766 -0.22827454 -0.018407553 -0.17537498
-0.015839068 -0.08557977 -0.023150504 -0.008582685 -0.09539584 0.0664815 0.0110409055 -0.0021297126
0.013513453 -0.018368695 -0.02541959 0.054661747 0.03029156 -0.080220364 -0.031184524 -0.012305879
-0.03341342 -0.16374113 0.108917005 -0.05846617 0.05378771 0.10926628 -0.014971129 -0.09658698
0.11330577 0.1322426 -0.008701947 0.028899537 -0.038564738 -0.20724626 0.08447739 -0.12966356
-0.33022985 -0.16397755 0.03718718 0.042040017 -0.005326611 0.13444357 0.0506116 -0.16663785
-0.035353262 -0.1382005 -0.31923923 0.18221596 0.1548539 -0.26000378 -0.043672945 -0.24117653
0.022506276 0.0041951207 0.01817945 -0.031013595 -0.09066419 0.20687044 0.19950044 -0.04319845
-0.062463317 -0.22495003 -0.02507694 0.15564819 0.09609 -0.31394997 -0.10067313 0.021320092
0.014814693 -0.18720095 -0.038230207 0.047733687 0.012831779 0.07871806 -0.04094726 -0.025696037
0.16539448 0.004327393 -0.1305287 0.00213957 0.05600443 -0.11817421 -0.010237943 0.06229253
-0.01941428 -0.022831615 -0.07842659 -0.036022015 -0.0375919 0.04310066 -0.012746624 -0.043812137
0.0088866055 -0.0076916544 -0.0021136822 -0.040732007 0.011400599 -0.019039005 -0.032451067 -0.011257985
-0.015968006 0.02879152 0.0014833069 -0.01667308 -0.005182488 0.006805795 0.002162645 0.014961293
0.008382502 0.01502303 0.01927641 -0.013589922 -0.01691618 0.048718847 -0.00017462665 0.0064174626
0.06662579 -0.026661908 0.07390467 -0.047374114 -0.04137449 0.108412415 0.06068224 -0.061232805
-0.05844375 0.063304976 -0.05695682 -0.034037303 -0.043474313 -0.051157918 0.030922819 -0.08710636
-0.08729871 -0.08536165 0.054778706 0.025385989 0.11200082 0.22423236 -0.10126792 -0.18350825
-0.17497534 0.07925043 -0.021299336 -0.03824076 0.057128165 -0.31879917 -0.14700168 -0.040394377
-0.13306028 0.09050258 -0.10853021 -0.015193544 0.060724676 0.10723802 -0.09564001 -0.07808005
0.07725426 0.2543435 0.029757967 0.030749429 0.02385938 -0.1803437 0.08602219 0.08673522
-0.030516038 -0.105338216 0.15574546 -0.021082321 0.067925714 0.2649402 0.013333823 -0.13799545
-0.0058561782 -0.19583574 -0.1250308 -0.01772673 0.15625598 -0.25605997 0.024587769 -0.12775932
-0.074185155 0.14600083 -0.0024836815 0.0075994954 -0.104368 0.040493734 -0.006413589 -0.23432703
-0.06288448 0.025523309 0.017498607 -0.059709672 -0.025938448 -0.24140161 -0.08238878 -0.04964213
00000000: 3031 10bd 353b 7f3d d28c 243e 1ad6 903d
00000010: e73f 0fbe 2578 f83c f7cd 003e 85af 8bbd
00000020: 061d 263d ab25 fe39 5e15 4dbc 09c0 3abc
00000030: a6f4 9bbb 96e3 49be 879e 37bb 58de 8fbc
00000040: b049 bcbd 7aa0 37bd f26c bd3d 60d3 96bc
00000050: b4c8 08be cb43 4d3e 0535 e73c cc95 07be
00000060: 0fed 5f3d 307c 013c 2702 98bd f6ce 283e
00000070: 78a0 423e 1610 51be a868 e2bd 42bd c7bd
00000080: 9afe 1ebe a4d0 f9bc 78ea 103e 5f4a 31bd
00000090: 0a1b 73bd e16f 913e 9edb 24be d938 12be
000000a0: 3cb7 853d cf77 15be f53e 03bd 773e 143c
000000b0: 802d 49bd 2a29 99be 6f26 97bd 57ea e2bd
000000c0: a9d5 18bd 3e69 12be 2ac3 ef3d 84b4 7c3e
000000d0: c8a6 1f3e 3505 2e3e 7c5d 26bd efe4 283d
000000e0: 5e94 e43c 1c36 d03d fcbd a8bd b017 953c
000000f0: 0cce 9b3d cdc0 69be 70cb 96bc 8095 33be
00000100: efc0 81bc 7244 afbd 20a6 bdbc 649e 0cbc
00000110: e55e c3bd 7427 883d eae4 343c a692 0bbb
00000120: 8867 5d3c f279 96bc be3c d0bc ffe4 5f3d
00000130: 0126 f83c 934a a4bd b076 ffbc 999e 49bc
00000140: 83dc 08bd c1ab 27be e10f df3d 397a 6fbd
00000150: 8050 5c3d 00c7 df3d 7749 75bc 65cf c5bd
00000160: db0c e83d 9b6a 073e 9c92 0ebc b9be ec3c
00000170: 0ff6 1dbd 5d38 54be 7b02 ad3d 86c6 04be
00000180: e313 a9be bbe9 27be 9651 183d 2732 2c3d
00000190: da8a aebb 93ab 093e 1c4e 4f3d 1da3 2abe
000001a0: 95ce 10bd 6f84 0dbe 5373 a3be d296 3a3e
000001b0: 0592 1e3e 371f 85be 67e2 32bd fbf6 76be
000001c0: 155f b83c 3977 893b 12ed 943c 3910 febc
000001d0: 26ae b9bd d8d5 533e d849 4c3e dcf0 30bd
000001e0: 89d9 7fbd 4d59 66be 286e cdbc 3d62 1f3e
000001f0: d5ca c43d 0dbe a0be b72d cebd 79a7 ae3c
00000200: 53b9 723c 9bb1 3fbe 4797 1cbd 6684 433d
00000210: 623c 523c ef36 a13d 50b8 27bd 7f80 d2bc
00000220: 2c5d 293e cecc 8d3b 51a9 05be 0738 0c3b
00000230: e764 653d 5205 f2bd 0cbd 27bc 7426 7f3d
00000240: b20a 9fbc 5e09 bbbc 1f9e a0bd d28b 13bd
00000250: f7f9 19bd 518a 303d 37d7 50bc 5b74 33bd
00000260: 2099 113c 460a fcbb b485 0abb 9bd6 26bd
00000270: 94c9 3a3c b0f7 9bbc 69eb 04bd 6973 38bc
00000280: 56cf 82bc 32dc eb3c 856b c23a fc95 88bc
00000290: dcd1 a9bb 2503 df3b 2abb 0d3b 3620 753c
000002a0: c356 093c 2823 763c 90e9 9d3c 44a8 5ebc
000002b0: cd93 8abc 6a8d 473d fc1b 37b9 9449 d23b
000002c0: 1a73 883d 136a dabc 555b 973d 5c0b 42bd
000002d0: 4c78 29bd 5407 de3d f18d 783d 40cf 7abd
000002e0: b762 6fbd 0aa6 813d 8e4b 69bd b36a 0bbd
000002f0: 1f12 32bd f78a 51bd da51 fd3c d264 b2bd
00000300: abc9 b2bd 17d2 aebd a35f 603d 47f6 cf3c
00000310: b060 e53d 2b9d 653e 8e65 cfbd 96e9 3bbe
00000320: bc2c 33be 0d4e a23d f27b aebc 58a2 1cbd
00000330: 39ff 693d a539 a3be 9c87 16be 9374 25bd
00000340: f440 08be 6b59 b93d 1645 debd 58ee 78bc
00000350: 70ba 783d 9b9f db3d e9de c3bd 6fe8 9fbd
00000360: 7b37 9e3d 5039 823e fbc6 f33c 3ae6 fb3c
00000370: bf74 c33c 05ac 38be 672c b03d 3ca2 b13d
00000380: c5fc f9bc 90bb d7bd bd7b 1f3e d5b4 acbc
00000390: a31c 8b3d 3ea6 873e 1b76 5a3c ae4e 0dbe
000003a0: 2fe5 bfbb 2a89 48be 1308 00be a637 91bc
000003b0: 9101 203e 4b1a 83be 4a6c c93c 57d3 02be
000003c0: 63ee 97bd 3e81 153e 43c5 22bb 3005 f93b
000003d0: e4be d5bd c2dc 253d 1629 d2bb 6df3 6fbe
000003e0: 94c9 80bd 4216 d13c 3d59 8f3c 2192 74bd
000003f0: de7c d4bc fc31 77be 73bb a8bd 8c55 4bbd

encoder.layers.0.self_attn.out_proj.bias f4 [16]
0.2155342 0.14299838 0.23346655 0.14387794 -0.018285194 0.27796137 0.1735444 0.17974368
-0.073270544 -0.041726742 -0.0051983544 0.13906907 0.14653097 0.15740485 0.23875424 0.22997421
00000000: ffb4 5c3e 2b6e 123e db11 6f3e bd54 133e
00000010: d5ca 95bc f450 8e3e a0b5 313e ba0e 383e
00000020: de0e 96bd a9e9 2abd f556 aabb 1f68 0e3e
00000030: 370c 163e bd2e 213e fe7b 743e 5c7e 6b3e

encoder.layers.0.linear1.weight f4 [64, 16]
-0.029447123 0.13549377 -0.06415812 -0.2861356 0.13637681 -0.15762804 0.20631136 0.20815879
-0.012530206 0.14332446 -0.1151783 0.20966697 -0.15990688 0.68689173 -0.4392067 0.3846112
-0.19016555 -0.14359182 -0.12366363 0.06546072 0.21491304 0.20687795 -0.062791854 0.2536166
-0.1671703 0.21263154 -0.038412984 -0.11594552 -0.46046275 0.5692926 -0.26657245 -0.10026845
-0.3350178 -0.26980886 -0.06276572 -0.07630362 0.36922923 -0.18616693 0.42760795 0.035129674
0.27557212 -0.21853682 0.32028088 0.26461855 -0.34773296 -0.019318953 -0.17602 -0.17138465
-0.3774106 0.08730816 0.23352073 -0.37856692 -0.039529473 0.030572535 0.1919035 0.30203292
-0.31362307 0.17739144 -0.12132984 -0.21834502 -0.15628877 0.29737416 -0.3721479 0.11038914
-0.3792675 0.13460709 0.1564016 -0.08847654 -0.2750557 -0.09517993 0.22230329 0.32615128
0.112182386 0.07947859 0.046317834 0.20005734 0.024072202 -0.059517685 -0.5236147 -0.21004306
-0.23159774 -0.006314633 -0.15105444 -0.012451408 0.072857976 0.032797117 0.0006233591 -0.036600184
-0.02665156 -0.117731184 0.17572893 -0.21931012 -0.028018368 0.13642432 -0.73578 0.14611398
-0.112525366 -0.3232572 0.17700832 0.0068259793 -0.33635977 -0.3171642 0.43914133 0.11986842
0.009812839 -0.25844043 0.13340423 0.17008078 -0.14254512 -0.021695282 -0.28257087 0.29815808
-0.2760207 -0.0033342722 0.38051248 0.11455118 0.072008096 -0.14305383 -0.24592456 -0.03209863
0.41459566 -0.3668658 0.30567265 -0.2151762 -0.04976644 0.14960074 -0.23483242 -0.12623516
-0.14771271 0.10133969 -0.19245018 0.08979653 -0.30024666 -0.16263223 0.07035195 -0.04930601
0.23818117 -0.4141726 0.25476256 0.04293479 -0.09207026 0.3982385 -0.30802843 0.44082633
-0.2286551 -0.15696219 -0.048107494 0.0024795972 0.44892743 -0.6185643 0.07461309 0.09924261
0.17455387 0.0489867 0.17174534 0.17251141 -0.058129705 -0.15297747 -0.2678611 0.20869048
-0.33506343 -0.12057842 -0.03546019 -0.3596004 -0.0429809 -0.29601097 0.3982588 0.09050498
0.10062704 0.09557313 -0.12889977 0.078600235 0.039256904 0.13223524 -0.20951678 0.14278598
-0.3019403 -0.049528938 -0.11676684 0.18505736 -0.3486089 0.025695596 -0.18809752 0.0031300765
-0.12290367 -0.44549617 0.057739988 0.0045532295 0.007191028 0.3437469 -0.05033873 0.09039528
-0.35478243 -0.043530464 -0.17983687 -0.11212242 0.32933336 0.009605298 -0.1656464 0.16220874
0.00835089 0.08330725 0.0059387735 0.4292009 -0.07142913 0.19250666 -0.38755655 -0.12306564
-0.34405446 0.08665612 -0.10514846 -0.4146533 0.008485591 -0.064757094 0.16671611 0.1273395
-0.15244742 -0.078004085 0.12596953 -0.12806058 -0.17901342 0.3358394 -0.22044617 -0.19276404
-0.07756566 0.15197226 0.111685336 0.06322642 -0.08674612 -0.34357634 0.30354443 0.17141245
0.035515618 -0.040673204 0.007706948 0.12303132 0.04826227 0.16052896 -0.21475638 0.11875745
-0.54527056 0.011053415 0.07251369 -0.24499297 0.0598406 -0.6076115 0.16618857 0.543654
0.06311616 0.101628244 0.10543633 0.017441887 -0.2068864 0.36835185 0.14496402 -0.08613533
00000000: 183b f1bc e1be 0a3e 5565 83bd 5e80 92be
00000010: 5da6 0b3e 3f69 21be 4943 533e 9427 553e
00000020: 7e4b 4dbc a6c3 123e 9ae2 ebbd f0b2 563e
00000030: a1be 23be 23d8 2f3f b3df e0be c2eb c43e
00000040: c2ba 42be bc09 13be 5b43 fdbd 4510 863d
00000050: 2a12 5c3e d0d7 533e 0499 80bd 09da 813e
00000060: b12e 2bbe 15bc 593e ef56 1dbd d874 edbd
00000070: c6c1 ebbe 29bd 113f 2f7c 88be 8c59 cdbd
00000080: 7487 abbe 6324 8abe 508b 80bd 1345 9cbd
00000090: 9d0b bd3e 8ba2 3ebe 6eef da3e 22e4 0f3d
000000a0: ca17 8d3e 1ec8 5fbe dbfb a33e 157c 873e
000000b0: 0e0a b2be c842 9ebc 963e 34be 757f 2fbe
000000c0: f63b c1be 9fce b23d 0f20 6f3e 86d3 c1be
000000d0: a8e9 21bd 4173 fa3c 5a82 443e 0fa4 9a3e
000000e0: 3493 a0be 1aa6 353e c77b f8bd d695 5fbe
000000f0: 2a0a 20be 6d41 983e 2b8a bebe b413 e23d
00000100: 5a2f c2be 71d6 093e be27 203e 3033 b5bd
00000110: 1ad4 8cbe b2ed c2bd 79a3 633e 4dfd a63e
00000120: e1bf e53d acc5 a23d c5b7 3d3d d5db 4c3e
00000130: 1133 c53c d1c8 73bd 9d0b 06bf 8715 57be
00000140: f527 6dbe fbea cebb 04ae 1abe fe00 4cbc
00000150: 9036 953d 4556 063d ec68 233a 13ea 15bd
00000160: 5f54 dabc 0c1d f1bd 49f2 333e d592 60be
00000170: c786 e5bc d1b2 0b3e 145c 3cbf e79e 153e
00000180: b373 e6bd f881 a5be ab41 353e 77ac df3b
00000190: 5937 acbe 5963 a2be 22d7 e03e 937d f53d
000001a0: 08c6 203c 4e52 84be 1e9b 083e a829 2e3e
000001b0: 59f7 11be 4eba b1bc 21ad 90be 2da8 983e
000001c0: 9652 8dbe ce83 5abb 88d2 c23e cf99 ea3d
000001d0: fb78 933d b47c 12be a6d3 7bbe da79 03bd
000001e0: e245 d43e d6d5 bbbe 2081 9c3e 2657 5cbe
000001f0: e5d7 4bbd f030 193e e977 70be ca43 01be
00000200: 0042 17be 2f8b cf3d a911 45be 3ee7 b73d
00000210: eeb9 99be 1089 26be af14 903d 19f5 49bd
00000220: c4e5 733e 6e0e d4be 3d70 823e 64dc 2f3d
00000230: 558f bcbd ebe5 cb3e e7b5 9dbe fdb3 e13e
00000240: 9024 6abe b2ba 20be 5d0c 45bd bd80 223b
00000250: d1d9 e53e 3b5a 1ebf bfce 983d b63f cb3d
00000260: 40be 323e 47a6 483d 03de 2f3e d5a6 303e
00000270: 6a19 6ebd 20a6 1cbe 1725 89be f5b2 553e
00000280: 6f8d abbe d2f1 f6bd b43e 11bd 8b1d b8be
00000290: bd0c 30bd c08e 97be 94e8 cb3e ad5a b93d
000002a0: 8d15 ce3d d8bb c33d 4dfe 03be 29f9 a03d
000002b0: d9cb 203d ad68 073e 918b 56be 7d36 123e
000002c0: eb97 9abe dbde 4abd 7423 efbd ad7f 3d3e
000002d0: de7c b2be 927f d23c a39c 40be f821 4d3b
000002e0: ebb4 fbbd 1318 e4be c480 6c3d 4233 953b
000002f0: b7a2 eb3b 98ff af3e fc2f 4ebd 2921 b93d
00000300: 0ba6 b5be 004d 32bd 2827 38be 70a0 e5bd
00000310: 629e a83e 8a5f 1d3c 369f 29be 0c1a 263e
00000320: 2cd2 083c fe9c aa3d 0b9a c23b 38c0 db3e
00000330: 7049 92bd 7720 453e d06d c6be d709 fcbd
00000340: e827 b0be c478 b13d 1358 d7bd 704d d4be
00000350: 2607 0b3c 5e9f 84bd a1b7 2a3e 4965 023e
00000360: 2d1b 1cbe 9bc0 9fbd 28fe 003e 5022 03be
00000370: 4b4f 37be 24f3 ab3e a4bc 61be f063 45be
00000380: bfda 9ebd 9e9e 1b3e 48bb e43d da7c 813d
00000390: f3a7 b1bd 3de9 afbe 2d6a 9b3e bf86 2f3e
000003a0: d378 113d f298 26bd 918a fc3b d8f7 fb3d
000003b0: a8ae 453d b461 243e 19e9 5bbe 1b37 f33d
000003c0: da96 0bbf 6219 353c 0f82 943d 70df 7abe
000003d0: 6b1b 753d 6d8c 1bbf 562d 2a3e e92c 0b3f
000003e0: 0c43 813d 7822 d03d 01ef d73d 4ae2 8e3c
000003f0: 07da 53be 9d98 bc3e 7371 143e b867 b0bd

encoder.layers.0.linear1.bias f4 [64]
-0.2326959 -0.22728765 -0.5772163 -0.48077607 -0.43722108 -0.53940237 -0.47477788 -0.17261387
-0.3969436 -0.4270637 -0.52671885 -0.13536684 -0.16940407 -0.38165656 -0.46373993 -0.22607988
-0.46702626 -0.33873925 -0.29748085 -0.44467926 -0.27523908 -0.3809896 -0.25752047 -0.45031422
-0.07012879 -0.34107885 -0.48418057 -0.39370224 -0.20354879 -0.4048696 -0.33654082 -0.24775496
-0.28085092 -0.5742996 -0.3496541 -0.2552986 -0.5312586 -0.33849138 -0.33732328 -0.28105935
-0.20073666 -0.62975544 -0.43996838 -0.3336444 -0.2531665 -0.22335018 -0.35544366 -0.43937457
-0.21096252 -0.37864682 -0.22397219 -0.42580277 -0.30005765 -0.4307988 -0.3916946 -0.40759417
-0.41514802 -0.36659896 -0.28528303 -0.25403348 -0.41229188 -0.41726324 -0.4803 -0.50786126
00000000: d647 6ebe 18be 68be 73c4 13bf 4828 f6be
00000010: 71db dfbe 4616 0abf 1616 f3be b1c1 30be
00000020: 313c cbbe 18a8 dabe 0cd7 06bf 9b9d 0abe
00000030: 4378 2dbe 7d68 c3be 526f edbe 7c81 67be
00000040: 111e efbe 3b6f adbe 694f 98be 00ad e3be
00000050: 23ec 8cbe 1211 c3be b9d9 83be 968f e6be
00000060: af9f 8fbd e3a1 aebe 84e6 f7be 5793 c9be
00000070: 186f 50be 114b cfbe 144f acbe 7ab3 7dbe
00000080: b1cb 8fbe 4c05 13bf dd05 b3be 80b6 82be
00000090: 9000 08bf be4e adbe a3b5 acbe 03e7 8fbe
000000a0: e98d 4dbe a737 21bf 8943 e1be 70d3 aabe
000000b0: 0a9f 81be e9b5 64be b6fc b5be b4f5 e0be
000000c0: 8f06 58be ffdd c1be f758 65be d202 dabe
000000d0: 28a1 99be a991 dcbe 328c c8be 2fb0 d0be
000000e0: 488e d4be dcb2 bbbe 9e10 92be ad10 82be
000000f0: ec17 d3be 87a3 d5be e2e9 f5be 3203 02bf

encoder.layers.0.linear2.weight f4 [16, 64]
0.12514201 0.052109048 0.33215567 0.060690384 0.13012081 -0.10709078 0.064263575 0.17045349
0.0851158 0.1576296 -0.13462193 0.18803717 0.11762689 0.17461877 -0.07385163 0.21333358
-0.007509023 -0.23896259 -0.19318672 -0.36454552 -0.041460663 0.29210076 0.17081003 0.3567623
0.12126401 0.06339707 0.20409308 0.10351021 0.15800214 0.13473068 0.03011372 0.07170599
-0.07448125 0.17752911 0.13914058 0.124094844 0.3747252 0.055614162 0.13868359 -0.06730022
0.17402068 0.20289604 0.13974111 0.018122794 0.008934777 0.20010403 -0.08440702 -0.03143633
-0.12380479 0.02414693 0.41530833 -0.080759354 -0.043112744 0.16332904 0.19980596 -0.008882795
0.1733095 0.115996435 0.38448775 0.17386489 -0.20363171 0.2714904 0.22368155 0.19356501
-0.08582629 0.13323739 -0.28272492 0.05308198 -0.121934146 -0.0038924378 -0.39555764 -0.6333554
-0.3890567 0.2013171 -0.1462416 -0.32261232 -0.008058964 -0.1608539 -0.15642868 0.020624667
-0.14786124 -0.26062965 0.029071746 -0.0076339003 -0.31358963 0.37702778 0.4848603 0.118540585
0.21605398 0.00029466176 -0.47182688 0.22387467 0.013718814 0.2765874 -0.3185027 -0.20304686
-0.06013546 -0.1627938 0.158152 -0.12678407 0.312246 -0.3190176 -0.050591994 -0.21021436
0.06523673 -0.11622769 -0.081820175 -0.016996099 -0.09463793 0.034451477 0.23483528 -0.03710565
-0.27761003 -0.18567635 -0.27133098 0.047624987 0.0033820437 -0.3081805 0.037752837 -0.1928738
0.13297759 -0.32516313 0.27183154 0.16869785 0.15607288 -0.24491344 -0.3553144 0.3465693
-0.1666444 -0.036846895 -0.11828508 0.26022512 0.28953436 -0.17398821 0.04491365 -0.3448894
-0.3388975 -0.05242649 0.20667213 -0.18251778 -0.20696513 0.09497491 0.013636841 0.174854
0.12853041 -0.4362094 -0.128415 -0.054629266 0.056224007 -0.32773602 -0.2513291 0.016022302
-0.45207244 0.06927136 0.23932981 -0.063500345 0.1153544 -0.25228932 -0.08510777 0.0341593
-0.33697683 0.03878135 0.052471075 0.35326585 0.009708862 0.7278047 -0.3901683 0.4357132
0.24463892 -0.05374523 -0.06480729 -0.12893032 0.09918957 -0.11896557 0.19983605 -0.33177587
-0.15274756 0.12092868 0.36360258 0.0014559648 -0.1820058 -0.012158329 0.14366265 0.1460156
0.4286986 0.17795932 0.18757792 -0.29398417 0.08375499 -0.19990997 -0.25735992 0.09944285
-0.18227623 0.08182292 -0.20149243 -0.07097206 -0.05004027 -0.44910514 0.1174923 -0.5086144
-0.17735189 -0.28827816 0.01596495 -0.3324492 0.0098544955 0.26481918 -0.031032719 -0.13913022
0.007951754 -0.4330945 -0.29865327 -0.5725872 -0.44698188 -0.046040986 0.012926572 -0.10403228
-0.25179192 0.3935698 -0.40041584 0.08699058 -0.2491312 -0.22358775 0.038935993 -0.06949861
-0.34514773 0.052119676 -0.50365424 -0.087419465 -0.13560018 -0.48431903 -0.27307224 0.20589855
0.034688648 -0.060835004 -0.2915292 0.17077766 0.2982177 0.4272613 0.059562977 0.18397257
-0.42555505 -0.070120685 -0.16360758 0.12163679 0.107172735 -0.22471984 -0.3710698 0.23380549
-0.18593748 -0.14796911 -0.029275224 -0.4740018 0.1103733 -0.22446968 -0.22158112 -0.067309745
00000000: 3a25 003e 4c70 553d 4f10 aa3e 7b96 783d
00000010: 643e 053e 6952 dbbd 9f9c 833d 5c8b 2e3e
00000020: 3151 ae3d a769 213e 55da 09be d18c 403e
00000030: 5ee6 f03d 43cf 323e 863f 97bd 1e74 5a3e
00000040: 400e f6bb 9cb2 74be bdd2 45be b6a5 babe
00000050: a8d2 29bd 3b8e 953e d3e8 2e3e 8ca9 b63e
00000060: 4459 f83d 53d6 813d c7fd 503e 29fd d33d
00000070: 50cb 213e d7f6 093e 0cb1 f63c 97da 923d
00000080: a089 98bd 31ca 353e de7a 0e3e 7025 fe3d
00000090: fbdb bf3e adcb 633d 1203 0e3e b3d4 89bd
000000a0: 7a32 323e fbc3 4f3e 4b18 0f3e 4176 943c
000000b0: 2c63 123c 12e8 4c3e 96dd acbd 62c3 00bd
000000c0: 5e8d fdbd c8cf c53c 4ba3 d43e 2965 a5bd
000000d0: fd96 30bd ba3f 273e ef99 4c3e 2589 11bc
000000e0: 0c78 313e 8a8f ed3d 94db c43e a309 323e
000000f0: d584 50be ca00 8b3e c70c 653e e835 463e
00000100: b2c5 afbd 626f 083e 52c1 90be 7e6c 593d
00000110: 9cb8 f9bd 4518 7fbb 8886 cabe 9423 22bf
00000120: 7132 c7be 1226 4e3e 5cc0 15be 712d a5be
00000130: bf09 04bc e2b6 24be d72e 20be 10f5 a83c
00000140: f068 17be 4071 85be df27 ee3c cc25 fabb
00000150: d28e a0be c909 c13e 9c3f f83e 68c5 f23d
00000160: 413d 5d3e d57c 9a39 4b93 f1be 673f 653e
00000170: e0c4 603c dd9c 8d3e c912 a3be 84eb 4fbe
00000180: 9a50 76bd 6bb3 26be 99f2 213e afd3 01be
00000190: b5de 9f3e 4656 a3be 8d39 4fbd 6f42 57be
000001a0: d69a 853d c808 eebd 5691 a7bd 673b 8bbc
000001b0: 88d1 c1bd fe1c 0d3d a978 703e 18fc 17bd
000001c0: e722 8ebe f121 3ebe e5eb 8abe 6b12 433d
000001d0: 47a5 5d3b d6c9 9dbe b8a2 1a3d b680 45be
000001e0: 472b 083e c87b a6be 812d 8b3e 21bf 2c3e
000001f0: 92d1 1f3e 97ca 7abe c5eb b5be 8871 b13e
00000200: d4a4 2abe c5ec 16bd 733f f2bd 3a3c 853e
00000210: d93d 943e f729 32be 60f7 373d 5895 b0be
00000220: f983 adbe 29bd 56bd dca1 533e f1e5 3abe
00000230: abee 53be 3582 c23d 0f6d 5f3c ed0c 333e
00000240: 7a9d 033e d756 dfbe 397f 03be f0c2 5fbd
00000250: 254b 663d 04cd a7be 35ae 80be 3441 833c
00000260: 0a76 e7be 25de 8d3d e012 753e 780c 82bd
00000270: ed3e ec3d 112c 81be fc4c aebd 9fea 0b3d
00000280: 3a88 acbe 31d9 1e3d e9eb 563d 43df b43e
00000290: eb11 1f3c 6951 3a3f 24c4 c7be cd15 df3e
000002a0: a082 7a3e f523 5cbd afb9 84bd 4f06 04be
000002b0: e723 cb3d 39a4 f3bd d2a1 4c3e 87de a9be
000002c0: db69 1cbe 75a9 f73d 1e2a ba3e 12d6 be3a
000002d0: ba5f 3abe ba33 47bc 4d1c 133e 1d85 153e
000002e0: 627e db3e f83a 363e 6d14 403e 1885 96be
000002f0: bc87 ab3d 33b5 4cbe aec4 83be b1a8 cb3d
00000300: 9fa6 3abe c692 a73d 0854 4ebe cd59 91bd
00000310: 07f7 4cbd 1cf1 e5be ce9f f03d 8e34 02bf
00000320: bc9b 35be 3299 93be edc8 823c c836 aabe
00000330: c074 213c 6196 873e 5438 febc 2778 0ebe
00000340: 1348 023c 90be ddbe 15e9 98be 1395 12bf
00000350: cfda e4be 7995 3cbd f9c9 533c e00e d5bd
00000360: dfea 80be fb81 c93e 4e03 cdbe 1e28 b23d
00000370: 401c 7fbe 30f4 64be 597b 1f3d 4a55 8ebd
00000380: 34b7 b0be 717b 553d 7cef 00bf fa08 b3bd
00000390: c6da 0abe aaf8 f7be 20d0 8bbe 12d7 523e
000003a0: af15 0e3d 202e 79bd 5143 95be 57e0 2e3e
000003b0: feaf 983e fec1 da3e 4ff8 733d 4e63 3c3e
000003c0: 5ae2 d9be 6f9b 8fbd bf88 27be b61c f93d
000003d0: 617d db3d f51c 66be dcfc bdbe b56a 6f3e
000003e0: 6566 3ebe 3785 17be 98d2 efbc 5db0 f2be
000003f0: 660b e23d 61db 65be 29e6 62be b1d9 89bd

encoder.layers.0.linear2.bias f4 [16]
-0.07397846 -0.069034226 -0.09617999 -0.11954937 0.031060088 -0.017518813 0.024377076 0.028280241
-0.0148086455 0.057648234 -0.0050508925 0.028214369 -0.070195824 0.06386866 -0.055730425 -0.12120029
00000000: 0582 97bd d161 8dbd 04fa c4bd 4dd6 f4bd
00000010: ba71 fe3c 9d83 8fbc 6fb2 c73c f7ab e73c
00000020: f69f 72bc 8e20 6c3d f581 a5bb d221 e73c
00000030: d4c2 8fbd 92cd 823d 9645 64bd dc37 f8bd

encoder.layers.0.norm1.weight f4 [16]
0.507092 0.35962376 0.49695462 0.46360525 1.4035342 0.5417162 0.30184203 0.32590792
0.26227957 1.4964371 2.2932823 1.0817668 0.36594734 0.60665655 0.32621565 0.74037784
00000000: c8d0 013f 9b20 b83e d670 fe3e ab5d ed3e
00000010: 02a7 b33f eaad 0a3f 0a8b 9a3e 67dd a63e
00000020: 8249 863e 408b bf3f 23c5 1240 5677 8a3f
00000030: 735d bb3e d84d 1b3f bd05 a73e 6789 3d3f

encoder.layers.0.norm1.bias f4 [16]
0.63181823 0.08329966 -0.03348535 0.22177777 0.20787078 0.19981505 -0.20342681 -0.4440594
0.18000197 0.28783903 -0.17283267 0.13778439 0.053838786 -0.7192967 0.93118405 -0.06075222
00000000: d7be 213f 0399 aa3d ef27 09bd b619 633e
00000010: 14dc 543e 519c 4c3e 1e4f 50be c15b e3be
00000020: 7052 383e a35f 933e 0cfb 30be 5a17 0d3e
00000030: 0f86 5c3d d423 38bf 1462 6e3f 52d7 78bd

encoder.layers.0.norm2.weight f4 [16]
0.3914991 0.47382522 0.545634 0.4901644 1.5771612 0.9115788 0.58778733 0.49006206
0.99893874 1.3938721 1.6425774 0.87830293 0.602606 0.25361627 0.4960157 0.95384485
00000000: 9272 c83e 3899 f23e abae 0b3f d4f6 fa3e
00000010: 6be0 c93f 3a5d 693f 3b79 163f 6ae9 fa3e
00000020: 73ba 7f3f 676a b23f fa3f d23f 76d8 603f
00000030: 6344 1a3f fed9 813e c5f5 fd3e 2d2f 743f

encoder.layers.0.norm2.bias f4 [16]
0.8707481 -0.023023479 0.09358636 -0.046155363 -0.027353544 0.03936605 -0.20199257 0.027241705
-0.09428593 -0.70310724 -0.1666598 0.027529322 0.12895826 0.017544238 0.4060826 0.019288713
00000000: 59e9 5e3f bc9b bcbc 35aa bf3d 680d 3dbd
00000010: 8a14 e0bc 4c3e 213d 24d7 4ebe ff29 df3c
00000020: fb18 c1bd d6fe 33bf dea8 2abe 2c85 e13c
00000030: a20d 043e efb8 8f3c 0fea cf3e 5d03 9e3c

encoder.layers.1.self_attn.in_proj_weight f4 [48, 16]
0.014472513 0.1301146 0.116118886 0.1802364 0.12508821 -0.1297873 0.31918773 0.31603277
-0.07244498 -0.09269041 0.09259792 0.028777799 0.30642658 0.019876137 -0.19127372 -0.29938897
0.031148048 0.29930547 0.15758155 -0.0017716181 0.17294869 -0.08557223 -0.21346754 0.56704324
-0.28742945 0.00358586 -0.011242803 0.24467751 -0.013336547 -0.07174594 0.1712519 -0.23514985
0.09061802 -0.17964958 0.03276527 -0.27396837 -0.024855478 0.056779556 0.2052903 0.22244313
-0.13998392 0.20201987 -0.010209181 -0.029092524 -0.08106271 0.08428198 -0.016672738 -0.23752423
-0.23810944 0.24464497 -0.11728154 -0.038047787 -0.20451123 0.042285502 0.23220943 0.05014968
-0.13201517 0.19966492 -0.115904644 -0.21402209 0.40269604 0.18541132 0.22986612 -0.23726445
-0.19973297 -0.3866259 -0.14819235 0.3100263 0.055391356 -0.047754396 0.04737678 0.09729817
0.09603482 0.31221497 -0.17783315 -0.0021698403 -0.08794825 -0.023455082 0.37713903 -0.30972663
-0.31275496 0.011292096 0.39421305 -0.039370384 0.134632 0.0940808 -0.022656837 0.030619117
0.0125827165 0.044286184 -0.105650775 -0.54648095 0.12962206 -0.4066158 -0.1856856 0.17676184
0.082403004 0.12993692 -0.2975692 -0.25534898 -0.040247783 0.2388906 0.066567875 0.03274279
0.08343829 0.028490722 -0.1565617 -0.10144002 -0.1963618 0.20569542 0.081848085 0.14479573
-0.18876186 -6.8085385e-05 -0.17539999 -0.10091914 0.09831912 0.11293849 0.13985159 0.15936488
-0.055194307 0.09725034 -0.044718336 -0.2422076 -0.09809313 -0.015700664 -0.13790794 -0.16821979
-0.088050015 -0.056873877 0.19319811 -0.21177809 0.034501154 -0.16200979 -0.26140103 0.16912852
-0.010099227 0.026739035 0.050224535 -0.11141638 -0.15715814 -0.10428827 -0.2853936 0.27734604
-0.16816424 0.12775679 -0.22364227 -0.0013379116 0.017829252 0.41731226 0.46362358 0.3713926
0.10034105 -0.056365177 -0.019422106 0.17201738 -0.321957 -0.0073943925 0.23045975 -0.16923106
0.22188328 0.17963223 -0.23441014 0.30949178 0.1996283 0.25211027 0.28233838 0.24088646
0.20505162 -0.16341905 0.081426226 -0.22922343 -0.17946987 -0.036792606 0.04252333 0.14864148
-0.04026511 0.44162956 0.026207734 -0.02210526 -0.18861799 -0.025007991 0.2930133 0.083527274
0.038480274 0.30762687 0.013222331 -0.34027115 -0.13847819 0.16335663 0.016588485 0.43523997
0.11018173 -0.0030507469 -0.09181985 0.26929685 -0.053407982 -0.058653004 0.03779698 0.62754184
-0.082461216 -0.5013372 0.22497304 -0.06372231 -0.29365247 -0.027407331 -0.0832092 0.23878765
-0.28400272 -0.080273665 0.0039941664 -0.2159925 0.14296597 0.15668225 -0.31767982 0.11499535
0.043983683 0.036279134 0.21137346 -0.25658786 -0.1598493 -0.09398254 -0.2648339 0.23127759
-0.19190949 0.106701106 -0.1870667 -0.32844773 0.3129125 -0.024152935 -0.2501413 0.12709929
-0.22945763 0.08148431 0.19488364 0.019960118 -0.104941145 0.22293606 0.23769729 -0.041017503
-0.33122507 -0.00916224 0.07391042 0.37552214 0.063086644 0.3104137 0.39798662 -0.30638504
0.27572197 -0.26738146 -0.20982838 0.096312664 0.32830924 0.15978897 0.01533109 -0.00940707
00000000: 1f1e 6d3c c33c 053e bdcf ed3d e48f 383e
00000010: 2017 003e f6e6 04be 936c a33e 0ccf a13e
00000020: 095e 94bd 78d4 bdbd faa3 bd3d 6bbf eb3c
00000030: f2e3 9c3e 48d3 a23c 42dd 43be 8349 99be
00000040: 312a ff3c 913e 993e 0f5d 213e a435 e8ba
00000050: 7619 313e 7e40 afbd 3c97 5abe bf29 113f
00000060: f429 93be bf00 6b3b bc33 38bc be8c 7a3e
00000070: 8881 5abc 89ef 92bd a85c 2f3e 1fcb 70be
00000080: f195 b93d 0ff6 37be e034 063d 9545 8cbe
00000090: b79d cbbc ae91 683d 9f37 523e 22c8 633e
000000a0: f257 0fbe 4cde 4e3e 6944 27bc 7253 eebc
000000b0: 3504 a6bd 089c ac3d 4495 88bc 8d39 73be
000000c0: f6d2 73be 3684 7a3e 4e31 f0bd ffd7 1bbd
000000d0: 646b 51be 9033 2d3d 4fc8 6d3e c069 4d3d
000000e0: fc2e 07be f674 4c3e 6a5f edbd 9b28 5bbe
000000f0: 2d2e ce3e 77dc 3d3e 0662 6b3e 74f5 72be
00000100: cd86 4cbe d4f3 c5be bcbf 17be c4bb 9e3e
00000110: 0ce2 623d 1d9a 43bd 280e 423d 4344 c73d
00000120: e7ad c43d a4da 9f3e e519 36be e133 0ebb
00000130: 361e b4bd df24 c0bc 5e18 c13e 7d94 9ebe
00000140: 6b21 a0be 7c02 393c 4bd6 c93e d742 21bd
00000150: f9dc 093e 6fad c03d d59a b9bc f1d4 fa3c
00000160: bd27 4e3c 6e65 353d 6f5f d8bd 2de6 0bbf
00000170: a5bb 043e f22f d0be 5e24 3ebe 0e01 353e
00000180: e8c2 a83d 2f0e 053e fd5a 98be 1abd 82be
00000190: dcda 24bd bd9f 743e bd54 883d 4e1d 063d
000001a0: b2e1 aa3d 6065 e93c b651 20be c9bf cfbd
000001b0: 1113 49be d2a1 523e f89f a73d 5545 143e
000001c0: ca4a 41be 10c9 8eb8 0e9c 33be b2ae cebd
000001d0: 895b c93d 4c4c e73d 4135 0f3e 8c30 233e
000001e0: 6d13 62bd 302b c73d 932a 37bd 4505 78be
000001f0: 0de5 c8bd ae9e 80bc bd37 0dbe cf41 2cbe
00000200: 9153 b4bd 95f4 68bd bad5 453e 5bdc 58be
00000210: 1551 0d3d e5e5 25be 5bd6 85be 0730 2d3e
00000220: 3a77 25bc d20b db3c 3eb8 4d3d 452e e4bd
00000230: 10ee 20be 1795 d5bd 1c1f 92be 4d00 8e3e
00000240: 3f33 2cbe add2 023e 7b02 65be dd5c afba
00000250: a70e 923c f4a9 d53e 1260 ed3e 2c27 be3e
00000260: 9c7f cd3d 2cdf 66bd 1c1b 9fbc 5325 303e
00000270: 8cd7 a4be a94c f2bb a4fd 6b3e e84a 2dbe
00000280: 5f35 633e 83f1 373e 3609 70be b575 9e3e
00000290: 5c6b 4c3e 9914 813e a88e 903e f1aa 763e
000002a0: 0df9 513e 5357 27be cbc2 a63d 8cb9 6abe
000002b0: f3c6 37be d8b3 16bd f12c 2e3d 7935 183e
000002c0: 07ed 24bd 451d e23e 9ab1 d63c 1716 b5bc
000002d0: 1325 41be 8fdd ccbc d705 963e 5910 ab3d
000002e0: 7e9d 1d3d 4581 9d3e 7aa2 583c 0538 aebe
000002f0: 3acd 0dbe f646 273e 93e4 873c c6d7 de3e
00000300: f5a6 e13d 0aef 47bb 0c0c bcbd 47e1 893e
00000310: 54c2 5abd 223e 70bd 02d1 1a3d 95a6 203f
00000320: 6de1 a8bd a257 00bf 555f 663e d880 82bd
00000330: 9e59 96be 5785 e0bc 9669 aabd c084 743e
00000340: ce68 91be 8566 a4bd 7fe1 823b 232d 5dbe
00000350: ac65 123e 5071 203e eea6 a2be af82 eb3d
00000360: 3c28 343d 6e99 143d 4972 583e 7c5f 83be
00000370: 89af 23be eb79 c0bd 4f98 87be 08d4 6c3e
00000380: ec83 44be 1c86 da3d 6a8e 3fbe 4d2a a8be
00000390: 1136 a03e 60dc c5bc 8512 80be 5126 023e
000003a0: f1f6 6abe 3fe1 a63d 948f 473e 6783 a33c
000003b0: 62eb d6bd 5a49 643e eb66 733e f801 28bd
000003c0: 5596 a9be 381d 16bc 595e 973d 7044 c03e
000003d0: 9233 813d 8bee 9e3e e7c4 cb3e 80de 9cbe
000003e0: 6e2b 8d3e 39e6 88be 40dd 56be 933f c53d
000003f0: 2618 a83e b89f 233e 412f 7b3c 1d20 1abc

encoder.layers.1.self_attn.in_proj_bias f4 [48]
-0.13359673 -0.05081473 -0.15649526 0.13465858 -0.0853047 -0.22270535 -0.029234368 -0.29005742
0.020788414 -0.09271557 0.13759664 -0.27710286 -0.14984687 -0.24483107 -0.06645672 -0.14167969
-0.00032330418 0.004308218 0.003996888 0.0019173496 0.0021892074 -1.228174e-05 0.0036939934 0.0005945745
0.0008003776 -0.002951921 -0.0018800512 -0.0006811652 -0.001883211 0.00039961687 0.0017311471 -0.0031799648
0.11515493 -0.0037482423 -0.0297596 -0.027072882 0.019898875 -0.03842912 -0.018650038 0.1285609
0.09280584 -0.06339964 -0.059930805 0.04305411 0.14783394 -0.15657805 -0.05034225 -0.20117362
00000000: 95cd 08be 1b23 50bd 4b40 20be f0e3 093e
00000010: 3bb4 aebd df0c 64be ea7c efbc 6882 94be
00000020: 774c aa3c a9e1 bdbd 22e6 0c3e 6de0 8dbe
00000030: 7571 19be ffb4 7abe 761a 88bd 7b14 11be
00000040: 2781 a9b9 f42b 8d3b 54f8 823b 944f fb3a
00000050: ce78 0f3b ac0d 4eb7 ed16 723b 38dd 1b3a
00000060: 6ed0 513a 0475 41bb 0d6c f6ba 3990 32ba
00000070: 13d6 f6ba ab83 d139 a8e7 e23a f566 50bb
00000080: 59d6 eb3d 12a5 75bb 68ca f3bc f3c7 ddbc
00000090: f702 a33c da67 1dbd f7c7 98bc 78a5 033e
000000a0: fd10 be3d acd7 81bd 017a 75bd 8259 303d
000000b0: c861 173e ff55 20be ad33 4ebd 7500 4ebe

encoder.layers.1.self_attn.out_proj.weight f4 [16, 16]
0.10922545 0.030132757 0.0613597 -0.10159714 0.021029321 -0.06396952 0.099605404 0.13224751
0.01624669 -0.058256328 0.09052544 -0.042391017 -0.038049705 -0.04865604 -0.16415022 -0.100501835
0.052900743 -0.121628344 0.076578304 0.08469433 -0.20320033 0.1847288 -0.13217622 -0.09213403
0.03929664 -0.013800557 -0.28354347 -0.07560713 -0.32275996 -0.02237326 -0.078424685 0.14753094
0.28355032 -0.11706612 0.14051732 -0.16135958 -0.06115872 0.02013934 0.13208248 0.018144293
0.14350969 0.10176655 0.13770688 0.12608702 -0.15176871 -0.27529523 -0.28660193 -0.10029806
-0.3501955 0.027858445 -0.13440506 0.110493146 0.19208878 0.07017466 0.22317979 0.22200827
0.17115316 -0.42277 0.23684227 0.045094382 0.14981997 0.114894934 0.07210551 0.09490738
0.09838929 -0.03213822 0.17102958 -0.08996066 -0.004497309 0.062259857 0.06081381 0.01667404
0.030987289 0.0001807753 0.013327602 -0.03662447 -0.0027731047 0.009683114 0.0065491134 -0.054109324
0.11138908 -0.043069642 0.20689553 -0.2828547 -0.14684716 -0.044732336 -0.03141588 -0.024114782
0.10108621 0.095491864 0.043344133 -0.046159897 -0.16747892 -0.1958868 -0.16338496 -0.023798732
-0.0059342603 -0.06583077 -0.39614594 0.17355902 -0.18628356 0.1196151 -0.07672865 -0.1561747
-0.14962018 -0.16729918 -0.11727773 0.17073189 0.14453797 -0.09428162 0.23166172 0.18085615
-0.10909873 -0.046029843 -0.459055 -0.032247644 0.0046731085 0.11873764 -0.12668659 -0.0606714
0.351002 -0.0827067 0.19326471 0.06371991 -0.12021257 0.101217 -0.04210563 -0.1876233
-0.01697032 0.0057082297 -0.0028955769 0.014670879 0.059717044 0.036508653 -0.015088441 0.04318917
-0.0014159528 0.017597912 0.026692163 -0.026438504 -0.008293812 -0.070363864 -0.023157865 -0.03317012
0.06673346 0.012464121 0.0092540495 -0.017904319 -0.07518827 0.035201296 0.05397961 -0.02761746
-0.0401657 0.008710326 -0.027753517 0.0068268813 -0.025353173 -0.00065571436 0.08486736 0.015492009
-0.021337664 -0.041975282 -0.0013903613 0.043609153 -0.05732024 -0.053915896 0.064576104 -0.0076220697
-0.006878664 -0.0025739216 -0.004067135 -0.024555363 -0.019464597 0.02871151 -0.0107236 -0.0032141441
-0.09426462 -0.030412637 -0.15247224 0.14058952 0.07592601 0.19734971 0.08804111 -0.024237394
-0.06110649 -0.011624582 0.114207484 -0.022420464 0.069466256 0.037041426 0.18492493 -0.114219874
-0.07283154 0.14572585 0.19553442 -0.18166098 0.039891735 -0.14346002 -0.107247904 0.08883443
0.22214963 0.06370074 -0.14836459 -0.08031513 0.15535708 -0.26550528 -0.41719934 0.05637827
-0.057370476 0.036391124 -0.35302585 0.11760888 0.047526818 0.08987617 -0.058038615 -0.20256254
-0.20046368 0.118316256 -0.17150031 0.019268367 -0.075928755 0.09435385 0.20124254 0.14381057
-0.023409165 -0.055292014 0.12849979 -0.03500053 -0.17456324 -0.1325906 0.009731532 -0.11434589
0.09600816 -0.1472409 0.05293198 -0.08052359 -0.07591982 -0.12335395 -0.21517332 -0.014375383
-0.09504218 -0.036774117 0.006961343 0.098971196 -0.049596068 -0.08670162 0.19175376 -0.022016395
-0.063846186 0.13135423 0.2008482 -0.19185962 -0.12598313 0.043420266 0.053473733 0.1176052
00000000: 98b1 df3d f9d8 f63c 4f54 7b3d 2912 d0bd
00000010: af45 ac3c 7402 83bd ebfd cb3d e46b 073e
00000020: c717 853c 309e 6ebd 6765 b93d 34a2 2dbd
00000030: 02da 1bbd 8e4b 47bd ff16 28be e8d3 cdbd
00000040: 73ae 583d 4818 f9bd 16d5 9c3d 3974 ad3d
00000050: bf13 50be 8c29 3d3e 3459 07be c4b0 bcbd
00000060: 83f5 203d bb1b 62bc 9c2c 91be e9d7 9abd
00000070: cb40 a5be 2148 b7bc 1f9d a0bd 5a12 173e
00000080: 822d 913e 5dc0 efbd c6e3 0f3e 723b 25be
00000090: 9181 7abd 42fb a43c a140 073e 57a3 943c
000000a0: 34f4 123e fb6a d03d 0803 0d3e f51c 013e
000000b0: 4269 1bbe 7ff3 8cbe 7dbd 92be 1269 cdbd
000000c0: d34c b3be 6537 e43c 7ba1 09be 3b4a e23d
000000d0: ecb2 443e bbb7 8f3d 3e89 643e 2356 633e
000000e0: c642 2f3e 4f75 d8be c886 723e e3b4 383d
000000f0: 686a 193e 094e eb3d 0eac 933d cd5e c23d
00000100: 5380 c93d 5ea3 03bd 6122 2f3e 4b3d b8bd
00000110: 2a5e 93bb 3104 7f3d e717 793d ff97 883c
00000120: 0ed9 fd3c 808e 3d39 045c 5a3c 8a03 16bd
00000130: fabc 35bb eca5 1e3c f299 d63b bda1 5dbd
00000140: f51f e43d cb69 30bd 6cdc 533e 55d2 90be
00000150: 1a5f 16be 4139 37bd f0ad 00bd 5d8c c5bc
00000160: 4906 cf3d 3d91 c33d 9e89 313d 2912 3dbd
00000170: 987f 2bbe 8d96 48be 634e 27be 8ff5 c2bc
00000180: 2f74 c2bb 48d2 86bd a4d3 cabe 75b9 313e
00000190: 1ec1 3ebe c3f8 f43d e923 9dbd 43ec 1fbe
000001a0: 0836 19be 7a50 2bbe 4e2f f0bd 57d4 2e3e
000001b0: c301 143e b916 c1bd bb38 6d3e 5b32 393e
000001c0: 286f dfbd ca89 3cbd 4209 ebbe 1b16 04bd
000001d0: e020 993b b82c f33d 21ba 01be 9382 78bd
000001e0: 89b6 b33e 2162 a9bd 2fe7 453e 967f 823d
000001f0: 0232 f6bd dc4a cf3d f476 2cbd 5320 40be
00000200: 5705 8bbc 1a0c bb3b b8c3 3dbb 205e 703c
00000210: dc99 743d 198a 153d 8235 77bc 21e7 303d
00000220: 7e97 b9ba 7f29 903c 86a9 da3c 9095 d8bc
00000230: c5e2 07bc ee1a 90bd 90b5 bdbc 64dd 07bd
00000240: 8dab 883d 5036 4c3c 4c9e 173c 14ac 92bc
00000250: 4ffc 99bd 3c2f 103d b919 5d3d 033e e2bc
00000260: ca84 24bd c1b5 0e3c 585b e3bc 08b4 df3b
00000270: 75b1 cfbc 3fe4 2bba f0ce ad3d 32d2 7d3c
00000280: 53cc aebc 46ee 2bbd c93c b6ba 839f 323d
00000290: a1c8 6abd ead6 5cbd 7a40 843d 8ec2 f9bb
000002a0: 6a66 e1bb 3daf 28bb 9a45 85bb 5428 c9bc
000002b0: 3874 9fbc 6734 eb3c 0ab2 2fbc 64a4 52bb
000002c0: cf0d c1bd ec23 f9bc af21 1cbe b3f6 0f3e
000002d0: 197f 9b3d 0b16 4a3e e64e b43d 808d c6bc
000002e0: cd4a 7abd 0875 3ebc 9de5 e93d 1fab b7bc
000002f0: 5344 8e3d c0b8 173d f65c 3d3e 1cec e9bd
00000300: b428 95bd 2839 153e 2d3a 483e 5605 3abe
00000310: 8465 233d 2fe7 12be caa4 dbbd d3ee b53d
00000320: 317b 633e 8975 823d e3ec 17be 427c a4bd
00000330: ed15 1f3e 4ff0 87be 279b d5be e7ec 663d
00000340: 4efd 6abd dc0e 153d cebf b4be eddc f03d
00000350: 7bab 423d ff10 b83d e6b9 6dbd 8e6c 4fbe
00000360: 5a46 4dbe cb4f f23d c79d 2fbe b2d8 9d3c
00000370: 8980 9bbd 973c c13d 8612 4e3e 1443 133e
00000380: 94c4 bfbc e179 62bd 7395 033e b75c 0fbd
00000390: b5c0 32be d5c5 07be 0171 1f3c 2e2e eabd
000003a0: ed9f c43d 52c6 16be 34cf 583d 8de9 a4bd
000003b0: da7b 9bbd ffa0 fcbd 6556 5cbe ba86 6bbc
000003c0: 79a5 c2bd 75a0 16bd fa1b e43b 69b1 ca3d
000003d0: 3f25 4bbd 9e90 b1bd 195b 443e ba5b b4bc
000003e0: cac1 82bd b981 063e 27ab 4d3e d976 44be
000003f0: b901 01be 73d9 313d 4607 5b3d ffda f03d

encoder.layers.1.self_attn.out_proj.bias f4 [16]
0.019246692 0.017814858 0.18557392 0.00053619535 0.06498568 0.24493057 -0.22349763 0.08327331
0.01150775 0.01811532 -0.03551654 -0.32931492 0.31653455 -0.37298533 0.020687215 -0.05310786
00000000: 3dab 9d3c 77f0 913c 1707 3e3e 768f 0c3a
00000010: 3617 853d 14cf 7a3e 90dc 64be 328b aa3d
00000020: 008b 3c3c 9466 943c cb79 11bd f79b a8be
00000030: d110 a23e eff7 bebe 3c78 a93c a187 59bd

encoder.layers.1.linear1.weight f4 [64, 16]
-0.25220942 0.06747912 -0.106309436 -0.035089515 0.14297192 0.0066365767 0.28280258 0.21069083
0.026984263 -0.08760664 0.16437301 0.4087103 -0.057156246 0.8172748 -0.20691957 -0.12527187
-0.28944454 -0.033008974 -0.13594368 0.19617821 -0.19719394 -0.026956897 -0.048339542 0.23008378
-0.14490612 -0.12434209 -0.083149016 0.15563878 -0.24890245 0.4901087 -0.29194313 0.007702111
-0.37094823 0.43270984 0.06146691 0.19213448 -0.029723147 -0.08432599 0.5266301 0.061399758
0.07719948 -0.09753181 -0.011672048 0.23930116 -0.22848321 0.10800404 -0.13198625 -0.041526813
-0.26177636 0.028067596 -0.06304325 0.12138327 -0.22446525 -0.07082262 -0.055630967 0.3926263
0.1282839 -0.029005893 -0.21058445 -0.11871412 -0.36002994 0.18469831 -0.37804642 0.39385986
-0.12499815 -0.12389225 -0.10621946 0.04867411 -0.23185325 -0.27944416 0.22185239 0.0049797203
0.3318553 0.2247016 0.17144287 -0.014816596 -0.20757303 0.08511285 -0.34075266 -0.14258549
-0.23718618 0.19363819 -0.07655545 -0.1309329 0.10449353 0.011156449 0.26736522 0.3332671
-0.048743356 0.049795132 0.044050675 0.0049737915 -0.5646763 -0.17010602 -0.14527929 0.17640527
-0.0028536601 0.018814242 -0.02250575 0.01753974 -0.085124634 -0.0787297 0.031251304 0.11547025
0.015568353 0.07049323 0.005434879 0.082993545 -0.08105694 0.06457825 -0.060126577 0.03091697
0.0019368366 0.007156846 0.013848216 0.025475215 -0.18209948 -0.37552518 0.4791182 0.0882677
0.26265734 0.048735645 -0.020778695 0.46135235 -0.25830612 0.20898762 -0.2732687 0.03434343
-0.22012101 0.082506046 -0.06342534 -0.12237101 -0.27392378 0.25852025 -0.050960198 0.011933221
0.25951126 0.13115221 -0.072221346 0.20517977 -0.13434893 0.36591676 -0.40429696 0.0014158809
-0.080991685 0.27303886 -0.23633496 0.17078312 -0.07420208 -0.15354168 0.20036088 0.12694149
-0.0056830416 0.137592 0.014665573 0.03504346 -0.08633563 0.18861133 -0.1552096 0.03133081
-0.13131851 0.18342546 0.08232348 -0.12595382 -0.16950169 -0.15929992 0.28553298 0.23315999
0.04890596 0.2005805 -0.016365753 0.08875498 -0.21462806 0.039745145 -0.2855577 0.14191744
-0.27560592 -0.002341085 -0.38231456 0.105933905 -0.18217422 -0.39062992 -0.09201953 0.2673252
-0.0456302 0.053714097 0.04346185 0.0882909 -0.30009755 0.17409603 -0.3116353 -0.0824977
-0.22941789 0.05433723 0.014017744 0.09620003 -0.086905144 -0.029326333 -0.19706325 0.010901442
0.13740355 0.23990108 -0.2526277 0.26133007 -0.0050494755 0.40960076 -0.69337064 0.12413947
-0.33688205 0.049227897 -0.31240147 -0.13685551 -0.14749905 -0.021326877 0.31086215 0.13642946
0.032800812 0.025255298 -0.07528646 0.012791577 -0.34468225 0.15336867 -0.30659708 -0.084316164
-0.254836 -0.022753531 -0.19204615 0.10459996 0.17174919 -0.09272133 0.551156 0.29806662
0.04752897 0.045887575 0.22061968 -0.23238507 -0.233402 0.20289388 -0.22071172 0.07601313
-0.44123682 0.10892287 0.022440651 0.15410267 -0.1043345 -0.106664516 0.14402321 0.3827973
-0.0078324005 -0.11117931 0.37276766 -0.08094065 -0.1313802 0.51559865 0.18315116 0.056829125
00000000: 9821 81be 7e32 8a3d c3b8 d9bd 06ba 0fbd
00000010: 3b67 123e a477 d93b 80cb 903e 56bf 573e
00000020: 1a0e dd3c 1c6b b3bd 6651 283e 7a42 d13e
00000030: ab1c 6abd ec38 513f b9e2 53be 4547 00be
00000040: 1332 94be 6b34 07bd d234 0bbe f1e2 483e
00000050: 35ed 49be b6d4 dcbc afff 45bd 159b 6b3e
00000060: 4562 14be 11a7 febd 084a aabd c65f 1f3e
00000070: 49e0 7ebe 87ef fa3e 9279 95be fd61 fc3b
00000080: edec bdbe 258c dd3e bac4 7b3d e7be 443e
00000090: f57d f3bc 1bb3 acbd 3bd1 063f 507e 7b3d
000000a0: c31a 9e3d c2be c7bd 1e3c 3fbc 5d0b 753e
000000b0: 81f7 69be 3931 dd3d 6727 07be 0518 2abd
000000c0: 8d07 86be 04ee e53c d21c 81bd cb97 f83d
000000d0: 38da 65be 730b 91bd 4cdd 63bd 5006 c93e
000000e0: db5c 033e c49d edbc 73a3 57be 6320 f3bd
000000f0: d855 b8be 8e21 3d3e 4d8f c1be 00a8 c93e
00000100: 08ff ffbd 38bb fdbd 9789 d9bd 815e 473d
00000110: f06a 6dbe 4e13 8fbe 462d 633e ec2c a33b
00000120: f0e8 a93e 2d18 663e b88e 2f3e 4fc1 72bc
00000130: 068e 54be a54f ae3d 2277 aebe ee01 12be
00000140: efe0 72be 1749 463e 1bc9 9cbd 4613 06be
00000150: b400 d63d 8ac9 363c 18e4 883e fca1 aa3e
00000160: 1da7 47bd fbf5 4b3d 7b6e 343d 30fb a23b
00000170: a08e 10bf 4630 2ebe 18c4 14be 95a3 343e
00000180: 7904 3bbb 5320 9a3c fb5d b8bc 80af 8f3c
00000190: d355 aebd 093d a1bd 5e01 003d ab7b ec3d
000001a0: 6812 7f3c c15e 903d 1217 b23b 85f8 a93d
000001b0: 2e01 a6bd 9a41 843d 4947 76bd 9645 fd3c
000001c0: 74dd fd3a fa83 ea3b a1e3 623c 66b1 d03c
000001d0: 4978 3abe d644 c0be fb4e f53e b2c5 b43d
000001e0: 067b 863e 079f 473d 1538 aabc 6036 ec3e
000001f0: b340 84be da00 563e e0e9 8bbe b2ab 0c3d
00000200: 6767 61be eef8 a83d 25e5 81bd a79d fabd
00000210: bd3f 8cbe c45c 843e a4bb 50bd 8e83 433c
00000220: a9de 843e c44c 063e c9e8 93bd a51a 523e
00000230: c492 09be 7159 bb3e 0300 cfbe 1495 b93a
00000240: f8de a5bd c0cb 8b3e cb01 72be c5e1 2e3e
00000250: 43f7 97bd 083a 1dbe 672b 4d3e f3fc 013e
00000260: cf38 babb ebe4 0c3e df47 703c bb89 0f3d
00000270: bcd0 b0bd 5423 413e 44ef 1ebe bc54 003d
00000280: 5c78 06be e2d3 3b3e 3699 a83d 0afa 00be
00000290: da91 2dbe 851f 23be 6131 923e 7ec1 6e3e
000002a0: 9e51 483d f964 4d3e 7911 86bc 2cc5 b53d
000002b0: 75c7 5bbe cecb 223d 9e34 92be ce52 113e
000002c0: 381c 8dbe e46c 19bb bcbe c3be e0f3 d83d
000002d0: e18b 3abe a500 c8be bc74 bcbd d9de 883e
000002e0: bce6 3abd 5003 5c3d 0e05 323d dcd1 b43d
000002f0: 63a6 99be 3b46 323e a98e 9fbe 8ef4 a8bd
00000300: 86ec 6abe b790 5e3d aeaa 653c 8504 c53d
00000310: 53fb b1bd c73d f0bc f3ca 49be f69b 323c
00000320: 84b3 0c3e a1a8 753e 6b58 81be 0ecd 853e
00000330: 1276 a5bb 31b7 d13e bd80 31bf d63c fe3d
00000340: ce7b acbe 31a3 493d 16f3 9fbe da23 0cbe
00000350: fe09 17be b4b5 aebc 5329 9f3e 2ab4 0b3e
00000360: 255a 063d 33e4 ce3c ca2f 9abd c393 513c
00000370: 317a b0be ad0c 1d3e 4bfa 9cbe f4ad acbd
00000380: dd79 82be 9d65 babc bfa7 44be 8138 d63d
00000390: 05df 2f3e aee4 bdbd 8f18 0d3f 309c 983e
000003a0: bdad 423d 9cf4 3b3d 20ea 613e 5af6 6dbe
000003b0: ef00 6fbe 6ac3 4f3e 4102 62be c6ac 9b3d
000003c0: cbe9 e1be f412 df3d 75d5 b73c 17cd 1d3e
000003d0: 54ad d5bd ed72 dabd d27a 133e 02fe c33e
000003e0: 7853 00bc fab1 e3bd 67db be3e 36c4 a5bd
000003f0: 8888 06be 46fe 033f fa8b 3b3e a8c5 683d
