log/20231223_011659/best_recall.pth (torch, 53389 bytes, 38 tensors)

encoder.layers.0.self_attn.in_proj_weight f4 [48, 16]
000000 2c 3f cd 3c ea 2b 25 3e c8 55 80 bc 58 fc 85 3e
       0.025054537 0.16130033 -0.015665904 0.26169086
000010 66 02 ae 3b 09 8e 82 be c5 13 32 3e 22 86 64 3e
       0.0053103445 -0.2549899 0.17390354 0.22316793
000020 2b 4d 07 3b d8 d6 25 be d0 6e db 3d 6c 12 4f be
       0.002064536 -0.16195238 0.10714495 -0.20221871
000030 53 4f 8e 3e 1b b4 65 be e6 ff 68 be 68 8e b2 bc
       0.27794895 -0.22431986 -0.22753868 -0.02179642
000040 4c 20 66 3e 5f 83 25 be f7 07 8d 3d de 03 21 bd
       0.22473258 -0.16163395 0.06886285 -0.03931033
000050 39 ae 37 be 5f 74 83 3e e5 d9 ab bc dd a3 8b 3e
       -0.17937554 0.25674722 -0.020977924 0.27273455
000060 18 36 16 3e 52 e0 f1 bc 30 9a df bd 52 41 37 3e
       0.14669073 -0.02952591 -0.10918081 0.17896011
000070 3c 88 a2 be a3 0d 5f bd 49 7a a2 3e 0a 83 98 be
       -0.31744564 -0.054456364 0.3173392 -0.29787475
000080 34 0f ff 3c 03 19 fe 3d 28 01 a2 be 59 e1 c9 bd
       0.03113518 0.12407114 -0.31641507 -0.09857435
000090 62 07 d8 bd b5 99 4f 3d 52 e8 ad 3d 2e fa 82 3e
       -0.10548283 0.050683696 0.08491577 0.25581497
0000a0 0c 54 3f be e8 31 5c 3e 42 de 55 3e 12 2b 25 be
       -0.18684405 0.21503413 0.20885566 -0.16129711
0000b0 35 65 a7 be 4f aa 9b 3d 62 dd fc bc 3a 93 06 3e
       -0.32694402 0.07600843 -0.030867282 0.131421
0000c0 8e d1 88 be 25 a2 2a bd bf 4f 53 bd 1c 7f 56 3e
       -0.26722378 -0.04165854 -0.051589724 0.20946926
0000d0 ef f4 66 3e 76 60 5f be a4 49 85 3e c4 f9 a1 3d
       0.22554372 -0.2181414 0.26032746 0.07908967
0000e0 29 14 b6 3d c2 8a 7b 3d 15 8a 3c be 03 a1 90 be
       0.08890564 0.061411627 -0.18412049 -0.28247842
0000f0 53 d8 86 3e 81 1e a3 bd 13 c9 ce 3c a9 87 3e be
       0.26336917 -0.079648025 0.025242364 -0.18606438
000100 13 73 60 be 9c 04 8b be d4 03 76 3e 66 57 80 3e
       -0.21918897 -0.27151954 0.24024898 0.2506668
000110 6d c6 f6 bd c7 d3 d8 bc cf c1 47 be bb 43 7f 3e
       -0.120495655 -0.02646817 -0.19507526 0.24928181
000120 85 cb 15 be fe 61 23 bc e8 0f 91 bb 7e 45 72 be
       -0.14628418 -0.009972094 -0.004426945 -0.23659322
000130 a2 07 36 be d1 98 78 3e bf d0 34 3e 8e 29 56 be
       -0.17776349 0.24277045 0.17657755 -0.2091429
000140 c7 82 35 be a5 dd a3 be f5 50 7b 3e e0 46 6c bc
       -0.17725669 -0.3200504 0.24542601 -0.014421195
000150 c4 53 5a bd 1b 3e 99 3e c2 f1 1b be a3 88 cb bd
       -0.05330254 0.29930195 -0.15228942 -0.09938171
000160 89 ba a8 3d c1 59 96 be d3 e9 a0 bd 7c e8 4d be
       0.08238704 -0.29365352 -0.078570984 -0.20108217
000170 f1 f7 5c 3e 16 80 ac be 30 1e 86 bd 33 60 69 3e
       0.21578957 -0.33691472 -0.065487266 0.22790603
000180 bf 99 c4 3d 97 d1 04 3e 0a 29 99 bd da 2a a2 be
       0.09599637 0.12970577 -0.07478531 -0.31673318
000190 75 44 3c 3e c2 b8 f8 3d 39 6c cd bd 31 b5 93 3d
       0.1838549 0.12144615 -0.100304075 0.07212294
0001a0 b1 06 45 3e c2 24 a3 3e 2d d6 48 be ed 71 11 be
       0.19240834 0.3186398 -0.19612952 -0.14203615
0001b0 34 b4 5b be d1 b7 a2 3e 63 30 4e 3e c7 5c 95 bd
       -0.21455461 0.31780866 0.20135646 -0.072930865
0001c0 f7 c0 8f be 6a f9 a9 bd 52 19 70 3c 1c 21 b4 bd
       -0.28076908 -0.08299525 0.014654474 -0.087953776
0001d0 85 c7 50 be 11 76 3b 3e bb 11 72 be 76 e2 7d 3d
       -0.2038861 0.18306758 -0.23639576 0.061983548
0001e0 0d 3f a1 3c b3 8f d1 3d 61 14 0a 3e 46 51 43 be
       0.019683385 0.102324866 0.13484336 -0.19073972
0001f0 de 23 b3 3c e1 6b d4 bd a0 24 00 bd 8c ac fe bd
       0.021867689 -0.10372139 -0.03128493 -0.124352545
000200 95 aa 34 be 2b dc 10 be aa 21 7c 3e 7f f9 1e be
       -0.17643197 -0.14146487 0.24622217 -0.15524863
000210 95 87 32 be 88 d7 48 3e e3 50 61 bd f6 8e 33 3e
       -0.17434533 0.19613469 -0.05500878 0.17535004
000220 99 a8 e1 3d 1c 10 77 be 1f c8 4d be a8 78 20 3e
       0.110184856 -0.24127239 -0.20095871 0.15671027
000230 01 97 da bc 10 10 99 bd fd 91 68 be 28 9d 35 be
       -0.026683332 -0.07473767 -0.2271194 -0.17735732
000240 8b 3c 2a 3e 2e cf 53 3d e8 37 1b be 12 fc 11 bc
       0.16624658 0.051711254 -0.15158045 -0.008910196
000250 a8 73 3e 3d 44 e7 51 3e fd 51 76 3e d3 06 3b 3e
       0.046497017 0.20498377 0.24054714 0.18264322
000260 9d cb 6a bd a6 8a 6e 3d af 87 a3 3d c8 4c b0 3d
       -0.057323087 0.058237694 0.07984864 0.08608395
000270 de ad 75 be 13 dc f5 bd 22 19 77 3e cf 16 98 3c
       -0.23992106 -0.120048665 0.24130681 0.018565563
000280 9c 50 88 3e 88 f0 8c 3e 79 82 c0 bd 2c bc 9e 3e
       0.26624 0.2752726 -0.09399886 0.3100294
000290 e6 72 85 3e 8d 7f 97 3d 21 22 26 3d 57 43 99 3e
       0.26064223 0.07397375 0.04055989 0.2993419
0002a0 89 00 76 3d ec 24 a2 bd bd 42 3a 3d 03 32 1b bd
       0.060059104 -0.079171985 0.045473803 -0.03788949
0002b0 3f 72 12 be a7 eb 74 3c 8f 0f 88 3d cc 77 69 3d
       -0.14301394 0.014948762 0.066435926 0.056999013
0002c0 ff 22 d4 bd cd b0 c4 3e e0 6d 32 bd 28 56 9e 3c
       -0.103582375 0.38416138 -0.043561816 0.019328192
0002d0 92 3b f0 3b 91 b7 fe 3d 41 5e a8 3e 49 a4 90 3d
       0.00733132 0.12437356 0.3288441 0.07062585
0002e0 a7 ca 18 be 67 a4 95 3e 2b 0e 6e 3e 33 1f a9 3d
       -0.14921056 0.29226992 0.23247592 0.08257904
0002f0 a0 f9 26 3d 07 c5 a2 3e 30 12 7d 3d f0 9c 01 3e
       0.040765405 0.31790945 0.061784923 0.12657523
000300 1b 2f 54 3e d1 01 6b be 74 68 8d 3c 3f 83 2d 3e
       0.20721094 -0.22949912 0.017261721 0.16944598
000310 42 ea 11 be 24 d7 21 be 82 39 43 be a5 5a 90 3d
       -0.14249519 -0.15804726 -0.19064906 0.07048539
000320 fc dd 2f bd f9 f9 40 be fb 07 72 3e 12 de 54 bd
       -0.04293631 -0.18845357 0.23635857 -0.051969595
000330 4c ce db bd ac fc 46 be c7 5e 73 3e 86 64 be 3d
       -0.107327074 -0.19432324 0.23766623 0.09296517
000340 9a f6 c7 bb 9e ab 66 be 16 fb 1d be 16 1c 87 be
       -0.0061023952 -0.22526404 -0.15427813 -0.26388615
000350 3d 2f f8 3d 86 5a aa 3d 81 b3 fd bd 77 8c 05 be
       0.12118385 0.08318047 -0.12387753 -0.13041864
000360 dc 30 57 3e 41 df 8c be 46 51 37 3e b1 36 51 be
       0.21014732 -0.2751408 0.17902097 -0.2043102
000370 94 41 92 3d 25 64 89 be 95 04 8b 3c d7 7f 82 bd
       0.07141414 -0.26834217 0.016969958 -0.0637204
000380 ba fa 54 be 61 60 9e bd 4b 63 78 bb 6b 01 3a be
       -0.2079877 -0.077332266 -0.003790098 -0.18164603
000390 37 0a 9a 3e 93 19 0c 3e b7 2c 44 be 58 f6 92 3e
       0.30085918 0.13681631 -0.19157682 0.2870357
0003a0 bb 8b 7b bd 66 42 44 3d ec 06 69 3d 1b 20 26 be
       -0.061412554 0.047914885 0.056891367 -0.16223185
0003b0 cf f7 1c 3e 19 0e ca 3d ef a0 db 3d 4e 62 fb bd
       0.15328906 0.0986597 0.10724055 -0.122746095
0003c0 8a 8f 50 be 86 28 55 3e bb b9 87 3e 7f f6 6c 3d
       -0.20367256 0.2081624 0.2650889 0.057852264
0003d0 5b 5c 50 3c d4 ee f9 3d 99 65 9c 3e 17 41 44 be
       0.012717332 0.12203756 0.30546263 -0.19165455
0003e0 ca 3a 71 3e fe 57 94 3d 0c cb af 3c c4 83 6a bd
       0.23557582 0.07243346 0.021459125 -0.057254568
0003f0 1a a1 84 3e 2d c0 8c be 99 04 44 be 8b 71 11 3e
       0.2590416 -0.27490368 -0.19142379 0.1420347

encoder.layers.0.self_attn.in_proj_bias f4 [48]
000000 b8 03 02 3d 65 a7 3a bd 42 37 24 bd 2f b6 31 bd
       0.031741828 -0.045569796 -0.04009176 -0.043386634
000010 d1 f5 5a 3d 2a 9f 5e bd b9 cd c3 3b a0 57 34 3d
       0.053457085 -0.05435101 0.005975452 0.04402888
000020 fc eb 8c 3d 99 c9 49 bd 05 ff bc bd 45 78 13 3c
       0.06880948 -0.049264524 -0.092283286 0.009000842
000030 cd f0 ae 3c 74 18 84 3d bb 67 84 3d 43 af 67 3d
       0.021355057 0.064499766 0.064650975 0.056563627
000040 50 59 bc 3a 84 bb 95 3a 89 53 97 ba fd 5e 1d 3a
       0.0014369879 0.0011423682 -0.0011545281 0.0006003229
000050 ca 31 e4 ba 14 ec 06 39 bb aa 64 ba fa da 49 ba
       -0.0017409858 0.00012867182 -0.00087229506 -0.00077001716
000060 e9 6a 92 3a fd e1 87 ba 0b 5b b3 ba 47 7a 8c ba
       0.0011170778 -0.0010367032 -0.0013683749 -0.0010717594
000070 45 5d 09 ba 33 dd 2c 3b 67 29 ed ba 41 46 aa 3b
       -0.00052400335 0.0026376962 -0.0018094004 0.005196363
000080 8b ab 17 bc ef c7 ac 3b 38 e4 d6 b9 cc 36 01 3d
       -0.009257208 0.0052728574 -0.00040987297 0.0315464
000090 d2 11 c9 3d 8b b0 7c bd 90 7f 9e 3d 24 13 c7 3c
       0.09817852 -0.061691802 0.07739174 0.02430112
0000a0 d2 7e 08 3d d4 00 66 3c 28 5c 84 3d 5c b3 ab bc
       0.03332407 0.014038283 0.0646289 -0.020959549
0000b0 8d 87 95 3c 2a bd 72 bd d8 53 4b bc 3f cc 3e 3c
       0.018253112 -0.059262432 -0.012410127 0.011645376

encoder.layers.0.self_attn.out_proj.weight f4 [16, 16]
000000 c9 3d 92 bd 14 a8 1d 3d f3 fc 39 3e 0c e0 bf bd
       -0.07140691 0.03849037 0.18162899 -0.093689054
000010 b1 59 80 be 98 b5 31 be 11 ba 27 be 9e ac 50 3d
       -0.2506843 -0.17354429 -0.16379572 0.05094587
000020 63 1f 54 3e 66 a5 13 bd 5f d3 c7 3d d1 72 2f 3e
       0.20715098 -0.036046408 0.09757113 0.17133643
000030 86 5d 3a 3e bc 1f 55 bd 81 ac 32 bd 25 cf 55 be
       0.18199739 -0.052032217 -0.043621544 -0.208798
000040 ac ed 0b bd 35 af 82 3b 05 db 0e 3e 29 e5 65 3e
       -0.03416221 0.0039881715 0.13950737 0.22450699
000050 fd 88 bc bd 4e 8a a9 3d cc 93 a8 bd 3c ff 60 be
       -0.09205816 0.08278333 -0.08231315 -0.21972364
000060 a5 ab 1e bd 4a 5a 39 3e 8f eb 80 be 50 5b 7d 3d
       -0.03873791 0.18100849 -0.25179717 0.06185466
000070 ee 97 34 be 24 02 1e 3e 17 1f 00 3e 04 86 9b bc
       -0.17636082 0.15430504 0.1251186 -0.018984802
000080 80 99 26 3d 44 c3 62 be 7a 27 b3 3d 2a 5b c0 bd
       0.040673733 -0.221448 0.08747764 -0.09392388
000090 1c ec c9 3d 27 28 89 3d ba 9d 55 be 6c 5d 73 3e
       0.098594874 0.066971116 -0.20860949 0.23766106
0000a0 38 8c 79 3e da ee b5 bd 89 73 d5 3c 10 02 c1 bd
       0.24369895 -0.08883448 0.026056068 -0.094242215
0000b0 fc 83 30 bd 36 39 54 be e2 f3 93 3d 06 7b 1c bc
       -0.04309462 -0.20724949 0.07224251 -0.009550815
0000c0 be cc 77 bd 74 3b 3b 3e 6c 95 2d 3e a0 6e 54 3e
       -0.06049799 0.18284398 0.16951531 0.20745325
0000d0 14 67 42 3e 85 28 20 3e 28 be 34 3e ed f0 c6 bb
       0.18984634 0.15640457 0.17650664 -0.006071201
0000e0 f0 ac 0b 3e a4 f0 b0 bd 5e 3b 97 3d 3e c6 0c bc
       0.13640189 -0.086396486 0.0738437 -0.0085921865
0000f0 24 e7 7d 3e 05 7a 1e 3e 15 4d 12 3d bb 72 55 3e
       0.24795204 0.15476234 0.035718042 0.20844547
000100 22 f0 41 3e 1e 2c 83 3d 88 5d b9 bd ee e5 4d be
       0.1893926 0.06404899 -0.09051043 -0.20107242
000110 d5 ba 2e 3e 55 e8 1a 3e b9 0c 18 3e ca e0 bc 3b
       0.17063458 0.1512769 0.14848603 0.0057641016
000120 45 c5 dd 3c b2 0c 63 3d 03 1f d1 3c 52 65 37 be
       0.027071605 0.05543203 0.025527483 -0.17909744
000130 cd 9f 67 3e df 7a 3f be 8f 80 29 be 74 9e 55 be
       0.22619553 -0.18699215 -0.16552947 -0.20861226
000140 98 91 01 be ba 36 66 bc 75 e3 83 3d c7 6e 27 be
       -0.12653196 -0.014051134 0.06439868 -0.16350852
000150 06 7d 86 bc 07 e0 84 3e 64 8f 73 be a2 8b b2 bd
       -0.016417038 0.2595217 -0.23785168 -0.08718039
000160 fb 53 f2 3c 25 51 ba bd 7f 78 3e be f5 ce d5 bc
       0.02958106 -0.09097508 -0.18600653 -0.026099661
000170 48 3e dd 3d 60 0b bf bd 45 a9 09 be e0 79 50 be
       0.10802895 -0.093283415 -0.13443477 -0.20358992
000180 d2 7e 13 be e4 7c a3 bd 61 8b 36 be b8 da c9 3b
       -0.14403847 -0.07982805 -0.17826606 0.0061601065
000190 cb e8 03 be 5a 63 ec 3d ec fc 24 3e 94 26 92 be
       -0.12881772 0.11542387 0.16112107 -0.28545058
0001a0 5f e9 1d be 36 e2 97 bd ad 44 70 be 1e 6a 2f be
       -0.15421055 -0.07416193 -0.23463698 -0.17130324
0001b0 63 04 bf bb 26 9c ad 3d 0b 34 78 3d 9c ec 09 be
       -0.0058293804 0.084770486 0.060596507 -0.13469166
0001c0 ba 63 0d 3e f5 16 54 bd 80 14 4d be c9 94 00 be
       0.13807574 -0.051779706 -0.20027351 -0.12556757
0001d0 a1 4a 2d be ca 30 14 3e 58 fa 70 3e 37 9b be 3d
       -0.16923 0.14471737 0.23532999 0.09306949
0001e0 cc f3 07 3e dd f8 bd bc d6 66 1d 3e e0 d5 56 3b
       0.13276595 -0.023189956 0.1537126 0.0032781288
0001f0 13 d2 b1 bd 6e 83 a2 3d 86 3e 72 bc 25 a4 54 be
       -0.086826466 0.079352245 -0.014785415 -0.20765741
000200 32 21 e4 bb b7 30 44 be a0 e3 90 3e 1a 75 90 3d
       -0.006961965 -0.19159208 0.28298664 0.07053585
000210 71 ee 37 3e 22 06 71 bd ca a0 72 3e fb fd 79 be
       0.17962052 -0.05884374 0.23694149 -0.24413292
000220 08 58 97 3d 13 36 ed bd d8 ff 29 bc fd 89 93 3d
       0.073898375 -0.115825795 -0.010375939 0.072040536
000230 55 e5 18 3e 9b 3b 80 bc 43 cd db 3b bf d4 1f be
       0.14931233 -0.015653422 0.0067078187 -0.156085
000240 c6 f1 79 3d 45 09 c9 3d 4d a9 37 be 54 99 7c 3d
       0.06102159 0.09816221 -0.17935677 0.061669663
000250 fc 01 ae bd 85 4c 27 bb 07 cb 59 be 5e c9 2c 3d
       -0.08496472 -0.0025527787 -0.21268855 0.042184226
000260 11 80 4d be 71 d0 32 3e 64 8a 76 bd 6c b8 3f 3c
       -0.20068385 0.17462327 -0.060190573 0.011701684
000270 48 c2 8e 3d 83 8c ba bd 25 c5 25 3d ac 4f 34 be
       0.0697065 -0.09108832 0.040471215 -0.17608517
000280 6a 20 04 bd 94 c9 9b bd 59 65 17 be 5b 0e 64 be
       -0.032257475 -0.07606807 -0.14784755 -0.22271101
000290 f1 79 7d 3e 63 18 5e be 5d 76 de 3d 1c 1c ac 3d
       0.24753548 -0.2168899 0.1086242 0.08403799
0002a0 70 62 6a 3e 1b ee b3 bd 2b 3c e1 3d 51 8f 50 be
       0.22889113 -0.087856494 0.10997804 -0.20367171
0002b0 af e9 5c 3d 7a 5c 5e 3a aa 31 2f 3e ab 04 1c 3d
       0.053933796 0.0008482408 0.17108789 0.03809039
0002c0 93 4a b3 3d ae 25 c0 3d 5d 00 c2 bd 27 55 c3 3c
       0.08754458 0.09382187 -0.094727255 0.023844315
0002d0 81 1d 4c bd 78 40 07 be 67 7a 23 3e 01 70 95 bc
       -0.049832825 -0.13208187 0.15964662 -0.018241884
0002e0 b6 94 6b 3d d6 5b 99 bc 0d 8c 40 3d 74 7b 3a be
       0.05751487 -0.018720549 0.047008563 -0.18211156
0002f0 df b9 ff 3d a8 fe 2b 3e 99 71 09 3e df 7b 3f 3c
       0.12486624 0.16796362 0.1342224 0.011687248
000300 f0 ad 32 3e 5c 39 6f be f8 b1 96 3e d1 cf 2f bd
       0.17449164 -0.23361725 0.29432654 -0.0429228
000310 7e 82 5d 3e c5 a0 3d bd bd ea 61 be 22 0e 73 be
       0.2163181 -0.0462959 -0.22062202 -0.2373586
000320 da 2b 6c 3c 11 eb 77 3d c1 22 2b be 18 81 06 be
       0.014414752 0.06052691 -0.16712476 -0.13135183
000330 db aa 5d be 69 4a 0d be 3e 85 64 be 6a 3a 5e be
       -0.21647207 -0.13797916 -0.22316453 -0.2170197
000340 49 6f da 3d 66 9b 4f 3e 31 7c 46 be 44 3b b7 3d
       0.10665757 0.20274124 -0.19383313 0.08946851
000350 c3 3a 5d be 63 15 d2 3d 7e 58 8b 3d 5e 92 95 3d
       -0.21604447 0.102579854 0.06803988 0.07303308
000360 90 32 47 be 13 61 7a 3e 3d 2d 4c be 6f 6a 1e 3d
       -0.19452882 0.24451093 -0.19939132 0.03867572
000370 4e 74 62 bd ff b0 51 be 61 14 7f bd 30 af ff 3d
       -0.055286698 -0.20477675 -0.062275294 0.12484586
000380 1e 07 a5 3c d2 6b ca bd 4b 96 19 3e 7c 7f 5f be
       0.020144995 -0.09883846 0.14998738 -0.21825975
000390 81 b1 27 be d5 b1 dc 3d 56 62 da 3d e7 ed 36 be
       -0.16376306 0.10776106 0.10663287 -0.1786419
0003a0 45 50 3f be b0 1e b7 3d 9b e5 64 3e a0 84 46 be
       -0.18682964 0.089414 0.22353213 -0.1938653
0003b0 c1 0f ea 3d 69 9e 49 be 04 46 23 3e f2 1a 0c be
       0.11428786 -0.19689335 0.15944678 -0.13682154
0003c0 66 b8 3a be 61 3d a9 3d 1d 0f 42 3c 30 8a 32 3e
       -0.18234405 0.0826366 0.011844424 0.17435527
0003d0 5c 23 04 be c3 91 51 be 8f 25 48 3e 86 54 29 be
       -0.12904114 -0.2046576 0.19545577 -0.1653615
0003e0 fa e0 40 be 4c 10 19 3d 8b 7f 62 3e b6 11 20 bc
       -0.18835822 0.037369058 0.22118966 -0.009769848
0003f0 7b 7a 43 be 39 a9 1e be 7e 2e 60 3e 0b 4a 93 3e
       -0.19089691 -0.15494241 0.21892735 0.28767428

encoder.layers.0.self_attn.out_proj.bias f4 [16]
000000 f2 6c 04 3c f0 fd 03 3d f6 01 86 bc c3 5f 18 3d
       0.008082615 0.032224596 -0.016358357 0.0372007
000010 b8 e8 aa 3d d7 4b 08 bd 5c dc 4e bc ef f5 9d bd
       0.08345169 -0.03327545 -0.01262578 -0.07712924
000020 e6 36 b3 bc 63 45 30 3d e1 a4 66 3d 81 45 d2 3a
       -0.021876764 0.043034922 0.056309585 0.0016042442
000030 ea e1 b0 3c 40 3e f6 bc 0d 39 0d 3d 59 8a 49 3b
       0.0215921 -0.03005898 0.034478236 0.0030752628

encoder.layers.0.linear1.weight f4 [64, 16]
000000 e1 b9 1e 3e 33 4a 2e 3e cb 22 cf bc 6e 15 8f bc
       0.15500595 0.17020492 -0.025285145 -0.017466273
000010 3c 64 e2 3d ca e0 2e 3e d0 13 4f 3e 81 23 3b 3e
       0.110542744 0.17077938 0.20222402 0.18275262
000020 50 b0 35 be f5 ad aa 3d 94 61 8d be 18 98 1f 3e
       -0.17743039 0.08333961 -0.2761351 0.15585363
000030 55 99 02 3e 40 e2 34 3e 9e ed f8 3c 9f 78 71 3e
       0.12753804 0.17664433 0.030386742 0.2358117
000040 6b 29 8a be 95 b8 fa bd 3b 61 1e 3e ed 7e 83 bd
       -0.26984724 -0.122422375 0.15466778 -0.064206935
000050 21 78 a1 3e 91 bc 07 3e 94 b3 1f be 82 94 13 bd
       0.31536964 0.13255526 -0.15595847 -0.0360303
000060 da 6f 72 bd 60 38 83 3d 43 6b 8f be 47 97 8f 3d
       -0.0591887 0.06407237 -0.28011522 0.07011276
000070 c3 d9 71 be 94 b0 81 3e 99 48 2c be fd 8b 9a 3c
       -0.23618226 0.2533003 -0.16824569 0.01886558
000080 66 36 88 bd 18 22 58 3e 8b 3b 8f 3e 78 9e 42 3e
       -0.06651001 0.21106756 0.27975115 0.19005764
000090 9f 39 6e 3d 10 e6 1f bd 03 f5 b3 3d 7e 77 ac bc
       0.05816042 -0.039037764 0.08786967 -0.021053072
0000a0 a5 f3 64 3e ec 27 dc bd b0 b3 39 3e db 68 fc 3c
       0.22358568 -0.10749802 0.18134952 0.030811718
0000b0 6f aa 9b be 6f 62 3c be 6c 49 05 3e b0 f7 7d 3d
       -0.30403468 -0.18396924 0.1301629 0.06200379
0000c0 b2 d7 31 be f4 ee cd bd 3d ae 7c 3e aa d9 49 bd
       -0.17367437 -0.10055342 0.24675842 -0.049279846
0000d0 b5 32 88 be 58 6c 17 be 5d ba 3d be d9 a1 51 3e
       -0.26601186 -0.14787424 -0.18528123 0.20471896
0000e0 9e 14 7b bd ee b6 a1 3d 7d 86 71 be c3 bc 7c be
       -0.06129896 0.07896219 -0.2358646 -0.24681382
0000f0 98 83 e9 bd 01 18 2c 3e 86 e7 04 3e 55 04 66 3e
       -0.11402053 0.16806032 0.12978944 0.2246259
000100 6e f4 26 3d 6b 61 9c bd 01 df 67 3e b4 bb 65 be
       0.04076045 -0.076357685 0.22643663 -0.22434884
000110 d2 fb 18 be 28 04 4c 3b 70 32 e2 3c 00 b5 67 3e
       -0.14939812 0.0031130407 0.027611941 0.2262764
000120 cf 90 19 bc 1e e1 d7 3d 75 9a 75 3e 0c 1c 20 bd
       -0.009372904 0.105409846 0.23984702 -0.039089248
000130 db 9f 68 bd 0e 4a c9 bd 61 5d 7f be de 73 77 bd
       -0.056793075 -0.09828578 -0.24937965 -0.060413234
000140 b3 a6 33 bd 6a 7f 10 3e f7 29 cb bc fa 0e fc bd
       -0.04386015 0.14111105 -0.024800284 -0.12307544
000150 70 75 69 3d e1 4b cd 3d b3 b9 1b 3e da f2 52 3e
       0.056996763 0.100242384 0.15207557 0.20600453
000160 b7 96 51 3d c0 25 2a be dd 92 1e be 1b 46 05 3d
       0.051169124 -0.16615963 -0.15485711 0.03253756
000170 54 83 42 be aa e4 fd bd 40 a2 8e be 05 1c b3 3c
       -0.1899541 -0.1239713 -0.27858162 0.021863947
000180 b2 4b 4d 3e a2 77 3f 3c 0c 21 b5 bd cc 0a 38 be
       0.20048407 0.0116862375 -0.08844194 -0.17972869
000190 92 12 f5 3a 2e f7 22 be 35 ab 1d 3e da 87 08 3c
       0.0018697551 -0.15914604 0.15397342 0.008333171
0001a0 90 fb ab bd ce 0c cf 3b d8 ad 86 3d d5 4e 32 3e
       -0.08397591 0.006318665 0.06576127 0.17412885
0001b0 b7 09 ee bd 74 bb 0f be f8 32 37 3c 48 70 24 3e
       -0.11622947 -0.14036351 0.0111815855 0.16058457
0001c0 e7 fc cb 3d dd 6c 38 be 73 03 fc 3d f4 63 3e 3e
       0.09960347 -0.18010278 0.123053454 0.18592817
0001d0 bd d9 8b bc c8 fa f7 3d 2b db c5 bc 52 03 85 be
       -0.0170716 0.121083796 -0.024152359 -0.25979096
0001e0 1c 41 4b 3e 99 a9 aa 3b 30 8e 6f 3d 2e 80 99 3d
       0.19849056 0.005208206 0.05848521 0.074951515
0001f0 6b d3 4e be bc 65 61 3e 81 49 bb 3d 34 1c 25 3d
       -0.20197837 0.22011465 0.09144879 0.0403101
000200 76 cb e6 3d f7 f3 0f 3b b7 7e cc bd 51 a5 d3 bd
       0.11269276 0.0021965483 -0.099851064 -0.10334266
000210 55 da 83 be d4 92 01 3e 4c 30 33 bd 05 f3 f3 bc
       -0.25752512 0.12653667 -0.04374723 -0.029778967
000220 76 5e 17 3e e2 0c 03 3d d5 60 85 3e 89 7f 24 3e
       0.14782128 0.031994708 0.2605044 0.16064276
000230 20 05 93 be 5e 0e a2 3e ef c3 3c be dd ed 9d 3d
       -0.28714848 0.31651586 -0.18434118 0.077113844
000240 50 a6 23 be 47 a1 20 3e f4 3c 0d be 91 4f 39 3e
       -0.15981412 0.15686522 -0.13792783 0.18096758
000250 3e 83 60 3e fc 88 6b be 30 f6 5e 3d 1c 0a bb 3d
       0.21925065 -0.23001474 0.054434 0.091327876
000260 55 41 24 3e b5 4b 4a 3e 25 97 c9 3d a0 94 3f bd
       0.16040547 0.19755442 0.09843282 -0.0467726
000270 95 55 08 be 09 65 e7 bd e5 f2 e2 bd 3d 4f 5b bd
       -0.13313897 -0.11298568 -0.11081485 -0.053542364
000280 f3 dd 1c be 39 e2 be bd 50 71 49 bd c7 84 98 be
       -0.15319042 -0.09320492 -0.04918033 -0.297888
000290 45 f8 06 3e 73 bc 2d 3e a1 b0 54 3e 37 23 42 ba
       0.13180645 0.16966419 0.20770504 -0.000740576
0002a0 c7 fb 83 3d d5 da 8a 3e b7 83 18 be 42 31 4d 3e
       0.06444507 0.2712008 -0.14893995 0.20038322
0002b0 88 0d 88 bc 00 8a 41 be a6 c5 f3 bd 0a 88 33 3e
       -0.016608015 -0.18900299 -0.11902933 0.17532364
0002c0 68 09 52 be c0 d9 d0 3d f7 0a 8b be 8f 1c cc 3d
       -0.205114 0.101977825 -0.27156803 0.099663846
0002d0 f5 0f 0f be b3 41 f4 bd 72 c1 5c be 64 c4 c5 3b
       -0.13970931 -0.11926594 -0.21558169 0.0060353745
0002e0 60 33 fe bd cc 86 8b bd ba 71 60 be 02 d6 fe 3d
       -0.12412143 -0.0681282 -0.21918383 0.124431625
0002f0 83 7c 3b bd 6a 7f c2 bb 3e dd 5e 3d 1c 45 16 be
       -0.04577304 -0.005935599 0.05441021 -0.146748
000300 2f 5c 29 be 84 d9 47 3d c8 4f eb 3d 8c 7c f7 bd
       -0.16539072 0.048791423 0.114898264 -0.12084302
000310 02 e1 ae bc d6 4a 21 bd 67 e2 14 be 9b 62 a5 bd
       -0.021347526 -0.03937801 -0.1453949 -0.08075448
000320 b4 32 1c 3e ce 7b a9 bd f6 ee 2d be ba 95 44 3c
       0.15253717 -0.08275567 -0.16985688 0.011998588
000330 60 43 54 3e d7 31 28 3e ae 01 aa bd 0b da 88 3d
       0.20728827 0.16425262 -0.083011016 0.066822134
000340 1c d1 29 be 66 07 09 3e f9 3f 48 be 22 05 6b be
       -0.16583675 0.13381729 -0.19555654 -0.22951177
000350 0e 9f 1f 3e db 9e 3a 3e df 91 a7 bc a8 ba 1a bc
       0.15588018 0.18224661 -0.020455299 -0.009443916
000360 59 aa 0f be cb e3 0b 3e c1 d1 1f be 35 88 09 be
       -0.14029826 0.13661115 -0.15607359 -0.13430865
000370 c9 e1 28 be 2f 2f 9d 3d 4e e9 69 3d d3 1e 74 be
       -0.1649238 0.07675015 0.057107262 -0.23839884
000380 f2 7b 2e be dd b8 15 be fe 24 27 3e a1 f1 1c 3e
       -0.17039469 -0.14621301 0.16322705 0.15326549
000390 dc 87 00 be a1 5d 6d be 67 4f 8b 3e 45 f0 ae 3b
       -0.12551826 -0.23180248 0.27209017 0.005338701
0003a0 ba bb 32 3d c2 f6 53 3d 11 eb 2d bd 6d 6a d6 bd
       0.04363606 0.051749 -0.042460505 -0.10469518
0003b0 df 2b 6f 3d e5 3f 53 3e d9 0c 09 bd cc 9e 59 3e
       0.058391448 0.20629843 -0.033459518 0.21251982
0003c0 61 c9 1a be a4 a8 1b bd 26 e7 fe 3b 61 aa f6 bd
       -0.15115882 -0.038002625 0.00777902 -0.12044216
0003d0 23 fa 67 3d da 76 0f be 23 97 0b 3e e3 a9 63 3e
       0.056635033 -0.14010182 0.13631873 0.22232775
0003e0 b7 a8 dd 3c 42 6a 47 3e 62 30 68 3e c5 d1 41 3c
       0.027057989 0.19474128 0.22674707 0.011829798
0003f0 3e e8 da 3d 00 4e 64 3e ad 5d 7c 3e ee 18 94 3d
       0.10688828 0.2229538 0.2464511 0.072313175

encoder.layers.0.linear1.bias f4 [64]
000000 88 f3 44 3e b8 8b 01 bc 03 48 04 be a0 86 c8 3d
       0.19233525 -0.007906847 -0.12918095 0.09791303
000010 a3 14 81 bd 04 09 86 be cb 16 8b be 23 d7 fa 3b
       -0.06302764 -0.26178753 -0.27165827 0.007655041
000020 4c b8 95 be 49 47 f8 bd 82 c7 a5 bd a9 9d 92 3d
       -0.2924217 -0.121229716 -0.08094694 0.071589775
000030 2d 21 50 3e 6f 47 3f 3e d2 11 c1 3b f4 59 5a 3e
       0.20325156 0.18679594 0.005892017 0.21323377
000040 17 d0 12 be a9 f7 7d bd 7d 98 1b bd d5 19 06 be
       -0.14337192 -0.062003765 -0.03798722 -0.13095792
000050 0c 83 da bd c8 a7 48 be 02 53 2e bc 52 93 b0 bd
       -0.106695265 -0.19595253 -0.010639908 -0.08621849
000060 c3 9a 26 bb bf ae 9f bd 63 dc ce 3a f5 3d 9c be
       -0.0025421835 -0.07797002 0.0015782233 -0.3051602
000070 c8 b6 3d 3d 40 32 8c be d0 44 44 3d c4 4e c5 bc
       0.046316892 -0.27382088 0.047917187 -0.02408541
000080 ff 42 c8 3d 47 8c 5f be 24 e6 c7 bb 9e 02 d8 bd
       0.097784035 -0.21830855 -0.006100433 -0.10547374
000090 97 20 1a 3c 60 f6 b0 bd eb e1 9c 3c b7 e5 1a be
       0.009407184 -0.08640742 0.019150695 -0.15126692
0000a0 a0 8d ac 3d 5f 25 6e be ed 71 20 be 79 ce 3e 3d
       0.0842545 -0.23256443 -0.15668459 0.046583626
0000b0 52 97 59 bd 29 49 1a 3e cf ba 19 be 18 b2 9a bd
       -0.053122826 0.15066971 -0.15012668 -0.075535
0000c0 8b 7a 0a bc 00 28 39 3e 4e e2 27 3e 07 56 28 3e
       -0.008452068 0.18081665 0.16394922 0.16439067
0000d0 bd 38 26 3e fb 57 85 be 4c 75 09 be 0d 5c 66 bd
       0.16232581 -0.26043686 -0.13423651 -0.05624013
0000e0 a4 70 8b be 82 ca 05 be 40 3d 91 bd 43 54 8c bc
       -0.27234375 -0.13065532 -0.07091761 -0.017130023
0000f0 89 7e 39 bd 08 d0 df bd 68 18 74 be 3a 33 42 be
       -0.04528669 -0.10928351 -0.23837435 -0.18964854

encoder.layers.0.linear2.weight f4 [16, 64]
000000 9b 1b e4 3c de 99 fa bc 54 24 65 3d 98 48 32 3d
       0.027845195 -0.030590948 0.05594285 0.043526262
000010 8b ac ae bd c3 3c bd 3c 4a b7 62 3d 56 f4 cb bd
       -0.08529004 0.023100263 0.05535058 -0.09958713
000020 85 fa 6d bd 8c da 9c 3d fa 4d a1 bd 7d cf e8 3c
       -0.058100242 0.07658872 -0.07876201 0.02841925
000030 29 b8 ad bc 81 28 95 3d 24 38 97 bc c0 6a c2 bd
       -0.021205978 0.07283116 -0.018459387 -0.09493017
000040 76 e1 d7 3c 74 6d a2 bd 23 d4 0e 3d 0d 16 27 bd
       0.026352625 -0.07931033 0.034870278 -0.040792514
000050 2e 27 03 3e 95 52 ae 3c 5d 35 c5 3d 58 71 1f bd
       0.12807915 0.021279613 0.09629319 -0.038926452
000060 1a 9d 8d 3c 47 9e 53 3c f2 e7 6b 3b 16 03 81 3d
       0.017286826 0.012916154 0.0035996404 0.06299417
000070 9b bd 27 bd 8e cb 88 bd f9 9f c0 3d a7 4f 10 bd
       -0.040952306 -0.0667945 0.09405512 -0.035232212
000080 ee a4 3d 3d 10 00 8d 3d 8a 08 a7 bd d3 6f df bc
       0.046299867 0.068847775 -0.081559256 -0.027275002
000090 47 fe 81 bd 54 9c c1 bd 8d 33 82 3d 71 61 0a 3d
       -0.06347328 -0.09453645 0.06357489 0.033784334
0000a0 9a 65 6e 3d b8 d3 e2 bc 52 2b 4e bd e2 f0 6b 3c
       0.058202364 -0.027688846 -0.050334282 0.014400693
0000b0 eb a4 07 bd 35 a9 5d 3d 17 21 34 be 1d 70 c9 3d
       -0.033116262 0.054116447 -0.17590748 0.09835837
0000c0 ee 61 aa 3c 18 e8 82 3d 8b 88 ef 3d 8e bc f4 bd
       0.02079865 0.063919246 0.116959654 -0.119500265
0000d0 a7 91 13 be 3c 90 b3 3d 95 65 17 be 40 9f d2 bd
       -0.1441103 0.08767745 -0.14784844 -0.10284281
0000e0 13 2f 3c 3d ed d4 59 bd 75 a1 a9 3d db df 6e 3d
       0.04594333 -0.053181577 0.082827486 0.058318954
0000f0 7b 7d 90 3d 26 d2 85 3d 1e 80 17 3d 05 81 8c 3b
       0.070551835 0.06534223 0.036987416 0.0042878413
000100 62 c6 79 bd c5 02 0f bd 0e 07 0c 3d 47 55 bc 3d
       -0.06098021 -0.03491475 0.034186415 0.09195953
000110 a4 e5 0b bc 95 db ff bd 3b e3 b0 bd b0 20 c8 bd
       -0.008538637 -0.12493054 -0.08637091 -0.0977186
000120 fb d7 a8 bd 32 1b 2d bc 34 7e f4 bd a6 0c 89 3d
       -0.0824432 -0.010565566 -0.11938134 0.066918656
000130 c4 8e a1 bd 5d 97 93 bc 55 52 15 be 4f 43 10 bd
       -0.078885585 -0.018016512 -0.14582188 -0.03522044
000140 c2 a4 34 3c 9e 40 06 bd 51 5d 35 bd 36 12 ed bc
       0.011025609 -0.032776468 -0.044278447 -0.028939348
000150 ad b9 27 bd f7 03 61 3c b3 8a f2 3d 70 47 50 3c
       -0.04094856 0.013733855 0.11842861 0.0127123445
000160 06 b5 22 3e 68 85 ed bd ae 18 96 3a 89 07 1e 3d
       0.15889367 -0.11597711 0.0011451447 0.038581405
000170 fd 37 a1 3b bc bc 4b 3d 07 f7 3d bd 9d 17 e1 bd
       0.0049200044 0.049740538 -0.04637816 -0.10990832
000180 89 40 11 3d 50 cc 27 3d 29 08 9c bd 32 c9 97 3d
       0.035461936 0.040966332 -0.07618744 0.07411422
000190 a7 c5 66 3c 66 62 c5 bd e4 3f ba 3c 9c 0b 95 3c
       0.01408521 -0.09637909 0.022735544 0.018194012
0001a0 6b 2b 02 be 8f 24 c6 bd 21 ba 7b bd 84 25 6c bc
       -0.12711875 -0.09674942 -0.061456803 -0.014413241
0001b0 ab 40 ef 3d f4 38 1b be f0 2c 0e 3e 4d 25 1c 3d
       0.11682256 -0.15158445 0.1388433 0.03812151
0001c0 6b a4 ac bd 89 96 be bd e0 9c f7 bc 19 c9 d7 bc
       -0.08429798 -0.09306056 -0.030226171 -0.026341008
0001d0 9a 54 18 3d 1a 83 1d be 73 21 eb bc b5 bd b7 bd
       0.037190057 -0.15382043 -0.028702473 -0.089717306
0001e0 4c 51 78 3b 1e 14 79 3d 4a fe 02 3e 69 0e b8 3d
       0.0037890254 0.0608102 0.12792316 0.089871235
0001f0 76 43 ac bc 00 8f e1 3d 0f 9b b6 bc 0e e1 ca 3d
       -0.021028262 0.11013603 -0.022290735 0.09906207
000200 77 9e ae 3c 62 4b 2f bd 2e 96 56 bb ec 92 db bd
       0.021315796 -0.0427965 -0.0032743323 -0.107213825
000210 ce ea b0 3d 3a ec fb 3b 88 18 83 bb 4b b8 a8 bd
       0.086385354 0.0076880725 -0.004000727 -0.08238276
000220 2f 84 06 3d 04 e4 ec bd 78 2b d1 3d 10 47 29 bc
       0.032840904 -0.11566928 0.10213369 -0.010331884
000230 6a d3 82 bd c0 cc b9 3d 30 df 41 3d ef f2 4a 3d
       -0.0638798 0.09072256 0.04733199 0.049548086
000240 1d 17 cd 3d c6 29 97 3b b4 59 20 bd e9 23 5b bd
       0.10014174 0.004613134 -0.039148048 -0.053501043
000250 be a1 84 3d d5 e0 cb bc 1a a1 9f bd c1 10 ae b9
       0.064761624 -0.024887482 -0.077943996 -0.0003320035
000260 9a 06 1e be eb 36 ed 3d b9 76 c7 bc 5b a4 2b bc
       -0.15432206 0.115827404 -0.024348604 -0.010476197
000270 09 4a b4 bc b4 e1 27 bc 1f 42 d8 bc 97 4e ac bd
       -0.022007959 -0.010246683 -0.026398716 -0.08413427
000280 8a 31 53 3d 93 e9 a6 bd 3d 02 b6 3b 8f 45 5f bd
       0.051560916 -0.081500195 0.005554466 -0.054509696
000290 e3 3f af bd 93 16 c7 3d 26 c8 db bd e1 47 c1 bc
       -0.08557107 0.097211026 -0.10731535 -0.023593845
0002a0 4e fe 00 3c 29 7d 0c be 45 2c 07 3e d4 52 ef bd
       0.007873131 -0.1371962 0.13200481 -0.1168572
0002b0 99 50 ba bc 51 45 73 3d c5 20 4b 3d fa 0d 0c be
       -0.02274351 0.059392277 0.0495918 -0.13677207
0002c0 25 51 aa bd 54 92 c0 3c e8 7e ef 3d ec 31 05 3e
       -0.08316258 0.023507275 0.11694127 0.13007325
0002d0 d2 90 81 bb 94 1f 87 3c 9d fd 97 bd ee 29 82 bc
       -0.0039540315 0.01649455 -0.0742142 -0.015889134
0002e0 a1 9a 14 3e 71 0e 3e 3d 42 5b b0 3d 4f eb 23 3e
       0.14512111 0.04640049 0.08611156 0.16007732
0002f0 99 a7 da 3d a4 52 e5 bd 7a 84 0e 3d e7 44 c5 3d
       0.10676498 -0.11197403 0.03479431 0.09632283
000300 b0 3b 82 bd e7 e5 dc bc 36 af 9c bd 24 f6 f2 bd
       -0.06359041 -0.026965095 -0.07650606 -0.11863354
000310 42 e1 03 be 04 42 84 3c 6e eb 65 bd d6 53 27 bd
       -0.12878898 0.01614476 -0.056132726 -0.040851437
000320 0b 14 ae bd db 16 18 3d 7e e6 0f 3e ee 55 90 bd
       -0.08499917 0.03713117 0.1405277 -0.0704764
000330 0a b8 14 bb 97 1a 4b 3d 91 8c 26 3e 70 57 0b 3c
       -0.0022692704 0.049585905 0.1626456 0.008504733
000340 fe 13 4b 3d 72 2d 5c 3d 89 82 de 3d 22 16 48 bc
       0.049579613 0.053754278 0.10864741 -0.012212308
000350 2c 4a 31 3d 8d 00 c4 bd 2e 64 56 bd 6d b5 ab 3d
       0.043283626 -0.095704176 -0.052341633 0.083842136
000360 1e e9 49 bd a2 e1 fe 3d b7 7f 91 bc 3a 1c 08 bc
       -0.049294583 0.1244538 -0.017761094 -0.008307511
000370 49 20 d5 3b 63 6e 37 3d 41 87 04 3e 6c 41 8b 3d
       0.006504093 0.044783007 0.1294222 0.067995876
000380 36 4c c5 bd 4e 0e 92 3c 10 58 f1 bd 1a c1 69 3c
       -0.09633677 0.017829087 -0.11784375 0.01426723
000390 8f 49 d8 3d 94 3d 64 3d 41 e0 65 3d 1f 90 9f 3d
       0.10560905 0.055722788 0.05612207 0.07791161
0003a0 f4 e8 59 bc ed ed 01 3e fe 3b 03 be 3b 0f 04 3e
       -0.013300169 0.12688418 -0.12815854 0.12896435
0003b0 32 e8 a1 3d f0 05 5f 3d 7b ac 5a be be f4 3f 3d
       0.07905616 0.05444902 -0.21354859 0.046864264
0003c0 57 c1 c3 bd 98 50 0c be ef 52 20 3e fa 6a ac 3d
       -0.09558361 -0.13702619 0.15656637 0.08418842
0003d0 40 be 20 3e b5 a2 fc bd ca be da bd 1b 96 8a 3d
       0.15697575 -0.123357214 -0.106809214 0.067669116
0003e0 4d 63 d6 bd c8 7b 8a bd 64 76 00 bc fa 8a fe bc
       -0.10468159 -0.06761891 -0.0078407265 -0.031072129
0003f0 c8 11 dd 3d 62 bf 40 bd 91 8b fd bd 5e e2 d1 bc
       0.10794407 -0.047057517 -0.12380136 -0.025620636

encoder.layers.0.linear2.bias f4 [16]
000000 46 47 9f 3c 0d e8 a1 3c e1 b2 af 3c af 8a 01 bc
       0.019443166 0.01976397 0.0214476 -0.0079066
000010 9c ff 81 3d 12 15 0a be 8d 11 f3 bc 73 76 c7 bd
       0.06347582 -0.134846 -0.029671455 -0.09739389
000020 88 4e ea bb 63 97 32 bd 87 52 e1 bc 40 17 a6 ba
       -0.007150475 -0.043601405 -0.027505172 -0.0012671724
000030 fc 29 76 bd 2f c3 4d bd eb 94 34 3d 63 62 54 3a
       -0.060098633 -0.05023497 0.04408733 0.0008101819

encoder.layers.0.norm1.weight f4 [16]
000000 f2 37 71 3f b7 88 6d 3f 40 07 7c 3f 77 80 80 3f
       0.9422599 0.92786735 0.9844856 1.0039204
000010 01 74 78 3f 34 78 73 3f b4 59 77 3f 7c 27 74 3f
       0.9705201 0.9510529 0.9662125 0.9537275
000020 96 e9 7e 3f a6 5b 7e 3f 9c 2e a8 3f 35 5c 74 3f
       0.99575174 0.99358594 1.3139224 0.95453197
000030 df b4 89 3f fb 6d 75 3f c9 f8 63 3f 76 46 68 3f
       1.0758322 0.9587094 0.8905149 0.90732515

encoder.layers.0.norm1.bias f4 [16]
000000 e5 6f ae 3d d3 bb 9a bc a4 7e f4 3c fe bd 1b bc
       0.08517436 -0.01888839 0.029845543 -0.009505747
000010 03 e5 af 3d fe 86 dc bb 55 84 03 be 8d 65 08 bd
       0.085886024 -0.0067299595 -0.1284345 -0.03329997
000020 7e 32 84 3d af db f1 bc 0e 9c ec 3c c0 ab ab bb
       0.06454943 -0.029523699 0.028883006 -0.00523898
000030 88 78 84 3d 12 8f 77 bd c8 2a 81 3d df b9 8f bd
       0.06468302 -0.060439177 0.06306988 -0.07017874

encoder.layers.0.norm2.weight f4 [16]
000000 8f 3c 61 3f a7 dd 67 3f 40 36 73 3f 41 74 7f 3f
       0.8798303 0.9057259 0.95004654 0.99786764
000010 8f a6 7a 3f d5 f2 6e 3f a4 86 83 3f df 8e 66 3f
       0.979104 0.9333928 1.0275464 0.90061754
000020 bf ea 96 3f c0 da 6c 3f 31 3a 9b 3f 5c 1c 82 3f
       1.1790389 0.92521286 1.2127134 1.0164905
000030 6d 77 72 3f 6e d9 6a 3f 47 a6 64 3f cf e2 6a 3f
       0.9471348 0.9173802 0.8931622 0.9175233

encoder.layers.0.norm2.bias f4 [16]
000000 26 f0 4b 3d 73 3b 89 bd b7 e8 21 3d db 08 a3 bd
       0.04978957 -0.06700792 0.039528575 -0.079606734
000010 9b 5d 08 3b 37 c2 ae 3c 28 7c c1 bd 7b a4 bf 3c
       0.0020807746 0.021332843 -0.09447509 0.02339386
000020 70 e1 9f 39 55 94 74 bc 76 12 ca 3b 7f 9c b6 3c
       0.00030494807 -0.014927943 0.0061667515 0.02229142
000030 2d 9f 57 3d 06 fc 93 bc 5d d0 e7 3c dc 3d 76 bd
       0.052642036 -0.01806451 0.028297598 -0.060117587

encoder.layers.1.self_attn.in_proj_weight f4 [48, 16]
000000 ea 86 0a 3e f4 5d 21 3e 40 72 b6 bd 79 66 b2 3e
       0.13528028 0.15758497 -0.0890851 0.34843805
000010 51 86 08 3e 32 05 1e be 98 6c 65 3e dd 1b 21 3e
       0.13332488 -0.1543167 0.22404706 0.15733285
000020 ec 2c 02 3d b2 d1 2b be 3d a0 aa 3b fe 4e 34 be
       0.031781122 -0.16779211 0.00520709 -0.17608258
000030 00 82 2c 3e ff d7 b3 bd 6c 9f 5b be fc af 45 3d
       0.16846466 -0.08781432 -0.21447533 0.048263535
000040 2c 75 48 3e 8f 98 07 be c9 26 0d 3e db a4 b6 bd
       0.19575948 -0.1324179 0.13784327 -0.089181624
000050 39 73 7e be a4 1b 2b 3e 2d 3a 6d bc 2c 02 6f 3e
       -0.24848641 0.16709763 -0.014479202 0.23340672
000060 eb 7e 07 3e 49 d5 de 3c 63 d4 6a bc de 3f 89 3d
       0.13232009 0.027201312 -0.0143328635 0.06701635
000070 ff e9 78 be c6 de 16 be 53 bc 80 3e 1b 46 76 be
       -0.24308012 -0.14733419 0.2514368 -0.2405018
000080 9e d8 76 bc 7c fa 13 3e d3 b4 b0 be 5c 45 e6 bd
       -0.015066294 0.14451021 -0.34512958 -0.11243698
000090 c3 3e 1d be 12 9b ae 3d 3d a5 0e 3e 2a b0 a3 3e
       -0.15355973 0.08525671 0.13930221 0.3197034
0000a0 aa 3b 5c be dd 1d 44 3e f9 41 69 3e cf 9d 15 be
       -0.21507135 0.19152017 0.22779073 -0.1461098
0000b0 6e f1 c4 be 30 a5 6d 3e a3 13 1f bc 56 5f 8d 3d
       -0.38465446 0.23207545 -0.009709272 0.069029495
0000c0 a5 30 8e be 68 b5 5a bc 6b 97 a3 3d ce 83 0c 3e
       -0.27771488 -0.013348915 0.07987865 0.13722154
0000d0 62 22 ff 3d 0c 16 29 be 84 f9 95 3e 8a b9 05 3e
       0.1245773 -0.16512316 0.29291928 0.13059059
0000e0 30 db ce 3d 7c e3 0e 3d 72 ef f6 bd 66 a9 8f be
       0.101004004 0.034884915 -0.12057389 -0.28058928
0000f0 f7 c5 98 3e 4d cf c3 bd 26 27 f2 3d 1b 12 84 be
       0.29838535 -0.09561024 0.11823873 -0.25795063
000100 66 e8 fe bd d7 6a 59 be 98 d3 82 3e 21 3d 99 3e
       -0.1244667 -0.21232162 0.25552058 0.2992945
000110 d8 df 71 bc d5 71 93 3b e0 45 6c be 5c d7 63 3e
       -0.014762841 0.004499654 -0.2307353 0.22250122
000120 f1 03 03 be af c9 aa 3d 02 8d d0 3c b8 38 75 be
       -0.12794472 0.08339249 0.025457863 -0.23947418
000130 7f 7a 34 be a6 e0 91 3e 91 a5 45 3e 14 97 3e be
       -0.17624854 0.28491706 0.1930144 -0.18612319
000140 d2 47 57 be 7f 83 6a be 25 41 87 3e d9 d3 be bd
       -0.21023491 -0.22901724 0.2641689 -0.093177505
000150 86 00 a0 bd 60 70 9c 3e 18 f6 3b be cf 73 38 bd
       -0.078126 0.30554485 -0.18355596 -0.04503232
000160 56 1c 7e 3d c3 84 2f be 39 50 a1 bd 8c 4f 83 be
       0.062038742 -0.17140488 -0.078766294 -0.25646627
000170 c5 ae 80 3e 2c 15 93 be c7 40 d8 bc d0 21 7a 3e
       0.2513334 -0.2872709 -0.026398076 0.24426961
000180 2e 99 2d 3d c8 4f c4 3c 19 d1 0b bd 4d a7 82 be
       0.04238241 0.023963824 -0.034134958 -0.25518265
000190 6c b6 46 3e 32 07 b0 3d e0 a2 30 be 51 44 bc 3b
       0.19405526 0.085951224 -0.17249632 0.0057454486
0001a0 d8 a9 f5 3d b4 2d a2 3e 94 95 0a be 9f 0c 61 be
       0.11995286 0.31675494 -0.13533622 -0.21977471
0001b0 54 f5 cb bd bb 3d 3d 3e 1d 48 f0 3d 4c 28 19 bd
       -0.09958902 0.1848058 0.117325045 -0.037391946
0001c0 94 9b 2b be a2 31 dc bd 74 6d 0d bd 64 fd 28 3d
       -0.16758567 -0.10751654 -0.03452821 0.041257277
0001d0 5a b2 60 bd e5 5a 54 3e 91 1a 76 be 82 cf 06 3b
       -0.05485759 0.20737799 -0.24033572 0.0020570462
0001e0 51 6c bc bb a8 60 fe 3d 5f f1 8a 3d 7e ea 29 be
       -0.005750217 0.124207795 0.06784319 -0.16593358
0001f0 83 d1 23 3c 1e 56 7d bd 13 1e 7b bd 49 2b 53 bd
       0.009998682 -0.061849706 -0.061307978 -0.05155495
000200 03 91 2c be 59 92 ce bd 78 cd 9f 3e 7f 04 5d be
       -0.16852193 -0.10086507 0.31211448 -0.21583746
000210 1e c3 51 be 4f a6 de 3d 59 4b 55 3c 24 7d 3d 3e
       -0.20484588 0.108715646 0.013018453 0.18504769
000220 ea 86 0b 3e 7f f1 65 be 77 01 82 be 02 d8 f4 3d
       0.13625684 -0.22455405 -0.25391743 0.11955263
000230 f3 48 58 3d 6d c9 fe 3b 87 53 7e be 99 ff 3f be
       0.052803945 0.0077754767 -0.2483655 -0.18749847
000240 8b 7a 27 3e 01 e6 da 3d 7f 99 a7 bd 1b 8a ce 3c
       0.1635534 0.10688401 -0.08183574 0.025212338
000250 3f 97 0a 3e b3 38 8b 3e 48 53 72 3e 2d f6 d8 3d
       0.13534258 0.27191696 0.23664582 0.10593829
000260 39 11 7e bd 92 f5 d5 3d cd 88 10 3e c5 28 8b 3d
       -0.062028144 0.104472294 0.14114685 0.067948855
000270 f9 c7 7d be 52 5f 38 be e8 ca ae 3e 82 ce 3b 3d
       -0.24783315 -0.18005112 0.3413918 0.045851238
000280 1f 31 63 3e b5 23 8b 3e ef ae 1b be 74 10 98 3e
       0.22186707 0.2717568 -0.1520345 0.29700053
000290 5d 35 78 3e 82 b9 53 3d 68 d3 0d 3d 26 7b bb 3e
       0.24239106 0.051690586 0.03462544 0.36617392
0002a0 d4 c7 84 3d 6e 7d ad bd f5 33 f9 3c ec 8c 1f bd
       0.06483427 -0.084711894 0.030420283 -0.038952753
0002b0 5d 33 51 be 2d cb 03 bd 0d 4e ff 3d f6 9a e8 3d
       -0.2042975 -0.032176185 0.12466059 0.113576815
0002c0 ee 38 18 be ff a6 ae 3e bf e3 8d bd 27 e3 f7 3c
       -0.14865467 0.34111783 -0.06928205 0.030259682
0002d0 01 9f 99 bd 54 a5 03 3e 40 a3 88 3e 70 e1 6e 3d
       -0.07501031 0.12856036 0.2668705 0.058320463
0002e0 08 14 68 be 8e bb 7f 3e e8 8c 4f 3e 1f 5b 0d 3d
       -0.22663891 0.2497389 0.20268595 0.034510728
0002f0 a8 76 a3 3c 0a 9f 83 3e 2f 84 40 bb ee 5b ef 3d
       0.01995404 0.25707275 -0.0029375663 0.11687456
000300 ac cf 93 3e 9f b6 e7 bd ef 2b 58 3d 8d be 8b 3e
       0.2886938 -0.11314129 0.052776273 0.27293816
000310 cc 4e 15 be ea 66 24 be 0e 5a 1a be 51 ba 2e 3e
       -0.1458084 -0.16054884 -0.15073416 0.17063262
000320 ba 9e ea bd 86 c0 9b be 4d d5 26 3e 42 79 10 bd
       -0.11456056 -0.3042032 0.16292305 -0.03527189
000330 d6 fb cb bd 45 31 13 be 4a 01 9f 3e 5e c0 c9 3d
       -0.09960143 -0.14374264 0.3105567 0.09851144
000340 17 19 97 bc 24 bc 2a be 09 ea ab bd ca cf 7e be
       -0.018444581 -0.16673332 -0.08394248 -0.24883953
000350 99 85 09 3e 79 46 c2 3d 67 66 2b be 49 6b 6f be
       0.1342987 0.09486098 -0.16738282 -0.2338077
000360 93 56 88 3e 11 26 64 be f5 48 65 3e d8 d7 82 be
       0.2662855 -0.22280146 0.22391112 -0.255553
000370 1c c7 f3 3d f1 2c 6d be bb e8 2f bd eb 0a 29 bd
       0.119032115 -0.23161675 -0.04294656 -0.041270178
000380 14 fc 0b be e5 7d cd bd c0 5f 2e 3d 3e ca 20 be
       -0.13670379 -0.10033778 0.042571783 -0.1570215
000390 ec 9c 93 3e 68 20 fb 3d 19 6f 56 be d7 53 45 3e
       0.2883066 0.122620404 -0.20940818 0.19270264
0003a0 57 86 df bd 00 23 c9 bc 90 fd 45 3d cd 5f 2f be
       -0.10914295 -0.024552822 0.04833752 -0.17126389
0003b0 bd 8b e5 3d 10 ac c1 3d 78 9b 01 3e e4 e5 02 be
       0.112082936 0.094566464 0.12656963 -0.12783009
0003c0 11 b8 0a be 9a 95 68 3e 5c 42 91 3e 59 c0 ea 3d
       -0.13546778 0.22713318 0.2837094 0.11462469
0003d0 70 93 0a 3d 6c 9c 11 3e 97 33 ab 3e 3b de 3f be
       0.033832014 0.14219826 0.33437797 -0.18737118
0003e0 49 38 39 3e ec 29 52 3d c1 f2 f5 bb 9e dd 39 bd
       0.18087877 0.05130951 -0.007505745 -0.045377366
0003f0 fe 8d 6f 3e b0 85 56 be 54 c6 3f be 2b 20 11 3e
       0.2339401 -0.20949435 -0.18728 0.14172427

encoder.layers.1.self_attn.in_proj_bias f4 [48]
000000 fd 9f 91 bd 96 b3 77 3d 6b ee 76 bd 04 f9 cf 3c
       -0.071105935 0.060474 -0.060285967 0.025387295
000010 dc 97 f4 3b 7e 1e 0c 3d 29 61 c2 3b 06 0d fc bc
       0.007464392 0.034208767 0.0059319925 -0.030767929
000020 6b ae 97 3c 21 43 8a 3d df 44 ac bd 18 c3 94 bd
       0.018515786 0.06751085 -0.084115736 -0.07263774
000030 d9 d5 72 bc c3 d0 17 3d 23 20 bc 3d e0 a7 e9 bc
       -0.014821493 0.037064325 0.09185817 -0.028522432
000040 4c 4a a9 ba 3f ab 9f 39 f2 55 87 3a ba 54 5c ba
       -0.0012915819 0.00030454432 0.0010325296 -0.0008404959
000050 76 8a c3 b8 1d ba 14 bb 91 b9 8c 3a bf fa 17 ba
       -9.324115e-05 -0.002269394 0.0010736455 -0.0005797557
000060 a8 29 15 3a 7d 96 9c b9 df e6 a0 39 5d 94 e1 39
       0.0005690106 -0.0002986676 0.0003068959 0.00043025883
000070 e5 7a 83 3a 8a f1 64 39 80 53 d5 b8 5c c9 58 ba
       0.0010031132 0.00021833755 -0.000101721846 -0.0008269751
000080 89 5f 4b bc d6 f5 19 bd eb 27 f7 3b fd 69 16 bd
       -0.012412914 -0.037587963 0.0075426004 -0.036722172
000090 22 6c 8f 3d e0 d4 70 bd 15 ac 76 bb b9 e0 6e 3c
       0.070030466 -0.058796763 -0.003763919 0.014579945
0000a0 5d c5 30 bd 89 0a 0c bb bf 98 34 3d b5 84 bf 3c
       -0.04315697 -0.0021368584 0.044090983 0.02337871
0000b0 10 00 07 3d 13 d4 63 bd c4 15 15 bc 16 01 82 bc
       0.032959044 -0.05562217 -0.009099428 -0.015869658

encoder.layers.1.self_attn.out_proj.weight f4 [16, 16]
000000 ef c2 d3 bd 4f 03 08 3e 6a db d2 3d 72 14 93 3d
       -0.10339915 0.13282512 0.10295756 0.07181634
000010 1f 92 32 be 93 cf 05 be a5 35 e8 bd 43 a0 ce 3c
       -0.17438553 -0.13067465 -0.11338357 0.025222903
000020 c2 40 30 3e 1a db a8 bd 77 42 26 3e 4c 7f 35 3e
       0.17212203 -0.08244915 0.16236292 0.17724341
000030 22 c0 6d 3e bb 8c 95 bd 56 b8 4a bd b8 37 06 be
       0.23217824 -0.07302233 -0.049492203 -0.13107193
000040 7c 56 b4 bd c5 f9 8d bd d0 86 40 3e c8 fb 73 3e
       -0.08805558 -0.069324054 0.18801427 0.23826516
000050 6f 5b 1b be 01 f5 56 3d a1 d6 06 bd 23 d1 5e be
       -0.15171598 0.052479748 -0.03291953 -0.21759467
000060 f1 5e 0d be 88 e4 f2 3d 59 7b 7a be 20 95 47 3d
       -0.13805749 0.11859995 -0.24461116 0.0487262
000070 14 42 40 be 64 99 02 3e e3 fa 46 3e aa 20 c7 3c
       -0.18775207 0.12753826 0.19431643 0.024307568
000080 23 f5 71 3d fd f5 40 be ea 97 5f bc e5 27 66 bc
       0.05907167 -0.18843837 -0.013647059 -0.014047598
000090 74 43 22 3e c2 c4 7e 3d fc ba 69 be 78 65 7f 3e
       0.15846044 0.06219936 -0.22825235 0.24941051
0000a0 fa 3e 1b 3e 3a 24 38 bd 51 33 57 3c 62 45 b5 bd
       0.15160742 -0.044956423 0.013134793 -0.08851124
0000b0 66 70 e7 bb 6c 66 3f be 5b af a1 3d c3 5c 31 3d
       -0.0070629595 -0.18691415 0.078947745 0.043301355
0000c0 9b a1 83 bd b0 85 08 3e eb 25 9f 3d 09 9d 1c 3e
       -0.06427308 0.13332248 0.07770904 0.15294279
0000d0 6f 82 31 3e 54 47 04 3e 8d 81 8e 3d 8e 57 d3 bb
       0.17334913 0.12917835 0.069583036 -0.0064496463
0000e0 c1 88 be 3d b7 a9 fa bd 32 76 6f 3d 8d 50 ba bc
       0.093034275 -0.12239402 0.05846233 -0.022743488
0000f0 bd dc 7f 3e 70 9c 02 3e c3 de de 3c 48 75 88 3e
       0.24986549 0.12754989 0.02720583 0.26651978
000100 57 b7 43 3e 5b 5c c1 3d b6 d2 6c bd 1e e1 fe bd
       0.19112907 0.094414435 -0.057818137 -0.124452814
000110 9f 72 e0 3d b7 f6 09 3e 79 c1 33 3e 26 56 33 3d
       0.10959362 0.1347302 0.17554273 0.04378333
000120 40 8c 5a bd 34 d6 3e bd cc f4 75 3d f1 9f 4c be
       -0.05335641 -0.046591 0.06004791 -0.19982888
000130 71 70 17 3e 7e 92 37 be 86 cf a6 bd 30 0b 52 be
       0.14788987 -0.17926976 -0.08145051 -0.2051208
000140 0b a6 7d bd 8b 1f 71 bd bd d6 07 3e 6b 5d 6a be
       -0.06192593 -0.058867972 0.1326551 -0.22887199
000150 3e 4f 0f bd 91 15 54 3e a4 eb 3e be 68 a1 88 bd
       -0.03498768 0.20711352 -0.18644577 -0.06671411
000160 ba 8a c8 3c f3 74 06 be b6 2c 2a be 2c 93 9d bd
       0.024480212 -0.1313055 -0.16618618 -0.076940864
000170 d3 f6 f8 3d e3 ca d4 bd 7f 2b 27 be f0 0d 41 be
       0.12156453 -0.1039026 -0.16325186 -0.18852973
000180 d0 dc 4d be ac 54 f6 bd cc 5e 40 be 8c 33 c2 bb
       -0.20103765 -0.12027869 -0.18786162 -0.005926555
000190 ff bf 70 be fc de 1a 3e 98 0f 22 3e 09 6f 63 be
       -0.2351074 0.15124124 0.15826261 -0.22210325
0001a0 d0 c6 83 3d e3 29 a6 bd 64 e1 6f be 1e cd fe bd
       0.06434405 -0.08113458 -0.23425823 -0.12441467
0001b0 c4 d1 dc 3b 1a 50 1e 3e 28 0c 8e 3d 84 e3 4c bd
       0.006738873 0.15460244 0.06935912 -0.050021663
0001c0 5e 6d db 3d 20 c2 cb bd 33 4c 08 be d3 56 0a be
       0.107142195 -0.09949136 -0.13310318 -0.13509683
0001d0 66 73 2f be 4a f6 17 3e f0 50 70 3e 76 e6 46 3d
       -0.17133865 0.14840046 0.23468375 0.04855963
0001e0 5e 3d 32 3e 86 14 90 bd 62 e3 fc 3d c6 e3 f5 b9
       0.17406222 -0.070351645 0.12348057 -0.00046899746
0001f0 97 4c ab bd 87 22 44 3d 60 30 1e 3d 51 c2 1e be
       -0.08364218 0.04788449 0.038620353 -0.15503813
000200 55 45 02 bc 7d a8 e9 bd 2d c0 00 3e 12 8a 9b 3d
       -0.0079511 -0.1140909 0.12573309 0.07594694
000210 8f ed 09 3e b2 4e ae bd 88 f6 8e 3e 27 63 65 be
       0.13469528 -0.08511104 0.27922463 -0.22401105
000220 0a dd 32 bd 16 55 ab bd 20 1f 74 3b ca e7 5a 3d
       -0.04366783 -0.08365838 0.0037249997 0.053443708
000230 fd f1 e2 3d 9d 5c ab bd 8a 7c 3d 3d 77 74 24 be
       0.11081312 -0.08367274 0.046261348 -0.16060053
000240 80 61 e3 3d e7 13 bd 3d e0 82 31 be 47 5a 9f bc
       0.11102581 0.09232312 -0.17335081 -0.019452227
000250 a9 3a 05 bd 2c 56 9d bd 9a 45 93 be a8 41 9a 3d
       -0.032526646 -0.076824516 -0.2876404 0.07532054
000260 98 d3 3b be b1 f4 a9 3d 21 32 68 bc ad 86 26 bc
       -0.18342435 0.08298624 -0.014172108 -0.010163945
000270 4b c0 bb 3b 70 a6 b6 bd bd 37 ff 3d 43 b6 db bd
       0.00572971 -0.08918464 0.12461803 -0.10728123
000280 66 a5 9b bd 05 eb c1 bd 7e dc 03 be 16 34 8d be
       -0.075999066 -0.094686545 -0.1287708 -0.275788
000290 06 a5 88 3e 63 b9 3b be dd 49 e1 3d 54 05 c4 3d
       0.26688403 -0.18332438 0.110004164 0.09571329
0002a0 76 8e 30 3e 26 1b ea bd 23 fc ee 3d db 32 58 be
       0.17241845 -0.114309594 0.11669185 -0.2111315
0002b0 05 44 0f 3d 92 c7 66 3c 94 e4 4d 3d c0 da 3c 3d
       0.034976978 0.014085667 0.050266817 0.046107054
0002c0 e3 1a 1b 3e 8c a8 c1 3d 46 e5 97 bd 76 a4 a2 3c
       0.15146975 0.09455976 -0.07416777 0.019853812
0002d0 c7 68 d2 ba 86 d3 ea bd cc ff e4 3d 3b b4 d7 3c
       -0.0016052955 -0.11466126 0.11181602 0.026331058
0002e0 a6 3d 8b 3d c4 03 ef bc a9 43 e3 3d 9f 9d 88 be
       0.06798868 -0.0291766 0.110968895 -0.26682755
0002f0 e7 bb 0c 3e 41 fd 9c 3d 89 c0 c2 3d 63 5a 3f bd
       0.13743554 0.07665492 0.095093794 -0.04671706
000300 1a 95 3d 3e 30 10 03 be 30 c9 64 3e 71 49 67 bc
       0.18513909 -0.12799144 0.22342372 -0.014116631
000310 84 6f 96 3e 02 c1 ef bd a9 99 79 be 4b 9d 0f be
       0.29381955 -0.11706735 -0.24375023 -0.14024846
000320 a3 1f 75 3d 0f c6 04 3d aa 07 47 be 52 1d 57 be
       0.059844624 0.032415446 -0.19436517 -0.21007279
000330 4e 71 8b be 5d e7 ec bd 5f 6a 4d be 09 0f 78 be
       -0.27234882 -0.115675665 -0.20060109 -0.24224485
000340 ef 27 dc 3d d9 1f 11 3e 8f 5c 4e be a0 0c 86 3d
       0.10749804 0.14172305 -0.20152496 0.06545377
000350 1f 43 32 be 0e d4 e0 3d 9d db cf 3c 70 82 a5 3c
       -0.17408417 0.10977946 0.025373274 0.020203799
000360 0a 0d e0 bd ae 35 8a 3e f4 0f 49 be d9 c9 ce 3d
       -0.10939987 0.2699408 -0.19634992 0.10097093
000370 03 99 ef 3c c4 d9 14 be ae 47 00 be 94 f0 00 3e
       0.029247766 -0.14536196 -0.12527344 0.12591773
000380 3b c6 cb bd 8d 04 c0 bd 6a e6 01 3e bb b8 40 be
       -0.09949919 -0.09375868 0.12685552 -0.18820469
000390 6f ed 7a be 24 fb 1f 3e 2c 59 65 3e dd bc 38 be
       -0.24504636 0.15623146 0.22397298 -0.18040796
0003a0 c1 78 0a be d9 65 1c 3e c4 de ff 3d f6 07 12 be
       -0.13522626 0.15273227 0.12493661 -0.1426085
0003b0 10 91 31 3e 18 e3 af bd a5 98 96 3d f1 e1 1a be
       0.17340493 -0.085882366 0.073533334 -0.15125252
0003c0 0a d0 78 be ae 44 1f 3e dd e7 4b bd cc 4f 66 3e
       -0.2429811 0.15553543 -0.04978167 0.22491378
0003d0 9b 69 30 be ec 61 1a be 98 65 52 3e d5 0f 37 be
       -0.17227785 -0.15076417 0.20546567 -0.17877133
0003e0 c1 40 23 be d8 75 1c 3e 85 e4 50 3e a7 90 de bc
       -0.1594267 0.15279329 0.20399673 -0.027168585
0003f0 10 91 36 be 7e 97 97 bd b6 30 68 3e 47 32 5d 3e
       -0.17828774 -0.07401942 0.22674832 0.2160121

encoder.layers.1.self_attn.out_proj.bias f4 [16]
000000 e2 f2 e4 bd 3f 12 fe bc 0e 0b 9f 3b da ed 08 3c
       -0.11179139 -0.03101456 0.0048536127 0.0083574895
000010 26 c9 6c bc ba d2 23 bd 74 11 55 bd be 8f a8 bc
       -0.014452254 -0.039995886 -0.052018598 -0.020576354
000020 12 a5 e4 3a d4 5b 33 3c 39 11 a4 3c 7d 2c 85 bb
       0.0017444214 0.0109471865 0.020027744 -0.0040641413
000030 1e fa c0 3c d1 2d 0b 3c 50 92 4a bc e7 2d e9 3c
       0.023556765 0.00849481 -0.012363985 0.02846427
